saved_models/fullDeepLinear4_200.pth (torch_old, 411117 bytes, 8 tensors)

fc1.weight f4 [200, 72]
0.033296652 -0.008992955 -0.13319065 -0.20891714 -0.05760984 0.031916387 -0.004095898 0.024905793
-0.062440056 0.25655803 0.2002825 0.25325027 -0.10147402 -0.05883474 0.17113733 -0.042076286
0.2277415 0.009108282 -0.31474417 -0.34218013 0.09134075 0.47573143 -0.2037461 -0.14886543
-0.25897157 0.43975118 -0.39608455 -0.3270388 -0.025011016 0.45953715 -0.30692184 -0.10960987
0.045160424 -0.12684287 -0.25205132 -0.26593128 -0.26303184 -0.17985335 -0.110116936 -0.0052267564
0.041000497 0.07995496 -0.20700905 -0.2130279 -0.103272535 -0.3990415 -0.042492505 0.12016145
-0.029377555 -0.19311613 -0.046549324 -0.16161822 -0.14948583 -0.2153285 -0.01131197 0.23941489
0.14721985 -0.4829081 0.30792916 -0.024062572 0.10847876 0.043494917 0.14227673 -0.36197916
0.064920045 0.32343757 0.035935197 0.30951282 -0.016368046 0.04122636 0.27630752 0.15579155
-0.13551146 0.1986991 -0.27161753 -0.13821143 0.021818276 0.07389595 -0.31036618 0.23459327
-0.04622189 0.16584808 0.41657817 -0.105825454 0.0437745 0.96398026 0.029868178 -0.20054753
0.11782408 0.18821903 -0.09819852 -0.19597328 -0.1504096 -0.29661116 -0.20355938 -0.29319775
-0.32005763 -0.41506812 -0.14103967 -0.3484576 -0.1389885 -0.3840566 -0.20808582 -0.13584912
-0.26164493 -0.1000842 -0.14292137 -0.17905428 0.23998474 0.08210431 -0.00891381 -0.07878707
-0.08402477 0.062106386 -0.056235474 -0.2162051 -0.05343418 -0.072366334 0.119671516 0.11130811
0.26373193 0.07833323 -0.030059429 -0.015453562 -0.06684871 -0.45939067 -0.10698002 -0.010122077
-0.21658993 -0.32304448 -0.3557266 -0.21238592 -0.17406482 -0.061256643 0.003263648 -0.3427326
-0.2237944 0.0018804008 -0.2624655 -0.14050569 0.008620173 -0.11407956 -0.06950432 -0.27814394
0.09530845 0.055842943 0.17953219 0.1766206 0.2781748 0.3187139 0.18488176 0.29451606
0.0907753 0.12592909 0.15296924 0.17014715 0.20715423 0.14053212 0.42174882 0.18793415
0.120337315 0.14275497 -0.03976207 0.10216401 0.07906372 -0.04966707 -1.1233212 0.2173436
0.09362334 -0.012048018 -1.2601262 0.19578283 0.13239898 0.075153634 -1.4751604 0.14298491
0.12440794 -0.07659788 -0.72162324 -0.011878949 -0.13430631 -0.10778903 -0.20419802 -0.10068731
-0.13095261 -0.11540279 -0.16834718 -0.2630679 -0.15533182 -0.07194561 -0.10763272 -0.21098275
-0.18481298 -0.061716933 -0.051650554 -0.121377066 -0.3341132 -0.22711305 0.44581854 -0.13647124
-0.3119082 -0.38166517 0.9879576 -0.26391807 -0.1395052 -0.5558458 1.4590831 -0.15706238
-0.111892395 -0.32952046 1.4699957 -0.35170195 -0.25021976 -0.1273396 1.0852565 -0.29526025
0.25144947 0.14385073 0.070952035 0.0862165 0.1711514 0.09268398 -0.072976016 -0.0040752795
0.47055927 0.0383981 -0.047858797 0.12106821 0.021325085 0.12390665 0.04306466 0.027004031
-0.086688176 0.15668309 -0.11493657 0.097837485 -0.3768798 0.08742027 0.09902267 0.025427226
-0.94923025 -0.5915836 -0.41643322 -0.47021577 0.0403052 0.034567896 0.16069417 0.23817503
-0.12506661 0.30378973 0.14101385 -0.032129843 -0.22416805 -0.08970951 -0.17195232 -0.25098678
00000000: 1262 083d 3057 13bc 2163 08be 60ee 55be
00000010: 4cf8 6bbd c2ba 023d e236 86bb 3c07 cc3c
00000020: 25c1 7fbd 935b 833e db16 4d3e 05aa 813e
00000030: 9cd1 cfbd b2fc 70bd a03e 2f3e 2f58 2cbd
00000040: 1135 693e e73a 153c 2626 a1be 3c32 afbe
00000050: dc10 bb3d 1293 f33e d1a2 50be 2e70 18be
00000060: ec97 84be 1127 e13e 98cb cabe a171 a7be
00000070: e7e3 ccbc 7448 eb3e dc24 9dbe 247b e0bd
00000080: 23fa 383d 19e3 01be df0c 81be 2528 88be
00000090: 1cac 86be 7a2b 38be fd84 e1bd 3645 abbb
000000a0: 23f0 273d 6dbf a33d 2efa 53be fc23 5abe
000000b0: 8d80 d3bd 2b4f ccbe 9f0c 2ebd 3517 f63d
000000c0: 33a9 f0bc 3cc0 45be 81aa 3ebd 3f7f 25be
000000d0: d012 19be 137f 5cbe d755 39bc 2d29 753e
000000e0: cdc0 163e bb3f f7be e4a8 9d3e df1e c5bc
000000f0: 1d2a de3d ba27 323d feb0 113e 5555 b9be
00000100: cdf4 843d 9c99 a53e c930 133d 7778 9e3e
00000110: 4816 86bc f9dc 283d 2e78 8d3e d287 1f3e
00000120: 84c3 0abe c777 4b3e 7411 8bbe 4c87 0dbe
00000130: 3ebc b23c c356 973d 51e8 9ebe 3839 703e
00000140: 2a53 3dbd 14d4 293e bc49 d53e 04bb d8bd
00000150: e44c 333d 69c7 763f 1cae f43c 555c 4dbe
00000160: c04d f13d 7dbc 403e 4e1c c9bd 38ad 48be
00000170: f904 1abe 6bdd 97be df71 50be 041e 96be
00000180: 98de a3be cf83 d4be b46c 10be 0969 b2be
00000190: 0053 0ebe 11a3 c4be 7314 55be 081c 0bbe
000001a0: 53f6 85be f2f8 ccbd fb59 12be 015a 37be
000001b0: 8fbe 753e 4e26 a83d 3b0b 12bc 1e5b a1bd
000001c0: 2e15 acbd 4463 7e3d 2b57 66bd df64 5dbe
000001d0: ccdd 5abd cd34 94bd 5716 f53d 82f5 e33d
000001e0: df07 873e 2c6d a03d 313f f6bc f030 7dbc
000001f0: fae7 88bd 4135 ebbe 5718 dbbd 11d7 25bc
00000200: c0c9 5dbe 1666 a5be cc21 b6be b27b 59be
00000210: 0c3e 32be 3fe8 7abd ede2 553b a67a afbe
00000220: 5c2a 65be c877 f63a e161 86be b9e0 0fbe
00000230: a03b 0d3c 8ba2 e9bd 4858 8ebd e268 8ebe
00000240: 1431 c33d 92bb 643d 49d7 373e 08dc 343e
00000250: ed6c 8e3e 782e a33e a551 3d3e cfca 963e
00000260: 67e8 b93d 8ef3 003e f8a3 1c3e 0e3b 2e3e
00000270: 3d20 543e a7e7 0f3e 76ef d73e cf71 403e
00000280: 6973 f63d 5c2e 123e 8ddd 22bd 5d3b d13d
00000290: 29ec a13d b36f 4bbd fdc8 8fbf 528f 5e3e
000002a0: 98bd bf3d 0d65 45bc d14b a1bf 4b7b 483e
000002b0: 9993 073e 26ea 993d 0ed2 bcbf a36a 123e
000002c0: 97c9 fe3d 59df 9cbd 4dbc 38bf ec9f 42bc
000002d0: 9887 09be 7fc0 dcbd 4919 51be 2635 cebd
000002e0: 7118 06be 4c58 ecbd 3463 2cbe d6b0 86be
000002f0: 4e0f 1fbe 3858 93bd 8b6e dcbd dd0b 58be
00000300: 9d3f 3dbe e5ca 7cbd 888f 53bd 8a94 f8bd
00000310: e310 abbe 5390 68be 5442 e43e 1ebf 0bbe
00000320: 6eb2 9fbe 9e69 c3be caea 7c3f 4520 87be
00000330: 73da 0ebe e94b 0ebf 3cc3 ba3f f6d4 20be
00000340: d727 e5bd e8b6 a8be d228 bc3f 4712 b4be
00000350: ce1c 80be 5065 02be afe9 8a3f 5a2c 97be
00000360: fcbd 803e 9b4d 133e 4d4f 913d 4792 b03d
00000370: 5042 2f3e 19d1 bd3d 7374 95bd ec89 85bb
00000380: 25ed f03e 5347 1d3d 9607 44bd 9cf2 f73d
00000390: f2b1 ae3c c5c2 fd3d 9264 303d 8f37 dd3c
000003a0: 9289 b1bd 8871 203e dd63 ebbd 055f c83d
000003b0: 64f6 c0be 6609 b33d 66cc ca3d c24c d03c
000003c0: c100 73bf 0672 17bf bc36 d5be 1fc0 f0be
000003d0: 1117 253d 1197 0d3d 038d 243e 28e4 733e
000003e0: 7611 00be 548a 9b3e ef65 103e 959a 03bd
000003f0: 4f8c 65be 9fb9 b7bd 4514 30be 5781 80be

fc1.bias f4 [200]
-0.098237924 0.16848917 -1.3023491 -0.58715034 0.114554174 -1.0153731 -0.686882 -0.13868892
0.15196039 0.54493797 -0.73937756 -0.41210634 -0.75253135 0.0042584655 -0.31123954 -0.34779057
-0.51524687 -1.0713446 -0.26045427 -0.40340915 -0.28894258 0.060821198 -0.122378044 -0.15722744
-1.0166054 0.46300462 -0.39140975 -0.19579259 -0.4376155 -0.9050884 -0.059192028 -0.3982303
0.52352303 -0.03133864 -0.67410934 0.22815053 -0.38094792 -0.13131657 -0.30606532 -0.49407735
-0.8734714 0.3283309 0.3369108 0.035255056 -0.73746437 -0.26959878 -0.8675922 -0.101250745
-0.24972251 0.17781606 -0.9555437 -0.72081095 -1.2265161 -0.13594185 -0.40159348 -1.0474877
-0.50986123 -0.32697222 0.37911388 -0.3938327 -0.05069363 0.36081848 -0.38206205 0.24295044
-0.91204363 -0.5855079 -0.05301682 -0.030171039 -0.9427754 0.11855674 0.11796681 -0.35887298
-0.6963313 -0.9031986 -0.32019418 -1.0274802 -0.057959944 0.20513579 0.015157546 -1.0812994
-0.86181176 -0.4099753 0.21819127 0.22956894 -1.2674544 -0.4202004 -0.3308305 -0.41201705
-0.62341464 0.19931762 -0.14244229 0.29653993 -0.49597117 -1.061486 -0.18863025 0.50271404
-0.09093274 0.3764102 -0.041888338 0.12040721 -0.767634 -0.06852716 0.5955986 0.54796225
0.18837328 0.31416586 -1.0521948 -0.86185294 -0.31862205 -0.24126245 0.055503756 -0.3492291
0.17248334 -0.39942756 -0.68290967 -0.59310365 -0.52757484 -0.88746613 0.23083471 -0.10551611
-0.23439944 -0.30708793 0.1293246 -0.055495054 -0.8861297 -0.64650255 -0.23054734 -0.32131782
-1.1961421 -0.9540606 -0.9349262 0.27247366 -0.120068975 0.1552589 0.5526424 -0.5192612
-1.0604236 -0.3180952 -0.4915251 0.03621806 -0.5480001 -0.1489854 -0.12113825 0.30611163
-0.017834274 -0.42398328 -0.31826854 -0.14629172 -0.6330407 -0.687029 0.20850112 -0.645944
-0.8773464 -0.51622057 -0.16909593 -0.19233032 -1.0930289 0.06764535 0.19653559 0.17221183
-0.65923923 -0.9411269 -0.89749813 -0.70407015 0.3706384 -0.37675625 -0.42710394 -0.7351868
-0.023229944 -0.34528983 -0.98847127 0.2594662 0.09676543 0.35353723 -1.0147008 -0.7824268
-0.17369686 -0.020536447 -0.48181906 -0.1134524 -0.096536845 0.43543002 -0.56790257 0.24946988
-0.4718851 -0.9130858 -0.3700242 -0.6985569 -0.20689452 0.36374554 -0.4071781 -0.72207814
-0.672488 -0.39262885 -0.67169225 -0.18968329 -0.2861083 0.005291141 -0.037131477 -1.2144735
00000000: f730 c9bd 6d88 2c3e 60b3 a6bf 7c4f 16bf
00000010: 619b ea3d bff7 81bf 80d7 2fbf 7804 0ebe
00000020: 819b 1b3e 0e81 0b3f d947 3dbf 9aff d2be
00000030: e5a5 40bf 998a 8b3b ca5a 9fbe 9b11 b2be
00000040: 38e7 03bf d221 89bf 435a 85be a58b cebe
00000050: 48f0 93be a61f 793d 57a1 fabd 3b00 21be
00000060: 2020 82bf f10e ed3e dc66 c8be da7d 48be
00000070: 240f e0be e0b3 67bf 5773 72bd d8e4 cbbe
00000080: 9b05 063f f25c 00bd 6e92 2cbf 4ba0 693e
00000090: 9b0b c3be da77 06be 98b4 9cbe b5f7 fcbe
000000a0: d29b 5fbf fd1a a83e 937f ac3e 9b67 103d
000000b0: 77ca 3cbf da08 8abe 861a 5ebf 8d5c cfbd
000000c0: 42b7 7fbe 6a15 363e 839e 74bf 1187 38bf
000000d0: 7bfe 9cbf 5734 0bbe a99d cdbe 1414 86bf
000000e0: 4486 02bf e768 a7be 371b c23e 71a4 c9be
000000f0: 20a4 4fbd 33bd b83e a39d c3be 00c8 783e
00000100: b17b 69bf d9e3 15bf 2a28 59bd 4129 f7bc
00000110: bb59 71bf e0cd f23d 9598 f13d 33be b7be
00000120: c542 32bf 0638 67bf 7ef0 a3be 7984 83bf
00000130: 6867 6dbd 1e0f 523e 5b57 783c 0568 8abf
00000140: b29f 5cbf 48e8 d1be 886d 5f3e 1f14 6b3e
00000150: f23b a2bf 8224 d7be 9e62 a9be e6f3 d2be
00000160: 1a98 1fbf eb19 4c3e 64dc 11be 15d4 973e
00000170: efef fdbe c6de 87bf 4a28 41be deb1 003f
00000180: f23a babd d6b8 c03e 1b93 2bbd 0e98 f63d
00000190: a983 44bf f857 8cbd 2679 183f 4147 0c3f
000001a0: ede4 403e 59da a03e 52ae 86bf 65a2 5cbf
000001b0: 6e22 a3be 810d 77be e857 633d 28ce b2be
000001c0: 799f 303e c581 ccbe 2bd3 2ebf a4d5 17bf
000001d0: 250f 07bf fb30 63bf ef5f 6c3e d518 d8bd
000001e0: 6806 70be a13a 9dbe ab6d 043e c84e 63bd
000001f0: 65d9 62bf 3181 25bf 9a14 6cbe c583 a4be
00000200: 2f1b 99bf 513d 74bf 5357 6fbf ab81 8b3e
00000210: b9e6 f5bd 30fc 1e3e f979 0d3f 4dee 04bf
00000220: f6bb 87bf 60dd a2be 2ea9 fbbe 6359 143d
00000230: bc49 0cbf a18f 18be 5517 f8bd aaba 9c3e
00000240: 2f19 92bc 5614 d9be 18f4 a2be 7fcd 15be
00000250: f50e 22bf 22e1 2fbf 5181 553e 965c 25bf
00000260: c699 60bf 0827 04bf 7c27 2dbe 3df2 44be
00000270: 5fe8 8bbf a589 8a3d a040 493e 4c58 303e
00000280: e7c3 28bf b1ed 70bf 70c2 65bf f13d 34bf
00000290: 51c4 bd3e 32e6 c0be 5ead dabe 3435 3cbf
000002a0: b94c bebc d4c9 b0be 740c 7dbf c1d8 843e
000002b0: f42c c63d d502 b53e b7e1 81bf 1f4d 48bf
000002c0: 97dd 31be 0d3c a8bc fdb0 f6be bb59 e8bd
000002d0: 1cb5 c5bd aff0 de3e 1062 11bf 0875 7f3e
000002e0: ec9a f1be febf 69bf d073 bdbe a0d4 32bf
000002f0: 28dc 53be db3c ba3e a679 d0be 1dda 38bf
00000300: 2c28 2cbf a606 c9be 06f4 2bbf 563c 42be
00000310: c97c 92be 4f61 ad3b 2d17 18bd de73 9bbf

fc2.weight f4 [200, 200]
-0.23886938 -0.33366898 -0.0457077 -0.19220926 0.076597564 -0.10379292 -0.17027919 -0.027632581
0.12560357 -0.19839583 0.01679846 -0.0116222985 -0.12460441 0.09267363 -0.051866144 -0.059573703
-0.10669267 0.10451704 0.08077209 -0.1498507 0.013184684 -0.1581785 0.373126 0.120299056
-0.25945807 -0.15791538 -0.18815207 -0.07331321 0.19278854 0.07731366 0.07878972 -0.114549965
-0.21632332 -0.047041357 -0.04853807 -0.08775532 0.07230662 0.038001347 0.19376619 0.05554436
-0.12782736 -0.03230909 0.0023680972 0.10731264 0.07621699 0.036849808 0.09586059 -0.16171287
-0.1226489 -0.22760533 -0.04189892 0.26558208 -0.040992264 0.07882863 -0.22926217 -0.10807274
-0.04432453 0.0793281 -0.004684859 0.015561804 0.036306802 -0.17888992 -0.030619333 -0.11247948
-0.00990055 0.04592141 -0.08990632 -0.24220008 0.036938682 -0.29612505 0.099649794 -0.012408469
0.048670076 -0.1247556 0.16567312 -0.017033203 -0.024929449 -0.05458682 -0.17931 -0.040776554
-0.009217348 -0.15010537 -0.019427998 0.1328309 0.111820914 -0.1598614 0.08951988 0.016235996
0.03553464 0.13712119 0.16317156 -0.021694109 -0.073533826 -0.016170876 -0.18837018 0.15321232
0.3823177 -0.22770016 0.2433025 -0.04255683 -0.13144077 0.1677983 0.035065465 -0.0004323313
-0.0021565496 0.21098103 -0.100564376 0.20800306 0.155603 -0.1126875 0.047528353 -0.2663117
0.12454474 0.05947125 0.1785854 -0.06442192 -0.1578381 -0.06448194 0.13012818 0.1059783
-0.15111005 0.13248429 0.049220372 0.06423507 -0.096738465 0.056979 0.03930803 -0.033993263
-0.0009285819 0.13793074 -0.2306295 -0.10795709 0.03198252 -0.103211015 0.031303227 -0.03786254
0.23921005 0.15373279 -0.02549695 -0.0031081957 -0.18938155 0.104345985 -0.25323212 0.009496695
-0.07359498 -0.002537644 -0.14858103 0.031300526 -0.0040151053 -0.0797867 0.050485164 0.061203882
0.01037554 -0.08205657 -0.12621889 -0.032544278 -0.09834747 0.05524723 0.33100083 -0.28256905
0.022472024 -0.15515494 -0.13901752 0.13774052 0.02533726 -0.09072133 0.023276884 0.018874062
-0.050415535 -0.054753203 -0.05565391 -0.04618116 0.010662336 -0.021267341 0.25289628 -0.030776942
0.17646848 0.021004906 -0.14688294 -0.083633006 -0.14291772 -0.28176752 -0.03715517 -0.028983288
-0.13072075 0.14652346 -0.0063430388 -0.061259545 -0.26621982 -0.0013671737 0.07178479 -0.024784286
0.27222943 -0.2182891 -0.024691127 0.09510011 -0.11314759 -0.19017573 -0.08721695 0.11794485
0.05123077 -0.0854757 0.26595518 0.05653791 -0.08728095 -0.07797691 -0.0904738 0.021281509
-0.009978203 0.32364202 0.13302067 0.19830225 0.032579765 -0.17413823 0.073765725 0.22430259
-0.24366099 0.038724758 -0.029627874 0.05678963 -0.10100438 -0.101298705 -0.08015669 -0.046265624
0.1126059 0.26959723 -0.05213923 0.009448558 0.15060975 0.009897873 0.12792444 -0.10362413
-0.055564657 0.16921055 0.41968146 -0.06477972 -0.03202505 -0.042147 0.17225476 0.10553159
-0.14995414 0.07701116 -0.11600161 0.08082179 -0.044919785 -0.1274031 -0.009004337 0.05911085
0.08840813 -0.08721536 -0.19175655 -0.015494465 -0.0049332133 -0.049377598 0.2660545 0.06522887
00000000: 2d9a 74be a9d6 aabe ff37 3bbd 81d2 44be
00000010: 2fdf 9c3d 6291 d4bd ab5d 2ebe b95d e2bc
00000020: 399e 003e 4728 4bbe ed9c 893c 746b 3ebc
00000030: 9930 ffbd accb bd3d 9871 54bd 8e03 74bd
00000040: b081 dabd 080d d63d d66b a53d 7672 19be
00000050: 9304 583c 8bf9 21be 5f0a bf3e 5a5f f63d
00000060: b0d7 84be 92b4 21be f0aa 40be 3c25 96bd
00000070: 5c6a 453e a056 9e3d 815c a13d 2c99 eabd
00000080: dc83 5dbe 70ae 40bd dbcf 46bd 10b9 b3bd
00000090: 7e15 943d 4da7 1b3d a56a 463e 7c82 633d
000000a0: 2de5 02be 8956 04bd 1432 1b3b bbc6 db3d
000000b0: a717 9c3d d3ef 163d 8f52 c43d 0f98 25be
000000c0: 592f fbbd 5f11 69be 349e 2bbd 60fa 873e
000000d0: 81e7 27bd e870 a13d b4c3 6abe 3e55 ddbd
000000e0: a38d 35bd c576 a23d 7283 99bb f0f6 7e3c
000000f0: 71b6 143d eb2e 37be 65d5 fabc a45b e6bd
00000100: eb35 22bc 1718 3c3d ce20 b8bd 4c03 78be
00000110: 044d 173d b49d 97be 3115 cc3d e44c 4bbc
00000120: 465a 473d dd7f ffbd 37a6 293e 3789 8bbc
00000130: d838 ccbc 6e96 5fbd 0a9d 37be 5105 27bd
00000140: 5c04 17bc 39b5 19be 7727 9fbc d304 083e
00000150: 5d02 e53d b5b2 23be 3356 b73d 5a01 853c
00000160: c58c 113d 7f69 0c3e 7216 273e d8b7 b1bc
00000170: e798 96bd c978 84bc 1de4 40be b1e3 1c3e
00000180: 25bf c33e 3b2a 69be 4a24 793e 1250 2ebd
00000190: 6998 06be 51d3 2b3e cea0 0f3d 86aa e2b9
000001a0: e654 0dbb 690b 583e b2f4 cdbd c1fe 543e
000001b0: 6556 1f3e b4c8 e6bd 17ad 423d 025a 88be
000001c0: 5011 ff3d 2098 733d 17df 363e a4ef 83bd
000001d0: 50a0 21be 1b0f 84bd 5240 053e 270b d93d
000001e0: 98bc 1abe f6a9 073e 4d9b 493d ad8d 833d
000001f0: d11e c6bd d062 693d 7501 213d 853c 0bbd
00000200: 146c 73ba b73d 0d3e 242a 6cbe 9b18 ddbd
00000210: 1a00 033d 4c60 d3bd d037 003d c015 1bbd
00000220: 7bf3 743e 216c 1d3e fbde d0bc dfb2 4bbb
00000230: 3ded 41be 59b3 d53d a4a7 81be 0798 1b3c
00000240: f7b8 96bd 9a4e 26bb a025 18be fb34 003d
00000250: 2591 83bb 3667 a3bd 88c9 4e3d ecb0 7a3d
00000260: 2bfe 293c 460d a8bd 863f 01be 264d 05bd
00000270: 666a c9bd eb4a 623d f178 a93e e4ac 90be
00000280: 4017 b83c f0e0 1ebe 9c5a 0ebe da0b 0d3e
00000290: 1690 cf3c 1bcc b9bd 2aaf be3c c79d 9a3c
000002a0: 8580 4ebd e544 60bd 5bf5 63bd 7528 3dbd
000002b0: 14b1 2e3c d938 aebc 9f7b 813e ed1f fcbc
000002c0: 27b4 343e 7b12 ac3c 7b68 16be c847 abbd
000002d0: 0659 12be d543 90be 0530 18bd 5c6e edbc
000002e0: a9db 05be 3f0a 163e 44d9 cfbb 4aeb 7abd
000002f0: f74d 88be bd32 b3ba e703 933d 6a08 cbbc
00000300: a861 8b3e 2e87 5fbe 0c45 cabc d9c3 c23d
00000310: ecb9 e7bd 6dbd 42be cd9e b2bd 128d f13d
00000320: 5bd7 513d e20d afbd 472b 883e 4c94 673d
00000330: 5bc0 b2bd 5cb2 9fbd 544a b9bd 8f56 ae3c
00000340: 9e7b 23bc 68b4 a53e 9236 083e bf0f 4b3e
00000350: 5c72 053d 4b51 32be 7c12 973d 94af 653e
00000360: 4482 79be da9d 1e3d 28b6 f2bc 3e9c 683d
00000370: 62db cebd b275 cfbd 3129 a4bd 0681 3dbd
00000380: ec9d e63d a608 8a3e f28f 55bd 20ce 1a3c
00000390: 7139 1a3e b02a 223c a0fe 023e e338 d4bd
000003a0: c497 63bd 8845 2d3e 7de0 d63e 3bab 84bd
000003b0: b32c 03bd 55a2 2cbd 8d63 303e f220 d83d
000003c0: 948d 19be 07b8 9d3d 4192 edbd e585 a53d
000003d0: cffd 37bd f575 02be ed86 13bc 381e 723d
000003e0: 520f b53d f79d b2bd d45b 44be 7fdc 7dbc
000003f0: cba6 a1bb 2a40 4abd 4c38 883e b796 853d

fc2.bias f4 [200]
-0.010711211 -0.39238718 -0.14091215 0.09185118 -0.12315859 -0.37080613 -0.23131385 -0.02542414
-0.09119986 0.038114138 0.16117533 -0.07714198 -0.20283782 -0.3114207 -0.16285993 -0.014527689
0.20714547 0.004436524 0.0363201 -0.22928144 -0.12312299 -0.21691471 -0.018004846 -0.15976378
-0.06020952 0.009201737 -0.22025792 -0.0030326762 0.21123093 0.18340671 -0.083103 -0.36388758
-0.111189865 -0.2374122 0.16334066 0.06005122 -0.16977346 -0.37194324 0.009220047 0.0929876
-0.13833633 0.07958231 -0.028372971 -0.11022493 -0.0688263 -0.10813522 0.04341975 -0.349123
0.17269216 0.3062558 -0.2819467 -0.35119575 -0.040594112 0.00020123208 0.1640174 -0.14356203
0.117688574 0.20032935 0.08698832 -0.16588286 -0.008250672 -0.0418396 0.00704708 -0.07665745
-0.00871258 -0.048133377 0.02696118 -0.16167232 -0.12004877 -0.12064015 0.03262137 -0.18104611
0.07538254 -0.035860997 0.26359597 0.24359877 -0.005931581 0.24218994 0.18067114 -0.07383671
-0.29400834 0.32152522 -0.18920647 -0.0053189523 0.12964815 -0.15416007 0.019079968 0.1701152
-0.21569037 -0.18616621 0.0061304336 -0.05943621 0.14143911 0.07725209 0.08005359 -0.09462244
-0.09187925 -0.2629328 -0.10514086 -0.1862794 -0.014391948 -0.19639981 0.11497717 0.03792178
-0.067416616 -0.021040017 0.0140389735 -0.28947762 -0.0931626 -0.14293025 -0.051161777 0.3017915
-0.21121615 0.1466302 -0.20356743 0.09273572 0.18384294 0.13522443 -0.07376836 -0.0007485667
0.11632935 -0.20542471 0.06842966 -0.051254388 -0.21794297 0.1042016 0.08459886 0.079548836
0.4333262 -0.027163925 0.031771086 0.08843934 -0.04813553 0.03731774 0.1014281 0.37748754
0.062087946 -0.24878216 0.44471127 0.16892284 0.048033535 0.05748281 -0.20460886 0.00847589
0.47306207 -0.06008916 -0.030007958 -0.13437894 -0.16162178 -0.15443592 -0.20726277 -0.15629122
0.003356591 0.28259853 0.11227571 -0.07179391 0.4364837 0.067296624 -0.028096374 0.011386891
0.0038502447 -0.010716556 0.004640292 0.18940607 -0.020475164 0.073611856 -0.11018616 -0.1394312
-0.088634 0.11124013 -0.016696509 0.0929026 0.3446135 -0.15689677 0.15528154 0.2334993
-0.12022684 0.16010512 -0.038522404 0.033234246 -0.18291198 0.04857672 -0.04612183 -0.08534472
0.10438355 -0.19299795 -0.08955742 0.22217041 -0.0069225584 0.42904496 -0.18666123 -0.065585986
0.013716308 0.023900209 -0.036999896 -0.14700244 -0.08830989 -0.22756875 0.07692558 0.22781684
00000000: 137e 2fbc f9e6 c8be 464b 10be 791c bc3d
00000010: 923a fcbd 4dda bdbe 8add 6cbe 4946 d0bc
00000020: fec6 babd 921d 1c3d 250b 253e 9dfc 9dbd
00000030: b8b4 4fbe 8972 9fbe c1c4 26be 8b05 6ebc
00000040: f11d 543e 4360 913b 63c4 143d c1c8 6abe
00000050: e827 fcbd e41e 5ebe e67e 93bc 1e99 23be
00000060: 429e 76bd e2c2 163c 4b8b 61be ddbf 46bb
00000070: ec4c 583e f8ce 3b3e e831 aabd 794f babe
00000080: 83b7 e3bd 2f1c 73be c642 273e 45f8 753d
00000090: 18d9 2dbe 586f bebe ae0f 173c 4870 be3d
000000a0: 0aa8 0dbe 0dfc a23d 6f6e e8bc 9cbd e1bd
000000b0: cef4 8cbd 0076 ddbd e8d8 313d 40c0 b2be
000000c0: 37d6 303e 8fcd 9c3e 515b 90be eecf b3be
000000d0: 0346 26bd d301 5339 2df4 273e ed01 13be
000000e0: b506 f13d 2323 4d3e ef26 b23d 32dd 29be
000000f0: d42d 07bc 0060 2bbd 31eb e63b 95fe 9cbd
00000100: 36bf 0ebc 8127 45bd b1dd dc3c 6e8d 25be
00000110: 21dc f5bd 2f12 f7bd fc9d 053d 2764 39be
00000120: 2962 9a3d fbe2 12bd 0df6 863e f571 793e
00000130: b55d c2bb a400 783e db01 393e b337 97bd
00000140: 4388 96be f49e a43e 57bf 41be 9b4a aebb
00000150: 7cc2 043e 23dc 1dbe 984d 9c3c ae32 2e3e
00000160: f0dd 5cbe 5ba2 3ebe cee1 c83b 6273 73bd
00000170: 6ad5 103e 5836 9e3d 23f3 a33d 69c9 c1bd
00000180: 302b bcbd 219f 86be 1754 d7bd 07c0 3ebe
00000190: 34cc 6bbc 081d 49be 2779 eb3d de53 1b3d
000001a0: b911 8abd 1d5c acbc b903 663c 6936 94be
000001b0: 09cc bebd 4f5c 12be 038f 51bd 6a84 9a3e
000001c0: 0c49 58be 3a26 163e fb73 50be 3aec bd3d
000001d0: 5341 3c3e 4678 0a3e de13 97bd 763b 44ba
000001e0: 153e ee3d db5a 52be d924 8c3d 1ff0 51bd
000001f0: 712c 5fbe a667 d53d 2b42 ad3d 80ea a23d
00000200: efdc dd3e e186 debc 6622 023d af1f b53d
00000210: c329 45bd 7dda 183d 89b9 cf3d 0c46 c13e
00000220: ee4f 7e3d c0c0 7ebe 32b1 e33e 1cfa 2c3e
00000230: d0be 443d 1873 6b3d fc84 51be 76de 0a3c
00000240: 3135 f23e 0d20 76bd 40d3 f5bc a29a 09be
00000250: 2e80 25be 7324 1ebe b13c 54be ce0a 20be
00000260: 41fa 5b3b c1b0 903e cff0 e53d af08 93bd
00000270: cb7a df3e d0d2 893d 5e2a e6bc 1590 3a3c
00000280: 6354 7c3b 7e94 2fbc 970d 983b aaf3 413e
00000290: 88bb a7bc d0c1 963d 48a9 e1bd 0dc7 0ebe
000002a0: be85 b5bd ded1 e33d 1ec7 88bc b843 be3d
000002b0: 2e71 b03e 8ca9 20be 2002 1f3e 711a 6f3e
000002c0: 7d39 f6bd 99f2 233e abc9 1dbd a220 083d
000002d0: 474d 3bbe 62f8 463d 3eea 3cbd 36c9 aebd
000002e0: 0bc7 d53d 41a1 45be e169 b7bd a480 633e
000002f0: a1d6 e2bb c8ab db3e 1f24 3fbe f251 86bd
00000300: 5eba 603c 5fca c33c 348d 17bd cf87 16be
00000310: d1db b4bd c807 69be 298b 9d3d d148 693e

fc3.weight f4 [200, 200]
-0.17767201 0.14319696 0.0715917 -0.11140565 0.020306602 -0.0045750486 -0.017367061 -0.0672137
0.041659594 -0.17916891 0.109352246 0.037826736 -0.05152634 0.07794309 0.019392226 -0.26284376
0.24682544 -0.08305562 0.18324439 0.21620698 -0.10639521 -0.1720321 0.096474096 -0.07775414
0.14794719 0.078175925 0.13792594 -0.0037849147 -0.023216547 0.113998115 0.075654924 -0.00058537
-0.051740002 0.031322982 -0.020274099 -0.10539842 -0.13933037 0.10401854 0.18736282 0.10442561
-0.084734336 0.13393211 0.23830025 -0.04002857 -0.3720556 -0.006973433 0.11916529 0.028992005
-0.1553886 -0.1332108 0.05798089 -0.17560051 -0.046587154 -0.1221675 0.13524726 0.22265507
0.120835505 0.12895328 -0.089618914 -0.19817886 -0.13571538 -0.04535285 -0.045737356 -0.022606462
-0.11910881 0.2561024 -0.038204968 -0.06951586 -0.011241271 0.059981126 -0.17971449 -0.051859666
-0.012771345 -0.15932183 0.0034780419 -0.19768119 -0.07313692 0.0041213166 -0.05346397 0.11817875
-0.10749331 -0.15726191 -0.23158528 -0.06885183 -0.08744822 -0.04638872 0.012927513 -0.059279244
-0.057690304 0.0535365 0.12564619 0.09469819 -0.06796697 0.0004301284 -0.037768874 0.0788507
0.10682924 -0.0060751187 -0.12207083 0.15406246 -0.094284244 0.0014882194 -0.21632196 0.09348617
-0.017690614 -0.050197028 0.11996014 -0.14080279 -0.072229564 -0.027329503 0.037641704 0.123057544
-0.09128998 -0.033947933 0.18673502 -0.0024871845 0.08469142 0.0021698119 0.09894496 -0.044059113
0.007891387 -0.07216697 -0.009432285 -0.06584097 -0.08497644 -0.12985064 0.26092824 0.17878889
-0.0014093436 0.1010129 0.062494203 -0.031053359 -0.22742695 0.0041940343 0.0780111 -0.0035495954
-0.047695115 -0.19722214 -0.24165383 -0.11085371 -0.15925659 -0.14329436 -0.06976863 0.249725
0.10787343 0.19505009 0.037295483 0.039255455 -0.13440369 0.16222031 0.058124572 -0.0834892
-0.0030350313 0.14253189 -0.1322121 -0.10260855 -0.005021886 0.022434201 0.20042965 0.27243954
0.34107685 -0.085154705 0.10597399 -0.17281576 0.045666967 0.09588902 -0.1245401 0.015147303
0.08969428 0.087015614 0.021123942 0.12640426 0.0064194934 0.11500308 0.016399812 -0.17240861
0.056962904 -0.22901161 -0.004083019 -0.0948681 -0.114232495 -0.11031034 -0.06298565 -0.040744234
-0.16788019 -0.011922828 0.11367382 0.076541334 -0.050627884 -0.19010627 -0.068136305 -0.2169975
-0.1062434 0.12424631 -0.12909414 -0.00263608 -0.23828264 -0.05339463 -0.088846885 -0.114414096
-0.04282523 0.037684448 0.07125082 0.1395779 -0.020947829 0.03143058 -0.07955459 0.0524624
0.0102549195 0.0014094256 -0.09990519 -0.07037243 0.071278885 0.028110817 0.07040966 0.025503458
-0.059382647 0.027478898 0.046789855 8.928169e-05 0.09544327 0.051880866 0.114504956 0.17649426
-0.023133717 0.22338884 -0.0666997 -0.1648941 0.090197496 -0.0123325335 -0.052839838 0.06749412
0.021730851 -0.047875535 -0.070003934 0.03254042 0.028500333 -0.10018468 -0.05661942 -0.058133073
-0.116080575 0.02312962 -0.07838798 0.058585767 0.040535383 0.2070671 0.044427253 -0.16138913
-0.23166928 -0.17367113 0.07227874 0.14224115 0.008327524 0.12716044 0.05241061 0.0068520606
00000000: a7ef 35be 39a2 123e ab9e 923d a528 e4bd
00000010: 085a a63c 4aea 95bb 5e45 8ebc 56a7 89bd
00000020: 40a3 2a3d 0e78 37be 12f4 df3d 35f0 1a3d
00000030: 490d 53bd a0a0 9f3d 72dc 9e3c 7593 86be
00000040: cfbf 7c3e 1119 aabd 6ba4 3b3e 5d65 5d3e
00000050: bbe5 d9bd 2f29 30be 3694 c53d 903d 9fbd
00000060: 787f 173e b31a a03d 753c 0d3e 550c 78bb
00000070: a130 bebc d877 e93d f8f0 9a3d 8473 19ba
00000080: 53ed 53bd 874c 003d de15 a6bc 20db d7bd
00000090: 9fac 0ebe ac07 d53d 0adc 3f3e 18dd d53d
000000a0: 3289 adbd 8025 093e fb04 743e fff4 23bd
000000b0: 127e bebe 6581 e4bb ee0c f43d a480 ed3c
000000c0: 301e 1fbe 6968 08be 5f7d 6d3d 9fd0 33be
000000d0: 2cd2 3ebd f432 fabd 427e 0a3e b1ff 633e
000000e0: 9b78 f73d 540c 043e 1f8a b7bd 66ef 4abe
000000f0: f9f8 0abe e9c3 39bd 1857 3bbd 3031 b9bc
00000100: 52ef f3bd db1f 833e d07c 1cbd 555e 8ebd
00000110: 4f2d 38bc c5ae 753d 1307 38be cd6a 54bd
00000120: e73e 51bc 4325 23be dcef 633b f06c 4abe
00000130: cfc8 95bd 1c0c 873b 09fd 5abd b307 f23d
00000140: 7425 dcbd 4409 21be b124 6dbe 3002 8dbd
00000150: 0d18 b3bd 1902 3ebd ebcd 533c cbce 72bd
00000160: ab4c 6cbd 1749 5b3d 65a9 003e 20f1 c13d
00000170: 4432 8bbd db82 e139 89b3 1abd 7a7c a13d
00000180: 4ac9 da3d ca11 c7bb 4500 fabd 8dc2 1d3e
00000190: 1918 c1bd 5b10 c33a 8183 5dbe ad75 bf3d
000001a0: e8eb 90bc 669b 4dbd a9ad f53d 9b2e 10be
000001b0: 18ed 93bd 1fe2 dfbc 302e 1a3d 9805 fc3d
000001c0: 3ef6 babd fd0c 0bbd 7737 3f3e 0800 23bb
000001d0: b272 ad3d 6733 0e3b a8a3 ca3d 5477 34bd
000001e0: e04a 013c 47cc 93bd df89 1abc a1d7 86bd
000001f0: 2108 aebd 91f7 04be 6398 853e 6f14 373e
00000200: b9b9 b8ba dadf ce3d ecf9 7f3d 9d63 febc
00000210: 9ce2 68be 1c6e 893b 49c4 9f3d 54a0 68bb
00000220: f45b 43bd 9af4 49be 1a74 77be 4507 e3bd
00000230: 2914 23be c2bb 12be dbe2 8ebd e9b7 7f3e
00000240: bfec dc3d 36bb 473e 26c3 183d 54ca 203d
00000250: 1fa1 09be 151d 263e 0814 6e3d 63fc aabd
00000260: 60e7 46bb e1f3 113e 9c62 07be 6e24 d2bd
00000270: a28e a4bb eec7 b73c 6e3d 4d3e 327d 8b3e
00000280: a0a1 ae3e 9765 aebd e408 d93d 9df6 30be
00000290: 490d 3b3d 7661 c43d e10e ffbd 652c 783c
000002a0: a2b1 b73d 3e35 b23d 1e0c ad3c 1e70 013e
000002b0: 9d5a d23b bc86 eb3d e658 863c e28b 30be
000002c0: ef51 693d 0582 6abe d9ca 85bb 354a c2bd
000002d0: baf2 e9bd 63ea e1bd 9ffe 80bd 6de3 26bd
000002e0: c9e8 2bbe f757 43bc d2cd e83d b4c1 9c3d
000002f0: 2f5f 4fbd 38ab 42be 0c8b 8bbd 9834 5ebe
00000300: 2496 d9bd d974 fe3d 4131 04be 15c2 2cbb
00000310: 5d00 74be 54b4 5abd 5bf5 b5bd f051 eabd
00000320: 8269 2fbd 025b 1a3d f3eb 913d 82ed 0e3e
00000330: c89a abbc 5abd 003d 84ed a2bd d0e2 563d
00000340: 4004 283c 7abc b83a 189b ccbd 6c1f 90bd
00000350: aafa 913d a848 e63c f132 903d a1ec d03c
00000360: 383b 73bd 6d1b e13c b8a6 3f3d be3c bb38
00000370: c377 c33d 0881 543d 9381 ea3d e9ba 343e
00000380: ec82 bdbc 0bc0 643e da99 88bd 00da 28be
00000390: 77b9 b83d 650e 4abc 966e 58bd 5b3a 8a3d
000003a0: e604 b23c 2319 44bd 395e 8fbd 1a49 053d
000003b0: 8879 e93c a02d cdbd c4e9 67bd f21c 6ebd
000003c0: a7bb edbd 547a bd3c e189 a0bd a1f7 6f3d
000003d0: 6e08 263d 6609 543e 5af9 353d 3143 25be
000003e0: b63a 6dbe d8d6 31be e006 943d aaa7 113e
000003f0: 2b70 083c 5936 023e 82ac 563d 4087 e03b

fc3.bias f4 [200]
0.12057674 -0.13241906 0.06405655 -0.070988856 -0.0046450263 0.25157544 0.11593483 0.07314056
0.096295804 0.23069549 0.045127466 -0.05638238 0.18224621 -0.09345508 0.33869886 -0.16104689
0.18585174 -0.13299176 -0.037726067 0.16142197 0.013385239 -0.09080353 -0.07740841 0.12134948
0.26304615 -0.046183523 0.019342495 -0.05780057 -0.15333489 -0.16709597 -0.18667738 -0.017158508
-0.15592043 0.06969097 0.18390483 0.18933856 -0.07883467 -0.014311065 -0.015218387 0.030165633
0.120556094 0.2936581 -0.0658232 0.23037028 -0.07678833 0.18847294 0.11977811 -0.042104673
0.20191868 0.03216297 0.13191222 0.08654507 -0.048006807 0.20731258 0.44373354 -0.16351789
0.44321838 0.2663417 -0.13016301 0.11782212 -0.19593717 0.029029928 0.09647826 0.20053521
0.11683916 0.16023877 0.03335762 -0.0536904 0.090380855 0.044227812 0.27348962 0.22309653
0.16943169 0.37261587 0.033421893 0.12280564 0.31366605 0.23422131 0.08358166 0.077858545
0.12887365 0.25762913 0.24886431 -0.055512976 0.248521 -0.015849011 0.33641413 -0.05535066
0.2071587 -0.21714489 0.13837977 0.28352678 -0.28187853 0.18351553 -0.09975164 0.20482123
0.3214689 0.52687734 0.28160527 0.045914795 -0.12642497 0.17659749 0.25600076 0.12689081
0.0946034 0.079696335 0.10846731 0.45215535 0.32642302 -0.02049189 -0.0740635 -0.040712055
0.36662588 0.28513038 0.0742089 -0.04563589 0.28603458 -0.015091595 0.13772102 0.068388954
-0.14111587 -0.24906966 0.06258861 0.07894317 0.09736294 0.42231947 -0.013759668 0.09229037
0.18907773 0.083076455 0.13072808 -0.044550575 0.13778394 0.26698476 -0.0136090685 -0.25666627
0.123723574 0.2557657 0.29954222 0.1558472 0.1396277 0.47679898 0.30737904 -0.27836418
0.078710325 0.086495034 0.2144124 0.0359357 -0.4256896 0.08684615 -0.031099753 -0.22718734
-0.15658127 0.543066 -0.19987771 0.26304033 0.135822 -0.122375004 0.27047276 0.2143481
0.256405 0.09240846 -0.0757367 -0.0074039684 0.1518618 0.21408701 -0.11623477 0.28241384
0.24145159 -0.20432235 0.107525356 0.1061957 0.3617315 -0.08875556 0.35694507 0.12658744
0.033922292 0.11210813 0.21875522 0.31045246 0.30003962 0.06473946 0.1287374 -0.11263553
0.1132776 0.07602403 0.3890657 0.113112286 -0.042762894 0.25808653 0.08502055 0.1775267
0.27219823 0.107390575 0.16585043 0.3913069 -0.14417128 -0.11725121 0.19394448 0.1363409
00000000: f0f0 f63d dd98 07be 1530 833d 9b62 91bd
00000010: 4e35 98bb 7fce 803e 3d6f ed3d b8ca 953d
00000020: bc36 c53d 703b 6c3e 94d7 383d 36f1 66bd
00000030: c09e 3a3e 6165 bfbd f069 ad3e 7ae9 24be
00000040: eb4f 3e3e fe2e 08be a686 1abd cd4b 253e
00000050: c34d 5b3c 33f7 b9bd 4d88 9ebd 1386 f83d
00000060: fcad 863e ef2a 3dbd 2774 9e3c 4ac0 6cbd
00000070: d203 1dbe 351b 2bbe 5b28 3fbe 0090 8cbc
00000080: 9ba9 1fbe 24ba 8e3d 8c51 3c3e f8e1 413e
00000090: 1274 a1bd f578 6abc 8b56 79bc eb1d f73c
000000a0: 1de6 f63d 5b5a 963e 50ce 86bd 30e6 6b3e
000000b0: 3343 9dbd 0dff 403e 3a4e f53d f375 2cbd
000000c0: c5c3 4e3e 52bd 033d ff13 073e 8b3e b13d
000000d0: c9a2 44bd c049 543e 0b31 e33e 3c71 27be
000000e0: 85ed e23e f05d 883e 7449 05be b94c f13d
000000f0: c1a3 48be 2cd0 ed3c 6596 c53d 1a59 4d3e
00000100: 5f49 ef3d a215 243e 00a2 083d 77ea 5bbd
00000110: 9919 b93d 3928 353d d506 8c3e 6b73 643e
00000120: 807f 2d3e 82c7 be3e 65e5 083d 8681 fb3d
00000130: d698 a03e b6d7 6f3e dd2c ab3d 4d74 9f3d
00000140: 74f7 033e f7e7 833e 49d6 7e3e 9361 63bd
00000150: 4a7c 7e3e c9d5 81bc 793e ac3e 60b7 62bd
00000160: 6921 543e 3b5b 5ebe 6db3 0d3e 6c2a 913e
00000170: 6252 90be 7feb 3b3e 964a ccbd a8bc 513e
00000180: 9297 a43e 6fe1 063f 912e 903e 2711 3c3d
00000190: 8c75 01be f9d5 343e 8812 833e aaef 013e
000001a0: 6dbf c13d d537 a33d 1c24 de3d e880 e73e
000001b0: eb20 a73e 9cde a7bc 9bae 97bd afc1 26bd
000001c0: 63b6 bb3e 9cfc 913e d6fa 973d b3ec 3abd
000001d0: 2073 923e bd42 77bc bd06 0d3e 820f 8c3d
000001e0: ae80 10be 1e0c 7fbe 752e 803d f5ac a13d
000001f0: 3966 c73d 423a d83e 3b70 61bc bc02 bd3d
00000200: 989d 413e fd23 aa3d 95dd 053e aa7a 36bd
00000210: 3c17 0d3e 3ab2 883e 92f8 5ebc c369 83be
00000220: c962 fd3d b9f3 823e 995d 993e 6996 1f3e
00000230: 90fa 0e3e ff1e f43e c960 9d3e c085 8ebe
00000240: e132 a13d 4f24 b13d ed8e 5b3e 5031 133d
00000250: fdf3 d9be 65dc b13d e9c4 febc cca3 68be
00000260: d756 20be 6006 0b3f beac 4cbe 39ad 863e
00000270: ec14 0b3e bf9f fabd 687b 8a3e 117e 5b3e
00000280: 8447 833e a640 bd3d d81b 9bbd fd9c f2bb
00000290: a981 1b3e a039 5b3e 7f0c eebd 8c98 903e
000002a0: 163f 773e e139 51be 4136 dc3d 227d d93d
000002b0: df34 b93e 7ac5 b5bd 81c1 b63e 23a0 013e
000002c0: 1af2 0a3d f298 e53d 5e01 603e a0f3 9e3e
000002d0: cb9e 993e 1f96 843d bdd3 033e 75ad e6bd
000002e0: 16fe e73d 7db2 9b3d 9f33 c73e 6aa7 e73d
000002f0: 2528 2fbd eb23 843e 411f ae3d 8fc9 353e
00000300: 915d 8b3e 97ef db3d b2d4 293e 6159 c83e
00000310: a3a1 13be 6721 f0bd 6299 463e f39c 0b3e

fc4.weight f4 [36, 200]
0.49659663 0.25819102 0.16252679 0.047551982 0.15252386 0.17493412 -0.006320503 0.20741728
-0.23422015 0.20337403 0.06729905 -0.03746905 0.11472238 0.16903295 0.34685117 0.004322664
0.14502345 0.22461434 -0.0047435053 -0.29020455 0.31325603 -0.06829784 -0.11793552 0.099674754
0.07124483 0.04666396 0.13725655 0.1373773 -0.17057772 0.014875949 0.23306441 0.2375548
0.21798058 -0.13021213 0.32579097 -0.28869256 0.09089499 -0.054596428 -0.052054264 -0.2221963
-0.03603096 0.33242705 -0.01709862 -0.23491022 0.1683392 0.19928232 0.024359396 -0.3052843
0.40705115 -0.13811514 -0.0071654995 0.32705578 -0.052433133 0.5700197 -0.11667352 0.02748348
-0.0985554 0.14710276 0.0706101 -0.1853424 0.28136936 -0.08965841 -0.031043181 -0.034120303
-0.029941974 0.16341679 -0.28247735 0.62692034 0.22315131 0.5104314 0.17223299 -0.0564878
0.13895923 0.14856932 -0.06936372 0.21079284 0.107920446 0.060993865 0.25048473 0.14125025
0.164579 0.10189903 -0.07851419 -0.03772242 -0.5707867 -0.032954004 0.29038632 -0.0666442
0.1448207 0.2622066 0.12940077 0.27312014 0.062670745 -0.092951454 -0.13853222 -0.018332709
0.21023253 -0.25613064 0.11694289 -0.08246032 0.20915769 0.12202038 -0.28311414 -0.06306414
-0.08278533 0.14080733 -0.21654639 0.07150657 -0.00348193 -0.13239652 -0.016824257 -0.3514713
-0.30808124 0.018519187 -0.08921559 0.02629007 -0.12647627 -0.18042298 0.09574052 -0.028384535
-0.2359923 -0.11382468 0.16782011 0.080942295 0.19474338 -0.06647807 -0.10390124 0.1090322
0.09491988 -0.22404765 0.25279742 0.004341615 -0.28108174 -0.17531446 0.15649867 0.19447592
-0.5596184 0.016492076 0.017371856 0.2399024 -0.30324325 -0.19267587 0.24384138 0.024190295
-0.1938046 0.21605122 0.13255149 -0.006279355 -0.040904533 -0.09856116 0.44419163 0.1403995
-0.12532307 0.27643096 0.2616296 0.51443017 0.2965816 0.0012722937 0.30064428 0.041918833
-0.18570879 -0.072073214 -0.19552773 0.24911737 -0.011911661 0.34604096 -0.14321995 0.24401361
0.35195944 0.17212142 -0.1485552 -0.116770975 0.45866498 -0.013619319 -0.37930673 -0.11121105
0.0045797667 0.0418711 -0.07062033 -0.21282716 0.24731866 0.011582013 -0.082177825 0.1304705
0.3004144 0.09943756 0.4043919 -0.09673849 0.39314577 -0.03815895 -0.053917333 0.3547304
0.16756612 0.24249288 0.29360908 0.06975336 0.1172702 0.15162432 -0.20022261 -0.058432564
0.17742024 0.23651905 0.16054952 0.014113462 0.20660172 0.23513044 0.12547423 0.03801879
0.07660353 -0.20417392 -0.039535362 -0.056409806 0.0057426067 0.13174668 0.3604457 0.13852958
-0.36313188 0.028862491 0.004237557 -0.17353512 0.12710945 -0.031318992 0.034234673 -0.08728844
0.30473536 0.42861494 0.3993347 0.17974104 -0.2827159 0.37889114 -0.007532171 -0.059757356
0.05096239 -0.14202842 -0.50311464 -0.17751575 -0.00069414696 0.12822661 0.27162412 0.08465261
-0.10816577 -0.24144429 -0.06931836 0.37711677 0.24779376 0.051777422 0.11520812 0.1924793
-0.1400592 0.016688827 -0.068191595 -0.23365854 0.11349676 0.15137002 -0.03982035 -0.121374086
00000000: ea41 fe3e 9d31 843e 6c6d 263e dec5 423d
00000010: 372f 1c3e ee21 333e 391c cfbb 3265 543e
00000020: 68d7 6fbe 4841 503e 16d4 893d 2679 19bd
00000030: 91f3 ea3d f916 2d3e 7a96 b13e 22a5 8d3b
00000040: 0781 143e 4d01 663e 686f 9bbb b195 94be
00000050: 1863 a03e bddf 8bbd 2e88 f1bd 4722 cc3d
00000060: cfe8 913d b522 3f3d fb8c 0c3e a3ac 0c3e
00000070: edab 2ebe 41ba 733c 70a8 6e3e 9141 733e
00000080: 4d36 5f3e 5456 05be 13ce a63e 83cf 93be
00000090: 2727 ba3d 81a0 5fbd da36 55bd 6d87 63be
000000a0: 3395 13bd e133 aa3e 6812 8cbc 4e8c 70be
000000b0: 1c61 2c3e aa10 4c3e 5b8d c73c 394e 9cbe
000000c0: 0269 d03e 0e6e 0dbe 91cc eabb db73 a73e
000000d0: 20c4 56bd d0ec 113f 87f2 eebd 0925 e13c
000000e0: 6ad7 c9bd 1ba2 163e 079c 903d 66ca 3dbe
000000f0: a50f 903e d49e b7bd 454e febc bbc1 0bbd
00000100: df48 f5bc bb56 273e dfa0 90be da7d 203f
00000110: c781 643e a2ab 023f d85d 303e c05f 67bd
00000120: 544b 0e3e 8e22 183e 910e 8ebd 14da 573e
00000130: 6505 dd3d b4d4 793d 893f 803e e8a3 103e
00000140: 6687 283e 70b0 d03d 0ccc a0bd d382 1abd
00000150: 141f 12bf c7fa 06bd 84ad 943e c17c 88bd
00000160: e14b 143e f23f 863e a381 043e 67d6 8b3e
00000170: 8559 803d 555d bebd 64db 0dbe 7a2e 96bc
00000180: 3247 573e 8e23 83be c17f ef3d f5e0 a8bd
00000190: 6f2d 563e d2e5 f93d 56f4 90be c627 81bd
000001a0: 5b8b a9bd cc2f 103e 56be 5dbe 0972 923d
000001b0: 1731 64bb f492 07be 06d3 89bc 0cf4 b3be
000001c0: d3bc 9dbe 8db5 973c aab6 b6bd 465e d73c
000001d0: ff82 01be cdc0 38be 9b13 c43d af86 e8bc
000001e0: f7a7 71be ea1c e9bd 09d9 2b3e 13c5 a53d
000001f0: cf6a 473e a825 88bd 2cca d4bd 464c df3d
00000200: 5b65 c23d bf6c 65be aa6e 813e 1b44 8e3b
00000210: f2e9 8fbe a285 33be 3041 203e b224 473e
00000220: 2743 0fbf 641a 873c 6c4f 8e3c faa8 753e
00000230: b342 9bbe d34c 45be 8eb1 793e ba2a c63c
00000240: b774 46be 883c 5d3e 94bb 073e 0cc3 cdbb
00000250: 838b 27bd 6fda c9bd 166d e33e e3c4 0f3e
00000260: b154 00be 5c88 8d3e 51f4 853e b2b1 033f
00000270: 8bd9 973e 18c3 a63a 0cee 993e 15b3 2b3d
00000280: 722a 3ebe 1f9b 93bd 6c38 48be a018 7f3e
00000290: 2129 43bc 482c b13e 40a8 12be b4de 793e
000002a0: 0734 b43e 9940 303e db1e 18be 9f25 efbd
000002b0: 23d6 ea3e 9023 5fbc 7e34 c2be 9ec2 e3bd
000002c0: de11 963b 0881 2b3d 64a1 90bd 5def 59be
000002d0: 1a41 7d3e 7cc2 3d3c d94c a8bd 0f9a 053e
000002e0: ebcf 993e eba5 cb3d 750c cf3e d41e c6bd
000002f0: 674a c93e 8f4c 1cbd 6cd8 5cbd 399f b53e
00000300: 7496 2b3e 0e50 783e ee53 963e d9da 8e3d
00000310: 5c2b f03d 6843 1b3e 2807 4dbe fc56 6fbd
00000320: a7ad 353e 0d32 723e 1867 243e 263c 673c
00000330: 678f 533e 09c6 703e 517c 003e 97b9 1b3d
00000340: 50e2 9c3d f812 51be d5ef 21bd f80d 67bd
00000350: 7a2c bc3b 9ae8 063e 578c b83e b3da 0d3e
00000360: 6cec b9be 0871 ec3c 34db 8a3b 31b3 31be
00000370: fb28 023e 5848 00bd a839 0c3d 48c4 b2bd
00000380: 4606 9c3e 6b73 db3e 9975 cc3e 090e 383e
00000390: 23c0 90be 05fe c13e 6ed0 f6bb 21c4 74bd
000003a0: f0bd 503d e66f 11be 1fcc 00bf b0c6 35be
000003b0: 6af7 35ba d64d 033e 5112 8b3e 595e ad3d
000003c0: 0486 ddbd 2c3d 77be c9f6 8dbd 7315 c13e
000003d0: a6bd 7d3e 9014 543d 3cf2 eb3d 4b19 453e
000003e0: ae6b 0fbe 02b7 883c 09a8 8bbd 2f44 6fbe
000003f0: fd70 e83d be00 1b3e aa1a 23bd fa92 f8bd

fc4.bias f4 [36]
0.14276703 -0.20937282 -0.19459133 -0.102029726 -0.2073317 0.53834033 0.5639148 -0.11838541
0.3957639 0.87550974 0.958782 0.47410825 0.5373769 1.3612771 1.302418 0.728974
0.59410286 1.6382862 1.4650662 0.6861595 0.5776651 1.2360766 1.2299433 0.65742505
0.29649723 0.7473617 0.89198273 0.46933845 -0.14540294 0.43482214 0.5131266 -0.08908944
-0.073632345 -0.09544667 -0.16215202 -0.21797653
00000000: 8531 123e d465 56be f342 47be f6f4 d0bd
00000010: c34e 54be acd0 093f b85c 103f 0d74 f2bd
00000020: 91a1 ca3e 6821 603f bd72 753f 51be f23e
00000030: 8891 093f 543e ae3f a2b5 a63f 0a9e 3a3f
00000040: 2017 183f 5db3 d13f 4a87 bb3f 26a8 2f3f
00000050: dce1 133f c237 9e3f c86e 9d3f 024d 283f
00000060: 7cce 973e 1953 3f3f fb58 643f 214d f03e
00000070: 82e4 14be 02a1 de3e 445c 033f 8674 b6bd
00000080: 8ecc 96bd 8b79 c3bd 2e0b 26be 3d35 5fbe
