saved_models/fullDeepCNN5_4_data.pth (torch_old, 25177 bytes, 10 tensors)

conv1.weight f4 [4, 2, 3, 3]
00000000: 6e3d 3e3d b294 a13f a264 c73e 4940 e93d
00000010: 42e6 94c0 e601 92bc 69b7 73bd 813a 1c3e
00000020: 8fde 4bbe 30aa dc3e b25d 15c0 c8fa f2bd
00000030: c50f a8bd 79dc 09bf fcc6 dcbc a3f2 cebd
00000040: a226 7ebf db9f bbbd a1d1 35bd cd70 963c
00000050: bf23 6bbf 8be9 26be a123 27bc 4098 d5bf
00000060: 7526 a0bc 045a 92bd fd1d 97bf e830 19bd
00000070: 54cb e63c 59f0 4040 8736 313e 241d 3c3e
00000080: 96d8 0140 432b 7ebd 9600 ac3c 0e14 2040
00000090: 5700 0d3c e624 943c 5869 8a3d f4ea 1ebd
000000a0: 183e c6bc a433 8a3d c196 2cbf d4c8 313d
000000b0: 15e7 51bf f017 773b 5b44 fdbd bbc8 a4bd
000000c0: 24c4 fe3c 33d9 0ebc e181 b53d e082 7c3f
000000d0: 1599 893e c5ca 6d3f ff50 27be 8321 92be
000000e0: bd6e be3d 3f37 93be 0ddb eebe ec0a 9c3d
000000f0: b109 3ebe 41a3 63be f5f4 773d 5808 92bd
00000100: 6237 b13f 3250 3dbe ded6 ad3f 1ad2 123e
00000110: 339e 78be a38c 81be 056e 9a3f d477 bcbe
0.046445303 1.2623503 0.38943964 0.113892145 -4.6531076 -0.01782317 -0.059501085 0.15256692
-0.19909118 0.43098593 -2.3338437 -0.11864239 -0.08206133 -0.5385204 -0.026950352 -0.10104873
-0.992777 -0.091613494 -0.04438937 0.018364334 -0.9185142 -0.16300027 -0.010201366 -1.6687088
-0.019549588 -0.07146075 -1.1806027 -0.037400156 0.028173126 3.0146697 0.17305957 0.18370491
2.0288444 -0.062052976 0.020996373 2.501224 0.008606038 0.018084 0.06758374 -0.038798288
-0.02419953 0.06748131 -0.6741753 0.043404415 -0.8199323 0.0037703477 -0.123665534 -0.08046099
0.031099387 -0.0087187765 0.08862663 0.986372 0.26874605 0.92887527 -0.16339491 -0.28541192
0.092984654 -0.28753087 -0.46651497 0.07619271 -0.18558384 -0.22230245 0.060536344 -0.07130498
1.3845026 -0.18487623 1.3581197 0.1433796 -0.24279098 -0.2530261 1.2064825 -0.36810172

conv1.bias f4 [4]
00000000: 6c90 f23e 75b4 32c0 1e2b 063f 7ffc 873e
0.4737581 -2.7922642 0.5240954 0.26559827

conv2.weight f4 [4, 4, 3, 3]
00000000: 3052 babd 3704 863d df88 fbbd 8050 ec3d
00000010: 9fd9 f3b9 b40e e0bd 71f0 efbd e120 55bc
00000020: 5fe3 36be 7727 3a3d fc5b cbbd ebdd 12be
00000030: 324a a2be c46b 1b3e cd96 323e b674 2f3d
00000040: 7942 063e a55a 033e 128d aa3f c856 763f
00000050: ba48 083f bc78 123e 93ef d63d 472a fabc
00000060: 26f5 86bd ea84 85bd b50a 083e fdd7 2e3e
00000070: 92af 32bd 23e6 0a3f 7f7e 50be 853d 2e3f
00000080: db0a efbe c4ef 483d e8bd 0ebd 629d 97be
00000090: aa24 863d 561f a5bd 5f97 87be d39f 2b3a
000000a0: 5cc6 db3c 5f92 8cbe 1c74 f8bd 8897 9d3d
000000b0: 5de7 3fbd c3d6 e63b 4ca9 263e f8ce 87bd
000000c0: fa88 00be fe76 6abb 3c74 92bc 9744 c63c
000000d0: 18c2 2ebe c0e5 94bd 293f adbb bd47 eb3e
000000e0: 8fad f0bd 3e9a 92be 1601 86c0 1570 a0be
000000f0: 4d49 3dbd 278e 013f 3380 e6be fa0d 9cbc
00000100: e58e 5f3d d49a 32be 8832 06be b6ec 6b3e
00000110: 679d 57be 059c babe 88e7 0c3c 9a9d 08be
00000120: c806 a33d 94eb 6fbe 08c1 2fbd 2058 093e
00000130: 72ba febd cb78 35bc 694c e9bd 658b 083e
00000140: 4f84 ffb9 368c 90bc 07e5 0d3e 5cab 223e
00000150: bd78 bbbe 7ba9 24be 318e 0d3e 4d11 7cbe
00000160: 65be 0cbe b119 33bd 288d 21be beed 3bbf
00000170: 6f9e d1bd 40b8 bcbe fb56 12bf 6f2d 303e
00000180: 956e 6d3d 18db c73c 9a25 6e3e 7881 673e
00000190: ea58 c73e cb6d 95be 17da 9f3b 199e c03f
000001a0: aa6a 583f b352 313e 013e 903f 3cca aa3f
000001b0: 8a01 2cbe 72b1 b1bd 491a a0bd 4637 b3bd
000001c0: 27c9 5ec1 864b 5b3d babd 063e 8ef7 273f
000001d0: 1518 9e3d 1128 103f 1ec3 e63d 7583 8abd
000001e0: 2c7a c03f f046 d73c 2282 3b3d 8d3a 073f
000001f0: 68a9 843d 1cd6 72bd ed65 43bf 7a72 de3e
00000200: 262a 6bbe cabe 50bd 8ddf 9cbd a6fc 6ebd
00000210: 867e 983d 1826 cf3d 7c2a 1cbd 5407 e93d
00000220: 729f 0dbf 503d 77be f7c7 cd3e 3f01 6fbf
00000230: f9bb 65be 1466 bb3d 8415 b2be d285 8bbe
-0.09097707 0.06543773 -0.122819655 0.11538792 -0.00046510712 -0.109403044 -0.117157824 -0.013008327
-0.17860173 0.045447793 -0.09929654 -0.14342467 -0.31697232 0.15177828 0.17440338 0.042835914
0.13111295 0.12827547 1.3324301 0.9622617 0.5323597 0.14303869 0.10494914 -0.030537738
-0.06589727 -0.06519492 0.13285334 0.1707458 -0.04362447 0.5425741 -0.20360754 0.6806262
-0.4668797 0.049056783 -0.034849077 -0.2961226 0.06549962 -0.080626175 -0.26482674 0.0006546948
0.026827984 -0.27455422 -0.12131521 0.07694918 -0.046851505 0.0070446446 0.16275519 -0.06631273
-0.12552252 -0.0035776491 -0.01787769 0.024202628 -0.17066228 -0.07270384 -0.0052870703 0.4595317
-0.11751854 -0.28633302 -4.1876326 -0.31335512 -0.046212483 0.5060753 -0.45019683 -0.019049633
0.054579634 -0.17441875 -0.13105214 0.23039517 -0.21056138 -0.36447158 0.008600123 -0.1334137
0.07960278 -0.2342971 -0.0429087 0.13412523 -0.12437905 -0.011076163 -0.11391527 0.13334425
-0.00048735968 -0.017644983 0.13856898 0.15885681 -0.36615553 -0.16080277 0.13823773 -0.24615975
-0.13744505 -0.043725673 -0.15776503 -0.7340964 -0.10235297 -0.36859322 -0.5716397 0.17204832
0.057966787 0.024396464 0.23256531 0.22607982 0.38935024 -0.29185328 0.0048782933 1.5048248
0.84537756 0.17316703 1.1268922 1.3342967 -0.16797462 -0.08676423 -0.078175135 -0.08750777
-13.924109 0.05353882 0.13158312 0.65612113 0.07719437 0.56311136 0.112676844 -0.06763355
1.5037284 0.026278943 0.0457784 0.52823716 0.06477624 -0.05928622 -0.763274 0.43446714
-0.22965297 -0.0509632 -0.076598264 -0.058346413 0.074460074 0.10114688 -0.038126454 0.11378351
-0.5532142 -0.24144483 0.40191624 -0.93361276 -0.22434987 0.09150329 -0.3478204 -0.27250534

conv2.bias f4 [4]
00000000: d927 f5bf 06e8 ff3f b545 38c0 72c5 f43f
-1.9152786 1.9992683 -2.8792546 1.9122756

conv3.weight f4 [4, 4, 3, 3]
00000000: b542 fabc b727 a7bc e171 0dbd 4f27 2eb9
00000010: ce73 913d b9ce dcbd 238a 14bd 30fb 4bbd
00000020: ba40 36be 69dd 053e a873 5abc 9817 c53d
00000030: 7aa5 95bd eb4a 17be fc47 0dbe 7dec ee3d
00000040: 3517 66bc 57a9 053e a1d6 4e3d a29a 803e
00000050: 4739 fa3d c858 9cbb 5bb6 043f b998 5f3e
00000060: 6c28 d63c 7010 ba3d ad7a 04bd 75ee a13d
00000070: 36df 7f3c 33d3 073d 6a33 9d3e f664 8d3f
00000080: 39b3 d13e 5dfd 4a3e 1686 f73e 47df 893d
00000090: 45e5 30be c190 9bbe fbe9 943e d796 6d3d
000000a0: 0667 45bf 576e 2c3f 7841 edbe 3a23 6d3f
000000b0: ba43 6cbf 122c 0ec0 340d 783e f65c 8cbe
000000c0: be3a 063f 2c91 96be eaf2 b83e 724d ac3b
000000d0: a0bd dcbc d833 f83e f922 1bbf 86cd 3fbf
000000e0: 45fd 273f 408b 073f bdf2 a03f ec4d 44be
000000f0: 3843 873d cfc2 22bf f937 55be 5582 163e
00000100: 09c4 5ebe fd0d d8bd fc2d 87bd 1e59 243e
00000110: 165e 9fbc a091 8dbd d570 263c 8cd4 df3d
00000120: bacb 373d c365 b3bd e35b c23a 33f2 cabd
00000130: 1235 98bc 6ede 41be be2d 3a3f 4848 013f
00000140: 71c5 ea3d 2d65 6ebd a8fc 943d 37e7 6d3d
00000150: fd42 a93f 86da 3f3d 302d e53e 1bae 703e
00000160: a779 3bbe 44e2 be3e aaaf 893d 2b56 cabd
00000170: 285f c8bc 6783 87be abe5 c93e 422d 02bf
00000180: 5e00 363e 06d9 b7be 8910 533f d4dc 0e3c
00000190: f02d 80bd 8051 d4bc 0d07 45bd 791e 8b3e
000001a0: a058 6cbd 6d59 76bd 2604 aebe ab38 2cbe
000001b0: fa3c 81be 8427 fabd 48fc ae3d 944f 40be
000001c0: 23e4 0abe d311 17bd e531 023d 06f8 113b
000001d0: 2843 f2bd 683e f03d 345d 53be b0ef 1bbd
000001e0: 53de 12be 09f8 f8ba 12e0 e0bd 645e cfbe
000001f0: a4af fabd e705 0ebe a4e3 21be 37f6 2bbf
00000200: 86e7 3a3d 503b 173e 55f9 e83d bf8c 23be
00000210: f28c ddbd a3ca 91bd b396 cdbd 0a08 a83e
00000220: 312e e2bf 7721 efbd a759 5cbd d8f3 7d3e
00000230: b5ec 95bc 6f51 febd 48be 89c0 0ab6 6c3e
-0.030549387 -0.02040468 -0.03453243 -0.00016608577 0.07102166 -0.10781617 -0.03626455 -0.049800098
-0.17798129 0.13072743 -0.013333239 0.09623641 -0.07306953 -0.14774673 -0.13796991 0.116662
-0.014043619 0.1305288 0.050497655 0.25117975 0.12217956 -0.0047713257 0.5184075 0.21835603
0.026142322 0.090851665 -0.032343555 0.0790681 0.0156171825 0.0331604 0.30703288 1.1046436
0.4095705 0.19823213 0.48344487 0.0673204 -0.1727496 -0.30383876 0.29084763 0.05800518
-0.77110326 0.67355865 -0.4633901 0.92631876 -0.9229084 -2.2214398 0.24223787 -0.27414674
0.52433383 -0.29407632 0.3612283 0.0052582556 -0.026945889 0.48477054 -0.6060024 -0.7492298
0.65620834 0.52946854 1.2574078 -0.1917035 0.06604618 -0.63578504 -0.20822133 0.14698155
-0.21754469 -0.10549543 -0.06600568 0.1604962 -0.019454043 -0.069125414 0.010158737 0.10929212
0.044872023 -0.08759644 0.001482841 -0.09909477 -0.018579993 -0.18932506 0.7272605 0.5050092
0.1146344 -0.058201957 0.07274753 0.05808183 1.3223568 0.04683926 0.44761038 0.23503916
-0.18308125 0.37282002 0.067229584 -0.098797165 -0.024459437 -0.2646744 0.39433035 -0.5085031
0.17773578 -0.35907763 0.82447106 0.008719642 -0.06258762 -0.025917768 -0.048102427 0.27171686
-0.057701707 -0.060143877 -0.3398754 -0.16818492 -0.25241834 -0.12214568 0.085442126 -0.18780357
-0.1356359 -0.036882233 0.031785864 0.0022273078 -0.11829215 0.11730653 -0.20641023 -0.03807038
-0.14342622 -0.0018994819 -0.10980238 -0.40501702 -0.12240532 -0.13869439 -0.15809494 -0.6717257
0.045630954 0.1476872 0.11375681 -0.15971659 -0.10817899 -0.07118728 -0.10038509 0.32818633
-1.7670346 -0.11676305 -0.053796437 0.2480005 -0.018301347 -0.12417876 -4.3044777 0.23116317

conv3.bias f4 [4]
00000000: 0f50 5abe 70af c3bf ad98 b9be b37b 303f
-0.21319602 -1.5287914 -0.36249295 0.6893875

conv4.weight f4 [4, 4, 3, 3]
00000000: a31c 95bd 6c40 8dbe 4028 82bd 58e8 a8be
00000010: e10b 5dbe bf7e 85bd a958 363e ec9e 0abf
00000020: bf1d 513d 3002 9f3d f308 5c3d ff2d 57be
00000030: 6ca8 d83c 5166 d33d bf89 aebd be6b 8cbd
00000040: c6af b9bd 3a5a 15bc 5f38 ebbd b9f2 2a3d
00000050: a495 d8bd ddd6 04be a415 4b3d 021e 06be
00000060: 55bc c6bd 7c91 1e3d 8d95 a4bc 0a8b 47be
00000070: 58f4 8f3e 3195 19be a48b c53e b66d 0e3d
00000080: 4d1a ca3c 42cf 33be bfb8 523e 249c 1abe
00000090: 2b34 40be d266 67be 689a 123c 0a3b 113e
000000a0: 66dd e03e 99c1 45bd 422d 19be e34d 85be
000000b0: 5aeb d3bc e00a 88be 1414 a8bd 1b96 ba3d
000000c0: bd58 17bd 65a5 00be 29fa d0bd 7735 2ebd
000000d0: 42a9 42bd 4027 94bd 8a4d f83e d12d 673f
000000e0: 3470 823c d8be 6bbd 3f77 22be 1415 e03e
000000f0: 68f1 13bd 9891 4ebd 3c49 8fbd 3c7b 413d
00000100: 624e 3c3d 9263 093e c2a6 0f3e 3a5e 623d
00000110: 9beb 833e 44f0 523d cd29 44bd ffcd a33f
00000120: b29e c7be 7163 df3e a7b7 02bf 3c1e a13e
00000130: e4af 3fbf a337 bc3e b8fb 55be 6ce7 7f3e
00000140: 56ea 84be a80b 9e3b 5a6c fd3d f253 f53f
00000150: 0c5c 72be 2145 873d 09fe 483d 264b 4ebd
00000160: c893 053d a0df 0dbf 7b94 9c3d 4ad5 e5bd
00000170: 22b6 d0be df0a cfbd 1ed8 853d 88dd 81be
00000180: cdfc 31be b7fb 023d d366 45bc 1256 063e
00000190: 5df0 003e a114 68bd d65b 36be 14e4 e1be
000001a0: b50c 13bf 6234 8f3d a053 853e 1069 18bf
000001b0: 9f16 a7bd 617a ccbe 6a9e 1d3d 411a 80be
000001c0: aba2 523f e968 cabe d90b 81be 91d9 343f
000001d0: 995f 45be f7f5 7ebc a0a2 24bd 4dde b1bc
000001e0: c546 51bc 194b 44bc 9b77 f2bd 136a 44bc
000001f0: 0f98 03bd 7773 4bbd 60c6 2cbd 7aa3 36be
00000200: f34d 3a3c 20ed a33c 4336 b7bd 3729 b43c
00000210: 3316 58bd b94e 40be f4bc 13bd a2ab f83d
00000220: 899e 563e 7f41 663e 8711 403e 5ce8 cf3d
00000230: 73b8 a03d 9b15 f33d 5e03 34c0 4617 023e
-0.07280853 -0.27588212 -0.06355333 -0.32989764 -0.21586563 -0.065183155 0.17807259 -0.54148746
0.05105376 0.07764089 0.053719472 -0.2101364 0.026447497 0.1032225 -0.08522367 -0.06856488
-0.09066729 -0.00911575 -0.11485361 0.041735385 -0.10575417 -0.12972589 0.049581185 -0.13097385
-0.0970389 0.038712963 -0.020090843 -0.19486633 0.28116107 -0.14998318 0.385831 0.034772597
0.024670744 -0.17559531 0.20578288 -0.15098625 -0.187699 -0.22597817 0.008947946 0.14182678
0.43918914 -0.048280332 -0.1495867 -0.26035985 -0.02586906 -0.26570797 -0.082069546 0.091106616
-0.03694986 -0.12563093 -0.10203964 -0.042531457 -0.047524698 -0.07234049 0.48496658 0.90304285
0.015922643 -0.05755505 -0.15865801 0.4376608 -0.036118895 -0.050431818 -0.0699639 0.047236666
0.04597319 0.1341689 0.14028457 0.055265643 0.2576569 0.051498666 -0.047891427 1.279724
-0.38988262 0.43630555 -0.5106148 0.3146838 -0.7487776 0.36761197 -0.20896804 0.24990624
-0.25960034 0.004823167 0.12374182 1.9166243 -0.23667926 0.06604982 0.04907039 -0.050364636
0.03261164 -0.5541935 0.07645508 -0.11222322 -0.40763956 -0.10109495 0.06535362 -0.25364327
-0.17381592 0.031978335 -0.012048441 0.1311877 0.12591691 -0.0566603 -0.1780847 -0.44119322
-0.57441264 0.06992413 0.26040363 -0.5953531 -0.081586115 -0.39937118 0.038481154 -0.2502003
0.8227946 -0.39533165 -0.25204352 0.7064448 -0.19274749 -0.015561572 -0.040194154 -0.021712447
-0.01277322 -0.011980795 -0.11839219 -0.011988181 -0.032127436 -0.049670663 -0.042181373 -0.17835799
0.011371124 0.020010531 -0.089458965 0.021992309 -0.052755546 -0.1878003 -0.03606887 0.12142111
0.20958914 0.22485922 0.18756686 0.10151741 0.07847681 0.11869355 -2.8127055 0.1270419

conv4.bias f4 [4]
00000000: 5f11 e93e 03d0 b9bf b00b 64be 8584 b4be
0.45521066 -1.4516605 -0.22270083 -0.35257354

fc.weight f4 [36, 144]
00000000: a41f 133c 99ea cabe 920d 17bf f083 38bf
00000010: 32f5 ebbe b987 c83e da7c 403f aa82 87be
00000020: 5ef7 a0bd 161f 723f a3be 8f3e 4d0d 7cbe
00000030: 8daa 39bc da5b cb3e d20d 113f 5b10 893e
00000040: 0622 11be 6d99 143e 768d 043f acdc 8abd
00000050: 84a7 04bf f8b4 4b3f 7f48 903e 4985 dd3e
00000060: ea18 a73e 2802 ff3d 2a26 c9bc 091a 883e
00000070: e84c 803d 3a4f 3b3e d78e da3d da6e 973e
00000080: f5e0 8fbe 0c19 503e 57e2 cdbd 88df 073e
00000090: fd6e 813f 5bb4 783e 8fca 8f3e 0ece 023f
000000a0: 388a 88bd b53a cd3e 2ecd 56be 8a07 eabc
000000b0: 4fe4 09be 5f55 abbd 3eb0 853e e6ff b1be
000000c0: 4762 4b3d 9db0 c73d 69b5 93bd 464f 65bd
000000d0: a71a d7bd 06f0 47bd c920 d8bd e295 163d
000000e0: 4b4d 5abd 17dd 2fbd bf29 f2bc 07dc 2ebd
000000f0: 92b4 4cbc 2e6c d0bd ea06 22bd 00b7 d0bd
00000100: 063b bebb a743 efbc a113 60bd 38a4 e5bd
00000110: ea1c f138 bfe0 6bbd c4a9 0abe df39 c3bd
00000120: c02f 853f 36d5 493e ac4c 15bf b356 073f
00000130: f6da 07bb 00f3 823e bdd4 453e 2a87 123f
00000140: dc2e e7bd 27dd 113b 6df0 403f ee8d e4be
00000150: 3216 7ebc 3984 18be 56c0 473d 3c1d 9abe
00000160: ca7f 35bc 9f1d 84bd fdb3 e5bb 2a9c 4f3f
00000170: d200 ecbc 1e4f dfbc f1f4 f8bd 374c 24be
00000180: e3d7 7abc 8642 10bd 696c 28bd c14a cebc
00000190: d41d 4abd 5131 89bd bc4e 89bd 7403 823e
000001a0: 4c6c 43bd 78b1 1e3c dcf2 a8bb 78c5 a23d
000001b0: 6e0c 043f cdec 013e 43b7 0c3d 127c de3d
000001c0: 0163 1c3f 4d17 24be d946 443d 7688 3dbe
000001d0: b861 7a3c b6f8 99ba 7355 babd bf50 ab3c
000001e0: 3686 84be eb7a ccbc 6d6c e93c 9f61 c1bc
000001f0: 3ab4 a7bd 3364 09bd fbc4 fcbc 1aa1 ffbd
00000200: c0cc 8ebd d45e 98bd d98a 4abd 744e 2abd
00000210: 6f7d f0bd c48f 63bd 611c 1fbd b071 97bd
00000220: 52de b5bc c51f c3bd 8045 ddbc dc13 083a
00000230: 9e70 213e 2c12 363e 6918 1c3f 2685 9f3e
00000240: d4c5 1abf 4582 33c0 14cf 98bf 30f9 77bf
00000250: a73d c13e 57aa 39bf 1aa7 ad3e b896 483f
00000260: 9d1f c5be 8504 a53e 311a 8dbb 22d3 c33e
00000270: 9030 ca3d 8e9a 353e 6064 c7be 4893 773e
00000280: fb57 83be f8b0 59bd 42ae b2bd f4bf d33e
00000290: 14bb d53e 89d4 25bc 951e a73e e33d 873e
000002a0: a995 be3e 472b 69bd 03f6 233e d088 b53e
000002b0: eb3e 303e b477 963e 1c9f 953e ec52 953e
000002c0: d86e a6be 71e0 1abe 578f 84bc 4e92 7fbd
000002d0: f2dc 33bd b974 c53e 8ae1 e03e 68ae 7f3f
000002e0: dec6 b4bd 76b6 08be 7292 70bc 20b1 debd
000002f0: 3338 0ebe b13b e83a 9ac8 b4bd f0ed c2bb
00000300: ea1c 2abd 9583 573d f6ac 8abd 78d0 babd
00000310: 8f1b 8abd deb0 973a 5e8b bdbd 0006 2dbd
00000320: efd8 98bd da5e eabc 4604 96bc 0132 10be
00000330: dbd3 48bd 4a5e 5d3a c2b1 96bc f138 34be
00000340: 0071 d73c a74a 983c 07ec fdbc 26c3 0cbe
00000350: e21f 55be bfa3 a83d 7e8b 1abd a55f e5bd
00000360: cd40 adbd 0807 2bbd e621 a1be f053 46bf
00000370: 6e49 cf3c 230f 9c3e 6825 343e 3924 003f
00000380: 63e4 f6bd c145 babd c7fe c8bd 2374 bcbe
00000390: 4120 eabd 439b 55bd 6ccf 62be 9270 d83d
000003a0: aa71 9ebd 2624 b3bc 447c 0abe 9405 47bd
000003b0: 9827 84bc c9f2 24bd 10a9 99bd 0bf3 25be
000003c0: 8951 29bd 7f00 8ebd bfd1 49bd d56c f53d
000003d0: d45b 86bc 0357 f2bc 85cc 99bc 4006 383e
000003e0: 0580 86bd 8ae9 afbc 65de 123d e4d6 413d
000003f0: 87d1 b73e fbc6 bc3e 149f 443e e9f5 e23d
0.008979712 -0.3963211 -0.5900508 -0.7207632 -0.46085507 0.39166048 0.7519051 -0.26466876
-0.078596815 0.94578683 0.28075132 -0.24614449 -0.011332166 0.39718515 0.56661713 0.2677029
-0.14173135 0.14511652 0.5177835 -0.06780371 -0.5181811 0.7957301 0.2818031 0.4326575
0.32636195 0.12451583 -0.02455433 0.26582363 0.06264669 0.18291941 0.10671776 0.2957676
-0.28101316 0.20322055 -0.100529365 0.13268864 1.0111996 0.2428755 0.28084227 0.51095665
-0.06666988 0.40083852 -0.20976707 -0.028568048 -0.13465999 -0.083658926 0.26111025 -0.34765548
0.04965427 0.09750483 -0.072123356 -0.055983804 -0.105031304 -0.04881289 -0.10553128 0.036764033
-0.05329637 -0.042935457 -0.029560922 -0.042690303 -0.012494223 -0.10176884 -0.039557375 -0.101911545
-0.005805376 -0.029207064 -0.05470622 -0.11212963 0.00011497161 -0.05758738 -0.13541323 -0.095325224
1.0405197 0.1971024 -0.58320117 0.5286667 -0.0020729876 0.2557602 0.19319434 0.57237494
-0.112882346 0.0022257061 0.7536686 -0.44639534 -0.015508221 -0.14894189 0.04876741 -0.3010043
-0.011077831 -0.06450962 -0.0070099817 0.8109766 -0.028808985 -0.027259406 -0.12156094 -0.16044699
-0.0153102605 -0.03521969 -0.041119013 -0.02518213 -0.049344853 -0.066988595 -0.067044705 0.2539326
-0.0477107 0.009685867 -0.005155904 0.079478204 0.51581466 0.12687989 0.03435446 0.10863508
0.6108857 -0.16024514 0.047919128 -0.18509087 0.015282087 -0.0011747095 -0.090983294 0.020912526
-0.25883645 -0.024960956 0.028494084 -0.02360612 -0.08188672 -0.033542823 -0.030855646 -0.124818996
-0.06972647 -0.07439962 -0.04944882 -0.041578725 -0.117426746 -0.055557027 -0.038845424 -0.07394731
-0.022200737 -0.09527544 -0.02701068 0.00051909476 0.15765616 0.1778037 0.60974747 0.31156272
-0.6045811 -2.804826 -1.1938195 -0.96864605 0.3774235 -0.7252554 0.3391655 0.7835498
-0.38500682 0.3223001 -0.004306101 0.3824702 0.09872544 0.17734739 -0.38943768 0.24177277
-0.2565306 -0.053147286 -0.08724643 0.41357386 0.41744292 -0.010121473 0.3264052 0.26414403
0.37223557 -0.056926038 0.16011815 0.35455942 0.17211501 0.293882 0.29222953 0.29164827
-0.32506442 -0.1512468 -0.016181631 -0.062395386 -0.04391188 0.38565615 0.43922073 0.998755
-0.088269934 -0.13350853 -0.014683353 -0.10873628 -0.13888626 0.0017717985 -0.08827324 -0.0059487745
-0.04153148 0.05261572 -0.06771271 -0.091217935 -0.06743538 0.0011573096 -0.09255098 -0.04224205
-0.07463252 -0.028609682 -0.018312585 -0.14081575 -0.049030166 0.0008444531 -0.018395308 -0.17599846
0.026299 0.018590285 -0.030996336 -0.13746318 -0.20812944 0.08234357 -0.037730686 -0.11199883
-0.084596254 -0.041754752 -0.31471175 -0.7747183 0.025303569 0.30480298 0.17592394 0.5005527
-0.1205528 -0.09095336 -0.0981422 -0.36807355 -0.11431933 -0.052150022 -0.22149438 0.10568346
-0.077365234 -0.021867823 -0.13523966 -0.048589304 -0.016132161 -0.0402706 -0.07502949 -0.16205995
-0.041337524 -0.06933688 -0.049272295 0.11983649 -0.016401209 -0.029582506 -0.01877428 0.17971134
-0.065673865 -0.021473665 0.035856623 0.047324076 0.35902044 0.3687056 0.19201308 0.1108206

fc.bias f4 [36]
00000000: c609 c1bf 5082 4dbf 94c3 52bf 9f28 80bf
00000010: cbde 8cbf 95a6 bd3e e0b2 9d3e 49d1 23bf
00000020: 5258 2fbf 8fd3 4c3f 6d09 573f ba5d 20be
00000030: c295 97bd 6da9 903f 8355 853f a466 843e
00000040: 0582 a33d 5802 8a3f b057 7c3f 55a4 b73d
00000050: b27f 9a3e d833 8c3f d8d0 823f db2a a73e
00000060: 28b6 99be e3a7 553f e2e9 793f bdaa 91be
00000070: bb47 14bf 4323 053f a1aa 553f 33eb f9be
00000080: 612e b5bf 0164 7bbf 1d5a 3cbf a2c1 a2bf
-1.5081108 -0.80276966 -0.8232968 -1.0012397 -1.1005491 0.37041155 0.30800533 -0.6399122
-0.6849414 0.8001031 0.8399876 -0.15660754 -0.07401611 1.1301705 1.0416721 0.2585956
0.07983784 1.0781965 0.985713 0.08966891 0.3017555 1.0953321 1.0219984 0.32649884
-0.30021787 0.834593 0.976225 -0.28450575 -0.5792195 0.5200693 0.83463484 -0.48812255
-1.4154779 -0.9819947 -0.73575 -1.2715342
