saved_models/fullDeepLinear4_150_data.pth (torch_old, 248557 bytes, 8 tensors)

fc1.weight f4 [150, 72]
000000 73 6c a5 3d a3 06 23 3d cc 37 59 c0 14 f5 05 3e
       0.08077326 0.03980125 -3.3940306 0.13081771
000010 15 5e 5b 3e 6f 42 0c 3e 5f 73 39 c0 88 a6 2f 3e
       0.21422608 0.13697217 -2.8976667 0.1715337
000020 52 d2 04 3e 53 9b 59 3e 43 3d 29 c0 21 fd 87 3e
       0.12970856 0.21250658 -2.644364 0.2656031
000030 6f a8 66 3e e8 54 58 3e 8a 4f 0c c0 b7 a9 5c 3e
       0.2252519 0.21126139 -2.1923547 0.21549116
000040 f5 84 a6 3e 6e 99 87 3e 62 45 93 3e d7 14 94 3e
       0.32523313 0.26484245 0.28763872 0.2892215
000050 ab ae 80 3e 43 1e a7 3e 2e 8c a8 3e 13 84 7b 3e
       0.2513326 0.32640275 0.3291945 0.24562101
000060 98 df a4 3e 78 32 87 3e ad 77 6c 3e da 80 9f 3e
       0.32201838 0.26405692 0.23092528 0.31152993
000070 2c ca 94 3e 1b 62 9f 3e a2 ba 90 3e 97 21 83 3e
       0.29060495 0.31129536 0.2826739 0.25611565
000080 02 c7 82 3e e1 13 93 3e 18 e8 bd 3e 23 97 3f 3e
       0.25542456 0.28726104 0.37091136 0.18709998
000090 31 34 b0 be d9 5a 9b be bb ee d2 3f c1 c0 be be
       -0.3441482 -0.3034275 1.6479105 -0.37256435
0000a0 87 0b 89 be 27 40 07 bf 7a f7 10 40 6f 05 da be
       -0.26766607 -0.52832264 2.2651048 -0.4258227
0000b0 eb f9 e9 be d8 c2 01 bf 61 db 0d 40 78 aa cf be
       -0.45698485 -0.5068793 2.2165148 -0.40559745
0000c0 d0 0e b2 be 7f 86 cc be a4 6a b5 3f fc f2 81 be
       -0.34776926 -0.39946362 1.4173169 -0.25380695
0000d0 8c c2 b2 be 6c e3 97 be f2 9d dc 3e 89 34 a1 be
       -0.34914052 -0.29665697 0.43089253 -0.31485394
0000e0 c6 74 81 be 95 d2 a3 be b4 0f 97 be 40 5d 91 be
       -0.25284404 -0.319966 -0.29504168 -0.28391457
0000f0 6d 39 a5 be 23 50 ce be 47 57 a3 be 6e dd ab be
       -0.32270375 -0.40295514 -0.31902525 -0.33567375
000100 28 53 bf be 4c a4 9b be 84 98 6a be bc 16 a4 be
       -0.3736813 -0.30398786 -0.22909743 -0.32048595
000110 0d 8c ac be 4e f7 bc be 70 bc 83 be cf 5b 90 be
       -0.337006 -0.36907429 -0.25729704 -0.28195044
000120 40 f6 c3 be c1 0a 90 be 58 8f 1a bf ad 01 3d bf
       -0.3827381 -0.28133205 -0.60374975 -0.7383068
000130 20 be 9f be 4e 4b 9c be 88 61 14 bf 71 2d 09 bf
       -0.3119974 -0.30526203 -0.5796132 -0.53584963
000140 79 94 ef bd e1 02 65 bc cc e2 5f bf a6 55 4e bf
       -0.11698241 -0.013977737 -0.8745544 -0.8059944
000150 e4 09 bd be 74 f8 27 3f c0 d2 3c bf a3 fd b4 bd
       -0.36921608 0.65613484 -0.7375908 -0.0883744
000160 94 45 78 bf 30 61 af bc 97 f3 74 3e 49 62 8c bd
       -0.9698117 -0.021408647 0.23921047 -0.06854684
000170 32 8a cf be 82 4e 06 3e b0 af 0e 3f b4 38 55 3e
       -0.40535122 0.13115886 0.5573683 0.20822412
000180 81 df c7 be d2 b4 7f 3e 91 18 7a bd b8 44 3f 3e
       -0.39037707 0.24971321 -0.061058585 0.18678558
000190 ff d1 1a bf ed 19 3d 3e b2 ff 20 bf d8 6f 16 bf
       -0.6047668 0.18466921 -0.6289016 -0.5876441
0001a0 9f 7d 2c bf 48 41 ee be 0c 2c 14 bf 93 af 37 bf
       -0.6737918 -0.4653418 -0.5787971 -0.7175228
0001b0 82 b4 88 be ee 3e 25 be 15 6d 3c be 8b 1f de be
       -0.26700217 -0.16137287 -0.18400986 -0.4338344
0001c0 b6 a1 29 be f8 3d 6a be c0 61 82 be 66 cf cb be
       -0.16565594 -0.22875202 -0.25465202 -0.3980667
0001d0 4e c8 9d be ec 71 6f be 69 55 90 be f3 50 9c be
       -0.30816883 -0.23383301 -0.28190163 -0.3053051
0001e0 c3 d0 a2 be 22 80 f8 be 9a 9a 9e be 5a 91 a8 be
       -0.31799898 -0.48535258 -0.30977327 -0.32923394
0001f0 ac 9e 71 be 6a bc 93 be 8a 9a 70 be fb 65 bc be
       -0.23595685 -0.28854686 -0.23496452 -0.36796555
000200 3a 99 a0 be 05 14 88 be c4 7a 29 be 37 86 aa be
       -0.31366903 -0.26577774 -0.16550738 -0.33305523
000210 33 27 2f be ca be 1c be 2b ad 99 be ed 59 75 be
       -0.17104797 -0.15307155 -0.3001493 -0.23960085
000220 fb dd 22 be be 9f a7 be 15 e7 92 be 08 f6 a1 be
       -0.15904991 -0.3273906 -0.28691927 -0.3163302
000230 7e 9d 43 be a8 9f 50 be 65 af 31 be ac 83 79 be
       -0.19103047 -0.20373404 -0.17352064 -0.24366635
000240 36 d8 3a be df e6 23 be 0c 0c be be 40 26 36 be
       -0.1824654 -0.16006039 -0.37118566 -0.17788029
000250 b0 93 c4 be 3d 7e 29 be c3 44 07 bf e3 9e b2 bd
       -0.38393927 -0.16552062 -0.528393 -0.087217115
000260 b3 2f 41 be d5 27 97 be a7 b8 4a be b3 6e 86 be
       -0.18865852 -0.29522577 -0.19797002 -0.26256332
000270 62 81 3b bd 4a 4b 6a be 90 e9 dd be 95 cb 2d 3d
       -0.045777686 -0.22880283 -0.43342257 0.04243048
000280 03 4a 81 3f c5 59 3a bf af 20 e7 be ca 09 23 bf
       1.0100712 -0.7279323 -0.45142123 -0.6368681
000290 1e 0e 5e bf 70 cb 29 3f 20 fc 1c bf f9 0a 1e be
       -0.8674029 0.66326046 -0.6132221 -0.15433873
0002a0 87 55 ce bc 4b 69 25 bf dc e2 ec 3e cf 05 58 be
       -0.025187267 -0.6461379 0.4626683 -0.21095966
0002b0 7f 3c a0 be de e9 66 3e 0f 7a 8b 3d 12 85 f5 3e
       -0.31296155 0.22550151 0.0681039 0.47953087
0002c0 a9 ea 18 be ee c3 95 3e 90 2f b0 3e e9 7f 69 bd
       -0.14933266 0.29251045 0.34411287 -0.05700675
0002d0 65 6e 0a 3e 90 17 15 3e 69 1b f1 bd b7 fe 0f bd
       0.13518675 0.1455977 -0.11772806 -0.035155024
0002e0 97 61 02 3e 22 07 8a 3d 1b 64 b4 bb 19 93 f9 ba
       0.1273254 0.06739642 -0.0055050976 -0.0019041031
0002f0 a8 f9 0b be 44 b8 0e 3b b7 d1 a5 3d a1 6b 1c be
       -0.13669455 0.0021777311 0.080966406 -0.15275432
000300 ab 7f b0 bb a0 c9 f4 3d ad bd c5 3d b5 12 b5 3d
       -0.005386313 0.119525194 0.096553184 0.08841459
000310 bb 19 6d bf ed ab 5a 3d 3c b8 ad 3d e9 b9 8d bd
       -0.92617387 0.053386617 0.084824055 -0.06920225
000320 4f 92 bf bd b4 22 3f bf 88 42 59 be db 87 19 3c
       -0.09354078 -0.7466233 -0.21216786 0.009370769
000330 dc 98 0d 3e 76 1a dd bd 8c 0b 82 bf 4e 22 47 be
       0.13827842 -0.10796063 -1.0159774 -0.1944668
000340 49 7b a2 bc fe d0 02 3d f7 1c a2 3b d6 db 8e bf
       -0.019834178 0.03193759 0.0049473005 -1.1160839
000350 a2 00 25 bd 9a 51 fc bb c8 12 bb bd 22 47 13 bd
       -0.040283807 -0.0077001574 -0.091344416 -0.03595651
000360 fb cd 2b 3e c4 78 9d 3e db a7 ce 3d bc 83 7a 3e
       0.16777794 0.307562 0.1009061 0.24464315
000370 f6 26 91 3e a8 d3 89 3e 9d 8a 9a 3e 02 01 a1 3e
       0.28350037 0.26919293 0.3018388 0.3144608
000380 12 c7 2d c0 f9 13 14 c0 20 fb 1a c0 18 3f 38 c0
       -2.7152753 -2.313719 -2.4215775 -2.878851
000390 d3 2d 70 3e f2 27 25 3e 46 15 30 3e 6b c8 69 3e
       0.2345498 0.16128519 0.17195615 0.2283036
0003a0 1d b6 55 3e ba 96 1c 3e 2d 8a a5 3d 45 d8 69 3e
       0.20870252 0.15291873 0.080829956 0.22836407
0003b0 ef 8c 51 3e ed 86 8c 3e 86 ea 3c 3e 16 78 ea 3d
       0.20463918 0.2744669 0.18448839 0.11448686
0003c0 1b 1b 74 3e f3 10 7b 3e 05 08 8f 3e 9c 5c 8c 3e
       0.23838465 0.24518184 0.27935806 0.27414405
0003d0 1e 17 91 3e bc c0 85 3e 37 b1 65 3e ec b7 89 3e
       0.2833795 0.26123607 0.22430883 0.26898134
0003e0 14 63 8c 3e 5f 97 82 3e 24 89 9a 3e 56 ff 99 3e
       0.2741934 0.25506112 0.30182755 0.30077618
0003f0 20 bd 4d be d9 38 4f be e2 01 9e be 32 8a b6 be
       -0.20091677 -0.2023653 -0.3086081 -0.3565231

fc1.bias f4 [150]
000000 76 b2 16 c0 ca 6c 18 3f 5d b8 33 bc 18 78 0b c0
       -2.3546424 0.59541 -0.010969249 -2.179205
000010 4a 49 8a bf 4c f9 08 c0 28 0a 90 bf 0c 02 74 3f
       -1.0803616 -2.1402159 -1.12531 0.95315623
000020 57 d5 5c bf e4 37 52 bf 8c e4 1b c0 df 15 b1 bf
       -0.8626303 -0.8211653 -2.4358244 -1.38348
000030 22 84 c4 bd 54 ec 28 3f b6 92 ba bf 9f f5 95 bf
       -0.09595515 0.6598561 -1.4576023 -1.1715583
000040 11 47 85 bf cf 45 3e c0 80 32 d2 be 62 94 9c bf
       -1.0412313 -2.9730108 -0.41054153 -1.2232783
000050 b6 33 48 bf 48 19 e0 3e 09 7e 1c 3f 2e e1 98 bf
       -0.78203905 0.43769288 0.61129814 -1.1943719
000060 44 05 63 bf 75 05 07 c0 1f 26 19 c0 b9 06 b5 bf
       -0.8867991 -2.109708 -2.3929517 -1.4142677
000070 3e ec a7 3e 61 c7 9d bf dd 2c 4e bf e7 7f 71 bf
       0.32797426 -1.2326471 -0.80537206 -0.9433579
000080 36 65 69 3d 4f 0c bb bf fc 49 26 bf de 86 4a 3f
       0.056981288 -1.4613131 -0.6495664 0.7911204
000090 44 a8 1e c0 4b 51 db bf ce 4c c1 bf c1 d3 c3 bf
       -2.47902 -1.7134184 -1.5101564 -1.5298997
0000a0 23 bc 57 3f 40 f1 8b 3e c4 b5 66 bf e3 d5 f8 bf
       0.8427145 0.27332497 -0.901211 -1.9440273
0000b0 61 3f 85 bf 2c 5e 04 bf 08 8b 04 bf 0b bf 99 bd
       -1.0409967 -0.51706195 -0.51774645 -0.07507142
0000c0 24 02 95 bf 40 f1 01 3f ba d4 e2 bf c6 ef 6c bf
       -1.1641278 0.50758743 -1.7721169 -0.92553365
0000d0 23 13 41 c0 90 fe 04 be e7 6c ad be b4 5a b5 bf
       -3.016793 -0.12987733 -0.33872148 -1.4168305
0000e0 8c 97 6a bf 80 44 11 be ef 50 26 bf 83 c0 11 c0
       -0.9163749 -0.14186287 -0.64967245 -2.277375
0000f0 86 32 0d c0 f0 b4 14 c0 db 30 f2 be 55 78 b2 bf
       -2.2062087 -2.3235435 -0.473029 -1.3942972
000100 4b 75 13 c0 ca 85 e9 3e d1 18 38 3f e5 81 e8 3e
       -2.304034 0.45609885 0.71912867 0.45411602
000110 a3 b5 f8 3e a1 a9 82 bf fa 14 a5 bf 39 df 48 3f
       0.48576078 -1.0208017 -1.2897027 0.7846561
000120 48 cc 17 c0 32 73 1b c0 fd 6d 05 c0 41 6a 4a 3d
       -2.3718433 -2.428906 -2.0848382 0.049417738
000130 42 2a a1 bf b5 84 37 c0 eb b4 f5 3e b7 4a 8b bf
       -1.2591021 -2.8674748 0.47989592 -1.0882176
000140 e3 0a 21 c0 0b 66 48 3d c4 c6 90 bf a0 cd 71 bf
       -2.5162895 0.04892544 -1.1310658 -0.94454384
000150 c7 a4 91 3e 57 c6 bc bf a0 13 bf bf 2f 63 ed be
       0.28446028 -1.4748029 -1.4927864 -0.46364734
000160 a9 01 81 bf ff 0e 98 bf c7 92 50 bf 84 55 c1 bf
       -1.0078632 -1.1879576 -0.81473964 -1.5104222
000170 41 f1 05 bf 89 63 a4 bf 1d b1 88 bf bf 69 64 bf
       -0.5232125 -1.2842876 -1.0679051 -0.89223856
000180 88 5f 01 c0 2a 9f e8 3e e0 df 2c be 7f ae b3 bf
       -2.0214558 0.45433933 -0.16882277 -1.4037627
000190 f6 46 6c bf f7 0f 52 bf 6f d1 a5 bf 4d 11 63 bf
       -0.9229578 -0.8205561 -1.2954539 -0.88698274
0001a0 e0 ab 49 c0 26 95 17 c0 d0 dd aa bf 17 f7 e8 3e
       -3.1511154 -2.3684783 -1.3348942 0.45501015
0001b0 b4 1e a6 3d c5 0d 31 bf 5d 77 3c bf c4 c2 15 c0
       0.08111325 -0.69161636 -0.73619634 -2.3400126
0001c0 35 39 49 3f 58 a0 02 c0 b9 3d 84 bf 2f 9e 88 be
       0.78602916 -2.0410366 -1.0331336 -0.26683185
0001d0 48 d8 37 3e ad a6 9a bf 0e a0 02 c0 23 02 27 bf
       0.17953598 -1.2082115 -2.041019 -0.65237635
0001e0 b8 17 31 3f a6 10 02 bf 7f e4 2d c0 43 1c 08 3e
       0.69176817 -0.50806653 -2.7170713 0.13292031
0001f0 a1 3e 43 c0 40 27 2d bc 9a f8 fe 3e 1e 03 3b c0
       -3.0506976 -0.01056844 0.49799043 -2.9220653
000200 fb f8 d9 be c7 48 94 bf d8 e6 4b bf 5e a0 27 bf
       -0.4257277 -1.158471 -0.79649115 -0.65479076
000210 b5 9f 8d bf 7a 7d 8e bf 43 bc 15 c0 96 ec 10 c0
       -1.1064364 -1.1132042 -2.3396156 -2.26444
000220 ce fc 95 bf f0 c3 0c c0 9a 2d 86 3d b4 5b 1e c0
       -1.1717775 -2.199459 0.065516666 -2.474347
000230 b0 b2 86 3e b0 a8 3c 3e a5 10 2c bf 46 b2 01 c0
       0.26308203 0.18423724 -0.672129 -2.026506
000240 2e 3c 40 c0 1a f0 e6 bd 63 a0 ce bf 21 c7 93 be
       -3.003673 -0.112762645 -1.6142696 -0.2886286
000250 19 43 81 bf a0 02 25 c0
       -1.0098602 -2.5782852

fc2.weight f4 [150, 150]
000000 51 28 d4 be 81 57 da 3d 64 66 9f bd dd ae b7 be
       -0.4143701 0.10661221 -0.07783201 -0.35875598
000010 08 13 d2 bd 44 f2 99 be ff b4 88 be 3c 4d ce bb
       -0.10257536 -0.30067647 -0.2670059 -0.006295828
000020 43 0f c2 3c e9 d7 8e be 44 b1 1f bf 8c 69 4f 3e
       0.023688918 -0.278991 -0.6237986 0.20255107
000030 9a 2e 09 3e 98 50 d5 3d 4d 68 f4 be 26 b8 9b 3b
       0.13396683 0.10415763 -0.47735825 0.004752177
000040 68 15 9e bc d6 9c 9d bd d7 be 1a 3e 58 e2 f0 3e
       -0.019297317 -0.0769593 0.15111862 0.47047687
000050 6e a7 23 3e 48 31 9a 3e 20 c9 dd bd b5 89 09 bf
       0.15981838 0.30115724 -0.10829377 -0.5372575
000060 78 0e 02 be 31 b0 0d be de 40 ab be 68 57 b2 3d
       -0.12700832 -0.13836743 -0.33447927 0.08708078
000070 68 ca 5e bd 12 54 c9 be 80 6b 90 bd e4 d9 35 3f
       -0.05439225 -0.39321953 -0.07051754 0.710356
000080 48 79 e4 3d ee e4 a5 bd 20 fb 08 3e 54 1f c7 3d
       0.11155945 -0.081003055 0.13377047 0.09722772
000090 9b 46 c0 be 83 8d 90 bd 20 8a 9f be 94 f9 48 3d
       -0.37553868 -0.07058241 -0.3116007 0.04906614
0000a0 c9 ac 36 be 84 7a 6c bd b1 3b cd bb 95 b4 07 be
       -0.1783935 -0.057734028 -0.0062632193 -0.1325248
0000b0 f2 a5 4f bc 52 f1 06 be ba 3f 96 bd 06 6b 8f be
       -0.012673842 -0.13177994 -0.073363736 -0.2801134
0000c0 98 a5 5f be c5 ef 09 3c e2 01 25 bd 47 17 39 be
       -0.21840513 0.008418982 -0.040285 -0.18075286
0000d0 67 3e da be e1 5c 45 be 18 55 0a be 28 96 90 be
       -0.42625734 -0.19273712 -0.13509023 -0.2823956
0000e0 f5 16 17 bd 06 63 d0 be 91 6b 62 be 89 25 13 bf
       -0.036887128 -0.4070055 -0.22111346 -0.5747915
0000f0 37 38 7e be 07 de e7 be 9a 3c a7 bd 01 7a 7d 3d
       -0.24826132 -0.4528658 -0.08165856 0.06188393
000100 2d 31 e8 be 4d 73 c9 bd 2e d7 4d 3e 2a 1a 54 bd
       -0.45350018 -0.09836445 0.20101616 -0.051782764
000110 00 38 a2 3d f5 56 ca 3d bf c7 e2 be d6 55 2c 3e
       0.079208374 0.09879867 -0.4429302 0.16829619
000120 13 fa 0c bf fa 05 9b be a0 e4 b1 bc 86 70 0c 3e
       -0.5506908 -0.30277997 -0.021715462 0.137148
000130 19 fb 66 3d 6f 25 00 bf 9d dd d0 3d cf 75 2d 3d
       0.05639181 -0.5005712 0.101985194 0.04234868
000140 e2 44 e9 be 0a 10 e7 3d cc 7e cd 3d 5a f6 05 bf
       -0.45560366 0.11282356 0.1003395 -0.5232903
000150 87 04 8e 3c 1a f5 bb bd fd 23 65 be 3c 17 3c be
       0.017336143 -0.09177609 -0.2237701 -0.18368238
000160 ba b7 6f 3d aa ce 04 3e 40 72 77 3d 9d fd c7 3d
       0.058524825 0.12969461 0.06041169 0.0976517
000170 24 b4 3b 3e 2b 56 c5 3d a3 ea 1a be 48 a8 08 3e
       0.18330437 0.09635576 -0.1512857 0.13345444
000180 27 2d 24 be e6 9c 78 3e c9 70 ee 3d f7 73 9e be
       -0.16032849 0.24278602 0.11642606 -0.3094785
000190 1f c8 4a 3c 57 ae 31 3e c1 35 20 3e 90 f5 12 bd
       0.012376814 0.17351662 0.15645505 -0.035878718
0001a0 79 73 dc be 24 4b fd be 3b 73 87 be 91 88 95 3d
       -0.4305685 -0.4947139 -0.264551 0.073014386
0001b0 67 60 cd be 2b 37 7e 3e fd bc 9e be a5 50 02 bb
       -0.40112612 0.24825732 -0.31003562 -0.0019884494
0001c0 8b 47 e4 be c8 be c5 bd 1b 0e 09 be 22 98 3b bd
       -0.44585833 -0.09655529 -0.13384287 -0.045799382
0001d0 04 fe ef 3c 9b 5f 1b be 7f c4 5b be ae 72 b2 be
       0.029295929 -0.1517319 -0.21461676 -0.3485312
0001e0 cc 8f 6b bc 73 68 99 be a5 ee 0a bf 2a 69 e2 3d
       -0.014377546 -0.299625 -0.5427039 0.11055215
0001f0 62 a8 eb be ab a4 cb 3e 86 cd 64 bd 9e 0e a7 be
       -0.46026903 0.3977407 -0.055860065 -0.3262834
000200 9b 04 3e be 4d 7e 47 3e 5f 59 1e bd 70 fa 4b be
       -0.18556444 0.19481774 -0.03865945 -0.19919753
000210 d6 75 83 3e a4 dc 86 3e 4e 9e 04 bf d5 11 ef be
       0.2567584 0.2634021 -0.51804054 -0.46693292
000220 e1 f8 cc 3d 19 c5 cf be fe 84 10 be cc ab 9a be
       0.100084074 -0.4058006 -0.14113232 -0.30209196
000230 76 7e a6 be a8 20 b2 3d eb a2 7b bd 02 0a f6 be
       -0.32518357 0.08697635 -0.061434668 -0.4805451
000240 cd 69 ee be f0 d3 c9 3e 90 ad a8 be 97 49 82 be
       -0.46565095 0.39419508 -0.32944918 -0.2544677
000250 90 a1 08 bc 03 48 f2 be a9 ca 4e be a9 48 30 3d
       -0.008339301 -0.47320566 -0.20194496 0.043038044
000260 44 42 73 bc 32 c1 c7 bd 4c a6 81 be 74 e7 e1 bb
       -0.014847342 -0.09753646 -0.25322187 -0.0068940464
000270 5b 8e e9 bd d1 1e df bd 38 05 0c be 4b 41 83 be
       -0.11404105 -0.1089455 -0.13673866 -0.25635752
000280 11 f9 4c be 5e c5 97 be ed 75 9d 3e 1b 9b a5 3e
       -0.20016886 -0.29642767 0.30754033 0.323449
000290 f1 af 8d be f0 79 9d 3c 6b ed 17 3c d7 45 ca be
       -0.27673295 0.019223183 0.009272913 -0.3950641
0002a0 23 0c 37 be 0a 06 98 bd ff 9e 90 be a2 03 a8 3d
       -0.17875724 -0.07423027 -0.28246304 0.08203818
0002b0 17 8e 15 be b6 18 47 3e 03 00 7b 3d 2b a3 bb bd
       -0.14604984 0.1944302 0.061279308 -0.09161981
0002c0 09 76 c7 bd 55 43 d2 be be 96 fe 3d 7f 11 bc bd
       -0.0973931 -0.41066995 0.124310955 -0.091830246
0002d0 eb 2a ba be a8 11 39 3d 7b 15 3b bc 73 31 b7 be
       -0.3636087 0.045182854 -0.011418696 -0.35779914
0002e0 85 75 18 3e 84 01 2d 3e 9e 72 87 be 28 4c 85 be
       0.1488858 0.1689511 -0.26454633 -0.26034665
0002f0 af 44 26 bd 75 9a 23 bc 4b 2e 95 3e 88 79 6c 3e
       -0.040592846 -0.009985556 0.2913688 0.23093235
000300 53 df 42 3d e5 44 26 be 2c 64 ba bc f9 5a db bd
       0.04757626 -0.16237219 -0.022752844 -0.10710711
000310 8f fd f5 3d d7 c1 24 be 80 d3 8d bb 67 ff c3 3c
       0.12011253 -0.16089569 -0.0043281913 0.023925496
000320 e3 05 1d bf 27 7b 56 be ea 0e fc bd a6 b6 ec 3c
       -0.6133711 -0.20945416 -0.12307532 0.028895687
000330 88 22 d2 bd e6 d0 32 3e 73 fb c7 bd a6 ba 0d 3e
       -0.102604926 0.17462501 -0.09764757 0.13840732
000340 f1 27 c7 be e4 cd 0a bd 98 c7 fb bd 68 c9 12 3f
       -0.3889766 -0.03388776 -0.12293929 0.5733857
000350 d8 81 ae be e1 9a 91 3e c3 07 a6 bc 1d 78 1e bf
       -0.34083438 0.28438476 -0.020267373 -0.6190203
000360 84 76 4c 3d 93 f3 2c be a9 cb 85 bd 23 99 c5 be
       0.049917713 -0.16889791 -0.06532986 -0.38593397
000370 d7 1d de bd 40 64 07 3f 78 04 ba be 2d 89 be bd
       -0.10845535 0.52887344 -0.36331534 -0.09303508
000380 fd 9c 48 bd 26 72 14 3f 45 f5 55 3d c9 a7 fd be
       -0.04897784 0.57986677 0.05223586 -0.49542072
000390 e8 f4 a2 3d 2f aa 63 3e 67 86 11 3f 6d 8b 84 be
       0.079568684 0.22232889 0.56845707 -0.25887623
0003a0 1c 82 5b be 7a cc 47 bd f0 fe c6 be f9 19 4c bd
       -0.21436352 -0.04877899 -0.38866377 -0.049829457
0003b0 a7 a9 3f be 60 14 b1 bd e3 75 27 be da 03 a1 3d
       -0.18717061 -0.08646464 -0.16353564 0.07862063
0003c0 ac a5 15 be a5 f9 b3 3d b9 3f 0c be dc c9 f7 3d
       -0.1461398 0.0878785 -0.13696183 0.120990485
0003d0 50 2b aa 3d a8 41 72 bd 9f aa 9d be fd 12 a9 3e
       0.083090425 -0.059144646 -0.30794236 0.330223
0003e0 93 f7 4d be 7e b2 f6 bc 98 08 3d be 6d aa 11 be
       -0.20113973 -0.030114409 -0.1846031 -0.14225169
0003f0 5e 50 e2 ba 07 87 91 bd a9 0c 22 3d d0 8a 53 be
       -0.0017266383 -0.071058325 0.039562855 -0.20658422

fc2.bias f4 [150]
000000 33 f4 df bd 97 8b bd 3a cc 15 54 be 96 1f 90 bf
       -0.10935249 0.0014461157 -0.2071144 -1.1259639
000010 65 e9 2b c0 0a b5 c8 be fd 84 1d bf 65 38 e5 3c
       -2.6861203 -0.39200622 -0.6153105 0.027980993
000020 3b 9b a6 3d 9b 17 36 c0 15 d2 32 3e cf f1 27 3e
       0.081350766 -2.8451908 0.17462952 0.16400836
000030 25 17 48 3f f6 45 f6 3e 70 c1 83 bd 9e c6 47 be
       0.78160316 0.4810025 -0.0643338 -0.1950936
000040 e4 79 fa 3d ed e3 d2 3e eb 93 8d be bc fd 5f be
       0.1223028 0.4118952 -0.27651915 -0.21874136
000050 22 47 aa be c5 5d 8a 3b 4e ee 45 3e 76 31 30 c0
       -0.33257395 0.004222604 0.19329187 -2.7530189
000060 a2 1c 39 3e a6 81 7e 3d 83 6e fe bd 1a b8 70 be
       0.18077329 0.06213536 -0.12423422 -0.23507729
000070 e7 84 50 3e 18 20 02 3f 2e e2 57 be e2 19 a0 be
       0.20363198 0.5083022 -0.21082374 -0.31269747
000080 1b dc f5 3e d8 7b ae ba bd 63 a3 3e d1 61 0e 3e
       0.4801949 -0.0013312055 0.31912032 0.13904501
000090 c0 57 09 3e a5 fb 36 3f 54 3d b6 be bd 3d 89 bf
       0.1341238 0.7147773 -0.35593665 -1.0721966
0000a0 dc 83 d4 bd b1 fc df bf 82 76 22 be 0d 97 46 bf
       -0.10376713 -1.749899 -0.1586552 -0.77574235
0000b0 fa 43 b5 bc 8f 93 5f bf 7e f9 9b bd 23 de 82 3c
       -0.02212714 -0.8733453 -0.07615946 0.015975064
0000c0 ee 79 36 3f 28 28 28 bf 37 e1 8b be 13 9f ad 3d
       0.712798 -0.65686274 -0.27320263 0.084776066
0000d0 d6 0b c3 3d 5f e8 8e be 4c bc ea 3e 1e c5 13 3f
       0.09523742 -0.2791166 0.45846784 0.5772265
0000e0 18 e6 ac 3e 45 80 14 3f 8e 83 f9 3e a0 16 79 be
       0.33769298 0.58008224 0.4873318 -0.24325037
0000f0 8c 7c 65 bb 3c cb eb bd 4a 38 26 3f c8 49 bb be
       -0.0035016863 -0.11513373 0.6492964 -0.36579728
000100 d4 40 98 be 11 fd a0 3d 26 de 92 be 2f 99 63 3f
       -0.2973696 0.078607686 -0.2868511 0.88905615
000110 1e c8 ea 3e 41 6e 0f be 33 41 3a 3e e9 fe 3d 3e
       0.45855802 -0.14006902 0.18188934 0.18554272
000120 8a cf 8f be 26 79 25 be 41 bb de 3e 37 f4 12 3e
       -0.28088027 -0.16159496 0.43502238 0.14350973
000130 c7 8c 64 bd 1d 1a 31 be 7c 7d f9 bf ac e5 fa 3e
       -0.05579832 -0.17295118 -1.949142 0.4900335
000140 62 84 d1 3e f4 a7 cc bf aa 2e e6 be 26 d5 8a 3d
       0.40921313 -1.5988755 -0.44957477 0.06778936
000150 bb c0 f8 bd 8c c3 d8 3e 33 4a be 3e 04 55 69 be
       -0.121461354 0.4233669 0.37165985 -0.22786337
000160 56 e6 4b 3c ba da c4 3e 25 35 07 bf c3 17 b5 3d
       0.012445053 0.38448125 -0.5281547 0.08842423
000170 6b a9 c2 3d 0d db 1a 3e 75 9b f5 be 88 e5 8e 3e
       0.0950497 0.15122624 -0.47970167 0.27909493
000180 9f 3d 6b 3d 7b f0 95 bd 74 b4 eb bd 6e 29 07 c0
       0.057431813 -0.07321259 -0.11509028 -2.1119037
000190 d0 a1 b5 be 93 05 40 be 0a 5d 62 bf 05 21 16 bf
       -0.35475016 -0.18752126 -0.88423216 -0.58644134
0001a0 df a0 8f 3d 00 02 d4 bf 25 af 28 bf 21 0c 99 3e
       0.070131056 -1.656311 -0.6589225 0.29892066
0001b0 15 58 3b bd 14 3a 97 3d 05 67 3d bf 9e d7 71 3f
       -0.0457383 0.073841244 -0.7398532 0.9446963
0001c0 92 fc c5 be 20 e7 a1 3e 3a 23 9c be 40 cc 45 3e
       -0.38669258 0.31621647 -0.30495626 0.19316196
0001d0 c0 ba 05 3e 68 c5 1e 3e b4 4e d4 3c eb fe d7 bc
       0.1305952 0.15504992 0.025916435 -0.026366672
0001e0 54 40 da 3e fc 4f b1 3e 0b f4 d5 be 7d fd 0d c0
       0.42627203 0.34631336 -0.41787753 -2.2185967
0001f0 af 99 2f bf 44 7b 13 3f cd 87 23 be 3b 6f f0 bc
       -0.6859388 0.57609963 -0.15969773 -0.029349914
000200 00 fd a2 3c 7f a4 07 be fd f8 c9 3d 93 8f f8 3d
       0.01989603 -0.13246344 0.09861944 0.121367596
000210 35 89 a6 be 02 51 06 3f 54 68 e6 bd ec c3 79 3e
       -0.32526556 0.5246736 -0.11250368 0.24391145
000220 78 df 79 bd 48 f4 23 c0 c9 88 c6 3e 12 09 50 3d
       -0.061004132 -2.5617847 0.38776234 0.0507899
000230 7a ac 53 bd 76 a2 fa be 25 94 d1 3e f8 52 93 be
       -0.05167816 -0.48952073 0.40933338 -0.28774238
000240 10 fb 53 3f 72 a4 1e c0 06 98 e4 3e 01 33 ef 3e
       0.82804966 -2.478787 0.44647235 0.467186
000250 af 33 41 3e ff 5a ae be
       0.18867372 -0.340538

fc3.weight f4 [150, 150]
000000 eb 62 ef 3d 1d 50 92 be ad f5 14 bc 1c 30 d3 bd
       0.11688789 -0.28576747 -0.009091777 -0.103119105
000010 72 3f bb 3e af 83 6a 3e c1 db db 3d d7 f3 ae be
       0.36571842 0.22901796 0.10735274 -0.3417041
000020 73 71 1b 3e 9e 97 16 be 85 a8 d7 bd 16 33 00 bd
       0.15179996 -0.14706275 -0.105301894 -0.03129872
000030 f8 ac 22 3e 1d 0a 56 be 05 e6 1c be a9 5c 8a bd
       0.15886295 -0.20902295 -0.1532212 -0.06755955
000040 ed fa c1 bd 5e fd d1 3d 60 ff bf bd 5a 75 33 3e
       -0.094716884 0.10253404 -0.09374881 0.17525235
000050 35 fd ba 3d fe 13 14 be b0 9b 1a be dd a4 4a 3d
       0.09130327 -0.14460751 -0.15098453 0.049473632
000060 60 05 6c be 05 5c 67 be b2 14 81 be 42 37 45 be
       -0.23048925 -0.22593696 -0.25211102 -0.1925936
000070 97 d8 22 3a 48 b1 ad bd 61 d5 f6 bd e1 42 99 3e
       0.0006212084 -0.08481079 -0.120524175 0.29933837
000080 cc 62 13 be bf 69 87 be 9f 7d c9 be 94 be dc bd
       -0.14393157 -0.26447865 -0.39353654 -0.107785374
000090 55 9e 0f be 6c 69 30 3e 32 4f 04 be 52 89 10 bd
       -0.14025243 0.17227715 -0.12920836 -0.03528721
0000a0 89 5c 95 bd 81 4a 8e be 59 56 9d bd ea 39 38 3e
       -0.0729304 -0.27791217 -0.07682485 0.17990842
0000b0 bc 63 63 bc 97 62 40 be 16 b3 a4 bc d9 df 23 3e
       -0.013878759 -0.18787609 -0.020104926 0.1600336
0000c0 17 47 9b be 6b 52 87 bd 77 01 d8 bd 9a e2 23 be
       -0.30327675 -0.06607517 -0.105471544 -0.1600441
0000d0 cc d0 bc 3c 48 ca 13 be 57 84 17 3d a0 d0 82 bd
       0.02304878 -0.14432633 0.036991443 -0.06387448
0000e0 99 c7 21 be 48 d1 b2 3d 55 ea 53 3e ed ae a1 bd
       -0.15798797 0.087313235 0.2069486 -0.078946926
0000f0 84 2f 0a be 3b fc a6 be 71 99 21 be 90 b8 ca 3e
       -0.13494688 -0.32614312 -0.1578119 0.39593935
000100 b5 b7 b4 bd 50 a4 ab be e1 3a f7 bd e5 87 8c 3e
       -0.08824102 -0.33523798 -0.12071777 0.2744743
000110 76 00 59 3c d5 50 16 bd b1 52 fb 3c 99 6c d3 3d
       0.013244739 -0.03669818 0.030679079 0.10323448
000120 3e 2f 8c bb ad 8e 10 be dc b7 71 bd 39 bb 0f 3d
       -0.0042780926 -0.14116926 -0.059013233 0.03509066
000130 78 0c 11 bc c6 4a 35 3e 02 d4 00 be 2b 4f d1 3d
       -0.00885307 0.17704305 -0.12580875 0.10220178
000140 bd 22 f4 3c 9a 5d 95 be cf 74 0a 3e 0c dd 32 be
       0.02980172 -0.29172975 0.13521121 -0.17467135
000150 ec 82 14 be 56 9a 0f be 73 3c ea bc ad 58 ea bd
       -0.14503068 -0.14023718 -0.028593278 -0.11442695
000160 6d a5 6f 3d 6e 3f c6 3c b9 dd cf be 56 41 e0 3e
       0.05850737 0.024200168 -0.40598848 0.43799847
000170 03 5e 8c 3d 69 81 b8 bd e6 ab b0 3c cc bd 05 be
       0.06853869 -0.09009058 0.021566343 -0.13060683
000180 a0 aa e2 bb 45 62 94 bd 1f 1f 5b bd e5 4a 3e bd
       -0.0069173127 -0.07245306 -0.053496476 -0.046458144
000190 45 fc e6 bd 6c a6 6c bc 10 81 cb bd 98 76 8d bd
       -0.11278585 -0.014443975 -0.09936726 -0.069073856
0001a0 30 f2 87 3e c8 f3 2c be 7e 79 1d be cf 13 94 3d
       0.26551962 -0.1688987 -0.15378377 0.07230341
0001b0 e4 de 0a be ce d2 a2 be 18 aa 88 be 27 dc af be
       -0.13561589 -0.31801456 -0.2669227 -0.3434765
0001c0 8c bc 8b 3e f1 76 7b bd e0 eb 13 be 21 b9 e7 bc
       0.27292287 -0.06139273 -0.14445448 -0.028286519
0001d0 fc 7c 89 bc e5 a6 ed 3a 62 fc 3f bd 8a 37 c4 bd
       -0.01678323 0.0018131403 -0.04687155 -0.09580906
0001e0 fd a5 83 be ca 00 9d be 90 8a 3d be a0 b1 33 3d
       -0.25712577 -0.30664665 -0.18509889 0.04387057
0001f0 d3 36 a7 be 41 12 5d 3e 6a ee 36 3e aa 46 8b be
       -0.32659015 0.21588995 0.17864385 -0.2720235
000200 8d 3e e5 bd d5 4a fb bd 31 a3 a7 bd ed 47 b2 be
       -0.11193571 -0.122701325 -0.08185423 -0.348205
000210 17 2d 0b 3e a4 4b 90 bc cc c6 1e be 45 dd 75 3d
       0.13591419 -0.017614193 -0.15505522 0.060025472
000220 d8 11 0a be eb 8d d1 bd cd 67 9c ba 66 40 cb 3d
       -0.1348337 -0.10232147 -0.001193279 0.099243924
000230 75 77 1c 3e 63 60 80 bd 04 4b cf bb a1 f3 90 bd
       0.15279944 -0.06268384 -0.006326081 -0.070777185
000240 ce 0a d1 bc 76 4f ad bd 05 6a 26 be 3d e3 ab 3e
       -0.025517847 -0.084624216 -0.1625138 0.33571807
000250 80 19 94 3d 06 da 22 3d 94 25 a7 3d 7b ee 7c 3e
       0.07231426 0.039758705 0.08161464 0.24700348
000260 c0 1d 4e 3d 75 6a 17 3e dd 23 05 bf b3 4e 80 3e
       0.05032134 0.14786704 -0.5200785 0.25060043
000270 b4 80 76 3d ce c6 a0 be de 76 87 be d2 94 ff 3d
       0.060181335 -0.31401676 -0.26457876 0.12479557
000280 8e fb bd be b3 b2 3b bc 5d c1 ef bd 57 29 3a 3e
       -0.37105983 -0.011456179 -0.11706803 0.18179832
000290 aa db 50 3e 44 c4 b0 3e 2f a6 3c bd 29 9f 3e 3e
       0.20396295 0.3452474 -0.046056923 0.18615402
0002a0 80 88 d5 bb a8 38 18 3e 5d 90 30 be a6 70 e8 ba
       -0.006516516 0.14865363 -0.1724257 -0.0017733767
0002b0 51 c3 b6 3c 28 69 2b be 0f 60 6d 3d 55 0f da 3d
       0.022309931 -0.16739333 0.057952937 0.106474556
0002c0 7b 1b 9c bd 91 5c 00 3e a3 f2 39 3c ce 1a 8c be
       -0.07622429 0.12535311 0.011349353 -0.273642
0002d0 48 5c 3e 3d 7f 80 9c be cf bc 6a 3e 9c 75 35 3e
       0.046474725 -0.30566785 0.22923587 0.17720646
0002e0 5a e8 81 be df 0a 81 3e df 4b bc bd 34 59 81 bd
       -0.25372583 0.25203606 -0.09194159 -0.06315842
0002f0 33 9e d6 be 72 8d 7a 3d 74 fe 5a be 85 91 7b 3e
       -0.4191757 0.06117005 -0.21386129 0.2456723
000300 9e 0a 41 be ab 62 06 bd cf a1 f7 bc c8 11 1d 3e
       -0.18851706 -0.03280894 -0.030228524 0.15338814
000310 38 d0 15 bf 92 62 10 be 05 9f 40 3e b2 a9 99 be
       -0.5852084 -0.14100102 0.18810661 -0.3001228
000320 7f ae 17 bd 4a fd 30 3d d8 c2 e7 3c e5 86 1d be
       -0.037031647 0.043210305 0.02829115 -0.1538349
000330 60 f1 01 bd 56 05 90 3c 66 8e 03 bf e8 20 be 3d
       -0.031724334 0.01758067 -0.5138916 0.0928362
000340 09 31 12 3e 23 22 50 be 14 a9 9f bd d8 c6 8d 3c
       0.14276518 -0.20325522 -0.07795921 0.01730673
000350 07 e7 d2 be 01 e0 82 be 81 cf 80 be 44 76 b9 bc
       -0.41191885 -0.25561526 -0.25158313 -0.022639401
000360 3a 0c b2 bc ea 30 a4 3d a9 17 0d 3d 95 0b f9 3d
       -0.021734346 0.08017142 0.034446392 0.12160412
000370 68 69 cd be ae 7e 6d be 5a de cc bd fc 72 e1 be
       -0.4011948 -0.23192856 -0.10003348 -0.4403304
000380 9f 76 63 be c6 f7 3b 3e 9c e1 d1 3d 13 3c 1a be
       -0.22213219 0.18356237 0.1024811 -0.15061979
000390 ff ed de bc 85 fc d5 3d 90 44 93 be b5 29 f7 bc
       -0.027213095 0.10448555 -0.28763247 -0.030171255
0003a0 5f da 60 3e ad a6 5e 3e 2e d8 01 3e e4 8d 24 3d
       0.21958302 0.2174327 0.12680122 0.04017438
0003b0 0f 97 14 3e cd d7 88 3e 18 ee a5 be ac 93 22 3c
       0.1451075 0.26727143 -0.32408214 0.009922903
0003c0 bb 60 37 be 89 fe a1 3d 5b 40 75 3e f3 03 28 be
       -0.17907993 0.07909877 0.23950331 -0.16407757
0003d0 9a aa 32 be fd 60 25 3e 17 de f1 bd 67 b6 36 be
       -0.17447892 0.1615028 -0.118099384 -0.17843018
0003e0 07 99 14 be a7 6f a2 3d 0c 87 4d be 1d f9 d6 be
       -0.145115 0.07931452 -0.20071048 -0.41986933
0003f0 30 2c cd be 84 a6 38 be 35 39 84 3e d4 2f e0 be
       -0.40072775 -0.1803227 0.25824896 -0.4378649

fc3.bias f4 [150]
000000 f7 8b 04 bf fd 51 64 bd 6a 4a ac 3e bd 3d 2c be
       -0.5177607 -0.055742253 0.33650523 -0.16820426
000010 48 b4 ed 3e b7 1f 36 3f ab ed 4d 3e 75 14 8c 3e
       0.46426606 0.71142143 0.20110194 0.27359357
000020 12 c5 15 be 2e 0c 10 3f b1 71 e6 3e 15 08 bc 3e
       -0.14625958 0.56268585 0.45008615 0.36724916
000030 a4 92 8c 3e 7f 1d a1 3e a0 40 b8 3e 08 20 e4 3e
       0.27455628 0.31467816 0.35986805 0.44555688
000040 b3 82 48 3f ba 3d dc 3e 7b 95 be 3e 86 0d fa 3e
       0.7832443 0.43015844 0.3722342 0.48838443
000050 05 ae 2e bd 1f da b3 3e 43 e5 0f 3f 77 b5 01 3f
       -0.042646427 0.3512735 0.562092 0.5066752
000060 54 07 34 be d9 ec 9c be b0 24 f9 3e b1 2b fc be
       -0.1758092 -0.3064945 0.48660803 -0.49252084
000070 79 c1 84 bf 57 d3 a2 3e 24 ae c1 3e 97 4c 9e bd
       -1.0371543 0.31801865 0.3782817 -0.07729452
000080 94 67 11 bd c8 39 30 bf 14 10 9f 3d d0 d6 1e bf
       -0.03549917 -0.6883817 0.077667385 -0.6204653
000090 ce f3 16 3f 6c 86 85 bf 6e da 2c 3e a0 00 08 c0
       0.58965766 -1.0431647 0.168802 -2.1250381
0000a0 8c e8 cc 3e 33 a2 cd 3e 4d 54 10 c0 bc b6 40 be
       0.4002117 0.4016281 -2.2551453 -0.18819708
0000b0 ab 8e 81 3e 42 38 28 3f 05 de b3 be 16 6b 1f 3e
       0.2530416 0.6571084 -0.35130325 0.15568194
0000c0 b2 c7 ee 3e 83 d8 0c 3f b3 57 f0 3e b8 79 2a 3f
       0.4663673 0.5501787 0.4694191 0.6659198
0000d0 be 37 0c 3f 61 16 39 3e d7 61 c9 3d 2c c7 ea 3c
       0.54772556 0.18074943 0.098331146 0.028659426
0000e0 f8 bb 12 3f 18 d5 23 3e 73 83 15 3e 60 9d a6 bc
       0.5731807 0.15999258 0.14600925 -0.020338714
0000f0 89 db d8 be 51 20 1e be 54 90 b0 3e 4d c8 e1 3d
       -0.42354992 -0.15442015 0.34485114 0.110245325
000100 31 dd 06 3f a1 ed 82 3e 37 f3 ac 3e 9f 13 98 3d
       0.5268126 0.2557192 0.33779308 0.074256174
000110 25 14 13 3d 9d a3 d9 3e 27 9e d6 3e 4f 60 47 3e
       0.035907883 0.4250764 0.41917536 0.19470333
000120 fc 4a 8c 3e e8 df 9c 3e 15 9f 0a 3f 88 4a 02 3f
       0.2740096 0.30639577 0.5414899 0.50894976
000130 fb ee 0a bd fe 3a b2 bf df 7d 98 3e dc e0 fd 3e
       -0.033919316 -1.3924253 0.29783532 0.49585617
000140 6b c1 04 3f 98 00 43 3e 46 8a 12 3e 57 25 8f be
       0.5185763 0.19043195 0.1431056 -0.27958176
000150 c4 24 2c 3e 75 87 29 3f 06 0c b8 bf 2d b8 d5 3e
       0.168109 0.66222316 -1.4378669 0.41742077
000160 8e ff b9 3e 0a 24 7e 3e f1 1a 05 3f ec e5 88 3e
       0.36327785 0.24818435 0.51994234 0.26737916
000170 d3 70 03 3e 2f 61 c5 be cb 0c ce 3e 93 8e 98 3e
       0.12836008 -0.38550708 0.40244135 0.29796275
000180 11 90 82 be 57 42 fa 3e 54 89 a2 3e d0 c7 92 3e
       -0.2550054 0.48878738 0.31745398 0.2866807
000190 d7 be 9c 3e 42 68 33 3e 80 19 dd 3e ff cd 92 bd
       0.3061435 0.1752024 0.43183517 -0.07168197
0001a0 76 24 84 3e 4c 02 25 3f 45 9e d1 3e 11 55 71 3e
       0.25809067 0.6445663 0.40941063 0.23567607
0001b0 df 12 9d bd de 74 a3 3e df 33 ac 3e 98 49 04 c0
       -0.07669615 0.319251 0.33633325 -2.0669918
0001c0 79 1a 0f bf ee 29 33 3f b1 50 7c 3e c8 82 b8 3e
       -0.5589977 0.69985855 0.24640156 0.36037278
0001d0 b1 ee 25 3e ab 2c 90 3d e6 bc b7 bf df fe 93 3e
       0.16204335 0.0703977 -1.4354522 0.2890539
0001e0 ec 8c 24 3d e0 31 9f 3e ef 89 13 3e 67 86 cf 3e
       0.040173456 0.3109274 0.14408086 0.40532228
0001f0 07 30 ba 3e 01 9a fb 3e 68 66 6c 3e 48 94 71 be
       0.36364767 0.49140933 0.2308594 -0.23591721
000200 23 2a c7 3e 29 32 8d 3e 32 4f 53 be e1 ee f3 be
       0.38899335 0.27577332 -0.2063568 -0.47643188
000210 1b 21 9e 3d e3 d2 1f 3e 27 0e 0e 3f 62 01 60 3e
       0.07721158 0.1560779 0.55490345 0.21875528
000220 be 32 ec be 84 e8 42 be 00 12 c2 bc ad 3a 4a bf
       -0.46132463 -0.1903401 -0.023690224 -0.7899578
000230 7a fe 72 3e 75 49 c9 3e 42 92 3d bf 87 a4 45 3f
       0.23729888 0.39313856 -0.74051297 0.77204174
000240 10 4d b3 3e 30 6f c9 3e d4 42 d9 3d 2d 62 22 3f
       0.35019732 0.39342642 0.106084496 0.63431054
000250 2a d3 aa 3e b8 c0 03 bd
       0.3336423 -0.032166213

fc4.weight f4 [36, 150]
000000 5d e8 c4 be fa b3 cc 3d 6a df 10 3e 16 49 5e 3e
       -0.3845853 0.09995265 0.14147726 0.21707568
000010 15 a9 a0 3f 6c 92 95 3e 0a 22 49 3d 74 08 1e 3e
       1.25516 0.29213274 0.049104728 0.15432912
000020 c5 e8 b8 be 04 ad 83 3d eb f9 81 3e 00 4e 13 3e
       -0.3611509 0.064294845 0.25385985 0.14385223
000030 c2 44 24 3f e5 c7 d4 3e a2 e2 39 3e 4b b4 f8 bd
       0.64167416 0.41558757 0.1815286 -0.12143763
000040 d0 64 90 3e d4 d5 09 bf f8 bb a7 3c 27 0d 58 3e
       0.28201914 -0.538419 0.020475373 0.21098767
000050 c2 48 7d be d0 a1 51 be 74 2b d7 3d 37 24 04 3e
       -0.24734786 -0.20471883 0.10506335 0.1290444
000060 db f0 3e bd a2 1a ca 3d 29 c1 a2 3e 16 e0 0c bd
       -0.046616416 0.09868361 0.31787995 -0.034393393
000070 db 19 d0 3e 2f 6d cd be 51 61 ad 3d e3 02 0a 3f
       0.40644726 -0.40122363 0.08465827 0.53910655
000080 b4 59 00 3e 55 a9 66 bc 7b 6b e7 3d 44 6f df bd
       0.12534219 -0.014078458 0.11299797 -0.10909894
000090 78 12 5a 3f 5b ee 82 3c 7d ab 4c 3e 9b 46 73 be
       0.8518443 0.015982797 0.19987293 -0.23757403
0000a0 c9 46 7a 3e a3 ab e6 be 93 4c 9a bb 88 12 de 3e
       0.24441065 -0.45052823 -0.0047088354 0.43373513
0000b0 8f f2 9f 3d db 94 9c 3d 1a d3 93 bd 70 cb 20 3f
       0.07809936 0.076455794 -0.07217999 0.6281042
0000c0 f7 58 34 be a9 cc 2b 3e d1 d2 8c 3f 0a 4d da be
       -0.17612062 0.1677729 1.1001836 -0.426369
0000d0 bd 20 06 3f 09 69 70 3e 8a ee 9c 3d 45 fb 2a 3e
       0.52393705 0.23477568 0.07662685 0.16697414
0000e0 56 a3 12 bf 64 cd 64 bd bf 9f d9 bd f1 6f 36 bc
       -0.5728048 -0.05585994 -0.10626172 -0.011135087
0000f0 39 8e 2d bd 6a d1 1b 3e d7 6f 73 3c 50 75 c4 3c
       -0.042371962 0.15216604 0.014858208 0.02398172
000100 6e 17 90 3c ab 69 5a 3d ed af 20 3f ad 0f 3e 3c
       0.017589297 0.05332343 0.6276844 0.011600417
000110 2b 18 b4 bd 0a f5 f5 be 76 c7 25 3f f4 33 75 bd
       -0.08793672 -0.48038512 0.6475748 -0.059864
000120 30 b8 a5 3e 13 b9 84 3d 48 b5 01 3f 49 2f bf 3e
       0.32367086 0.064806126 0.5066724 0.37340763
000130 f7 0d b6 be 6a e8 bd 3e 23 0c b3 bd 38 c6 8e 3e
       -0.3555753 0.3709138 -0.08742549 0.27885604
000140 d5 d0 12 3e ec 01 7c 3e c5 6d 67 bd 8b 03 92 3e
       0.14337476 0.24610108 -0.05650117 0.28518328
000150 f3 5c 0f 3e 4d 6e 30 3e 15 ff 30 3d de 91 fe be
       0.14000301 0.17229576 0.043212015 -0.49720663
000160 a8 05 48 3e 22 82 28 3e 10 10 9b be 37 14 cd 3c
       0.19533408 0.16455892 -0.30285692 0.025034053
000170 e8 7e b2 3d f7 7b 1b be 33 06 05 be 1c 85 27 3e
       0.08715612 -0.15184008 -0.12990646 0.16359371
000180 aa 72 16 be ed e6 f4 3d 97 ab 22 3e b8 89 ca bd
       -0.14692178 0.11958108 0.15885769 -0.09889549
000190 3e 2d 0d 3e 6c 4f 88 3e 2c f4 85 3e 65 23 5f ba
       0.1378679 0.26623094 0.2616285 -0.0008512049
0001a0 78 62 fe bc e2 c6 99 be ca d5 31 3d ec 7a 75 3d
       -0.031052813 -0.30034548 0.043416776 0.05993168
0001b0 20 9e a9 bc 71 e7 8e bd 34 38 40 3e 29 43 17 bd
       -0.020705283 -0.06977738 0.1877144 -0.036929283
0001c0 f6 1b f4 3d 60 a2 2a be f6 08 95 3d f8 5a af bd
       0.119193956 -0.16663504 0.072771 -0.08562273
0001d0 9c ec 70 3e c3 7a 41 3c 8d ef 59 be 9b 35 88 3e
       0.2352776 0.011809054 -0.21282788 0.26603398
0001e0 1a ab b1 b9 29 06 9c bd bf b1 91 be 12 7f 91 3e
       -0.0003388755 -0.076183625 -0.28455922 0.2841726
0001f0 3b 3c 0c 3e ba 7b 84 3d 2a 65 9b bc db 81 93 bd
       0.13694851 0.064689115 -0.018969137 -0.07202502
000200 e0 17 eb 3c 75 40 33 3e 92 48 82 bd 0f 56 f7 bd
       0.028697908 0.17505057 -0.06361498 -0.12076961
000210 e7 92 a7 3d a2 8b a2 be 79 b8 0b be 8d 9d c9 3b
       0.08182316 -0.31747156 -0.1364459 0.0061528147
000220 fe 06 fe 3e 88 99 fe 3b 9d 24 20 3e da 72 e5 3e
       0.4961471 0.007769767 0.15638967 0.44814187
000230 55 75 8f bc 63 cd 8d 3d 10 e6 1e 3e 59 63 40 be
       -0.017512003 0.0692394 0.1551745 -0.18787898
000240 08 79 1e 3c e6 b8 a5 3e a9 28 2d be 45 f2 ba 3c
       0.009672411 0.3236763 -0.16910042 0.022820601
000250 70 a8 d0 bd b1 6e 31 bd 99 12 72 3d 5e 19 09 3e
       -0.10188377 -0.043318454 0.059099767 0.13388583
000260 66 42 9d 3d fc 06 31 bd d5 58 a0 be c9 0f 4f 3e
       0.0767868 -0.04321955 -0.31317773 0.20220865
000270 26 d6 8e bb a9 25 86 3d ee 39 b0 3d fc 3d 23 3e
       -0.0043590246 0.06550152 0.08604799 0.15941614
000280 92 40 8b be 74 64 18 3e 51 c8 f2 be ee 56 06 bc
       -0.271977 0.1488207 -0.47418454 -0.008199437
000290 bf b2 b9 be c6 88 1e bd b2 e3 ce 3d 9f 59 47 3e
       -0.36269185 -0.038704656 0.10102023 0.19467781
0002a0 5a 43 bc 3d 7d d2 85 3e ab 47 39 3f 33 35 87 bc
       0.09192534 0.26137152 0.7237498 -0.01650486
0002b0 f0 4c d5 3d 82 f6 6a 3e 2b 52 ad 3e 62 08 bf 3e
       0.10415065 0.22945598 0.33851752 0.37311083
0002c0 71 23 a7 3e 6d 38 b6 bc eb 3a 08 3e 98 f1 9a bd
       0.32644227 -0.022243703 0.13303725 -0.075656116
0002d0 ed c1 53 3e 24 a4 1d bd 9d 34 51 3d a2 87 98 ba
       0.20679446 -0.038486615 0.051075567 -0.0011637101
0002e0 29 14 74 3c 8e fd 27 3d 40 1d eb 3d 34 70 32 38
       0.014897385 0.041013293 0.11480188 4.2543004e-05
0002f0 2c 5d d5 3d 31 50 5f bd 7e 5b 39 3f 5a c5 e2 bd
       0.10418162 -0.054519836 0.7240523 -0.11072798
000300 31 2c f0 bc 89 10 ab 3e b0 d9 63 3e ad e1 0c be
       -0.029317947 0.33411053 0.2225101 -0.13757963
000310 2c a6 4c bc 29 7d 1c 3d 43 de 80 3e cf 18 08 3e
       -0.01249079 0.0382053 0.25169572 0.13290714
000320 cc b2 29 3f 0b c9 e3 3e 58 2e 73 be 38 09 8b 3e
       0.6628845 0.4448932 -0.23748147 0.2715547
000330 93 3a 2d 3f d0 f2 51 3e e7 5c 9b bd c6 b6 11 bb
       0.676675 0.20502782 -0.07586079 -0.0022234186
000340 22 39 96 3d 35 6b e5 3d e6 a1 82 be c0 ff 55 be
       0.07335116 0.11202089 -0.25514144 -0.20898342
000350 5c fb 10 3e fa 96 d2 3d 2f f6 ac 3d 64 76 2b 3d
       0.14158386 0.10282703 0.08445393 0.041860953
000360 40 a8 1d 3f 59 c6 70 3b 0e 1f 1e 3e a2 23 87 bf
       0.61584854 0.0036739318 0.15441534 -1.0557749
000370 1c ec 8c 3a 3f 8c c2 3d 52 a1 90 3e 95 14 aa be
       0.0010751518 0.09499406 0.28248078 -0.33218828
000380 fb 74 c0 3e eb 10 41 3e 97 9b 8d bf be c0 0f bd
       0.3758925 0.1885411 -1.1063107 -0.035095923
000390 b4 ad a1 bd 85 8d 97 3e 75 71 35 3e 59 d1 16 3d
       -0.07894459 0.29600158 0.17719062 0.036820743
0003a0 9d e1 21 bc 66 73 2f 3e f4 20 84 3d 6a ef 45 3e
       -0.009880451 0.17133865 0.06451598 0.1932961
0003b0 8e e6 29 be 28 f8 c7 3d 6a 37 6e 3e 91 96 bc 3e
       -0.16591856 0.09764129 0.23263326 0.36833623
0003c0 4e d3 b8 bd 2b 2c 1d 3e 39 92 38 3e af 62 3a bd
       -0.09024678 0.1534888 0.1802453 -0.04550427
0003d0 dc 3e 91 3d 8f 68 3d 3e 30 57 e6 3d a8 da 45 3e
       0.070920676 0.18496917 0.112470984 0.19321692
0003e0 fc 91 3d 3e bb 90 2f 3e 74 89 a3 3e 2d 0a b7 3d
       0.1851272 0.17145054 0.31940806 0.08937488
0003f0 71 e4 87 3e 57 df 01 be af e0 02 be 4b 42 f8 3d
       0.26541474 -0.12682854 -0.12781022 0.121220194

fc4.bias f4 [36]
000000 4e 46 29 3f a7 a0 b1 3d 7f f8 f3 bd 2e d4 9d 3e
       0.661229 0.0867322 -0.11912631 0.30825943
000010 21 5e bd 3e 3e d2 98 3f dc 43 77 3f cb 0f 02 3f
       0.36985877 1.1939161 0.9658792 0.5080535
000020 18 b6 74 3f 56 f5 da 3f 72 7b c6 3f 1a db 87 3f
       0.95590353 1.710612 1.5506423 1.061374
000030 e8 87 b9 3f 43 18 1d 40 49 cd 18 40 a7 b9 c7 3f
       1.44946 2.4546058 2.3875296 1.5603532
000040 d4 a8 db 3f 20 4c 2f 40 31 16 2b 40 3b d3 dc 3f
       1.7160897 2.7390213 2.6732295 1.7251962
000050 7c 4f b2 3f 02 0e 0d 40 8d d1 0c 40 4d 6a bf 3f
       1.3930507 2.20398 2.20029 1.4954315
000060 66 87 7c 3f 03 f3 cd 3f 28 9d c4 3f 79 13 78 3f
       0.986441 1.6089786 1.536046 0.9690471
000070 28 18 e8 3e e4 6a 6a 3f 6f 7d 6c 3f a7 6f d9 3e
       0.4533093 0.9156935 0.92378896 0.42467996
000080 12 2c 8c 3e f6 66 9d bd bd 9c e0 bd cb 6e 68 3d
       0.27377373 -0.07685654 -0.109673955 0.056746285
