saved_models/fullBasicLinear_200_data.pth (torch_old, 88733 bytes, 4 tensors)

fc1.weight f4 [200, 72]
00000000: 59b2 8bbe eb97 adbe cd56 e4bc 79c1 4abf
00000010: e384 0dbf 3186 f3be a3f3 79bd fa06 aebf
00000020: 5c12 ee3e b324 b13e dca3 08bf b1e8 2cbf
00000030: 98ec 383f 3db3 adbf 065e b83c 5c4b 9abe
00000040: 5913 54bf 3f87 94be 1eda e93d 7217 3cbe
00000050: ad23 d7be 5e4c 45bf 6bc1 f6be 2c85 61bf
00000060: d11a 24bf 433b a23d 804c a23e 9197 873d
00000070: 827e 183f 7a2f 3fbf 2dd6 93bc fa17 28bf
00000080: d18f 473f bfcb e7ba 3009 07be 393d 61bb
00000090: 8f8d 97be 40dc bbbe 5ce1 8abd 98c9 25be
000000a0: 729f a8be 6725 5cbd 7593 2abe 7d6f d0bd
000000b0: de17 77be f56b 4dbe 628b 6bbe e00c b2bd
000000c0: 12ad 88be ddbe 73be c5ef 86be cabb dabe
000000d0: eec6 febe 8082 77be 658e 62be 18e5 81be
000000e0: fdb6 75be f726 6dbe 8adb b0be 3f26 0dbe
000000f0: 2eac aabe 4ec7 01be 30e3 40be 1b81 4abd
00000100: a7e5 44be 9026 bdbe 2294 95be e613 b4be
00000110: 5b24 27be e8d0 53be d987 c0be 024a 80be
00000120: 386d 973d 1800 17bc 0351 83bd 9124 cbbd
00000130: d4d3 bd3d 0bae 633d e58d 7d3d cb47 5b3c
00000140: ca75 dc3d 8065 f13d 662f 2f3d 523f 603d
00000150: de6b 153e 2480 fb3d bb29 e63d 0b14 983d
00000160: 5f7b ac3d 4a2a ea3d 131a 593e 3e62 9f3d
00000170: 34eb 46bd e8da 75bd 5e0e 5f3c 2308 85bd
00000180: 7be6 a6be 491f 1bbf 0da5 bfbf 64f1 8ebe
00000190: ec62 86bf 301d 81bf c230 77bf 6cd7 3bbf
000001a0: 1fb6 67bf 5092 72bf 20a6 55bf ef50 7cbf
000001b0: 4f1d eabc 13d5 c0bc 3c05 03bd b393 f73b
000001c0: 19e7 d9bd fc7c b0bc 4f31 8fbd 2500 6cbd
000001d0: 72e3 ccbd 41e9 bbbd 061b 1bbe 7a5d e1bd
000001e0: 4d55 2abd 7cac 27be 3cf7 48be f053 f5bc
000001f0: 764f 85bd 8f7e 40bd 80a2 b6bd 052d a9bd
00000200: 739d 733b ab44 1e3e 0f45 093c 364c 23bc
00000210: 1df5 dbbd 1d66 d3bf 91c2 9fbf b7dc 02be
00000220: c793 1dbf f8af 0bbf 1180 16bf 7c97 27bf
00000230: d46c 24bf 3b2e 21bf 0c7a 13bf c873 28bf
00000240: 7c21 fabe 6048 babe 4b3f e1be 335b d3be
00000250: e8e7 b3be e693 a4be fe5d 9abe 4776 92be
00000260: b38e acbe 1d05 7ebe 425b b4be 61f1 a6be
00000270: c203 aabe a9d3 c2be d457 9dbe e00c 9abe
00000280: f99a b0be 64ff e2be f5c7 c3be 32c8 d1be
00000290: 3d2b bcbe 97d7 16bf b24b 2cbf ba86 ca3f
000002a0: 766d bcbe c80b 2bbf 1f10 eb3f 18ef dfbe
000002b0: ba79 dabe ab93 e23f 4a15 9cbe 1582 a5be
000002c0: 6318 b43f 1923 02bf 061c bfbe f3a0 c4be
000002d0: 3a64 9f3e ca10 9a3e 5db6 a03e e7a0 933e
000002e0: a366 a53e 7e0f a43e 091e a83e 8756 b23e
000002f0: 23bf 973e 2477 cb3e 7628 8b3e e8ba 843e
00000300: 6d18 a73e 39d1 de3d 3a4d 1d3e 5114 643e
00000310: 99a2 6f3e 2c93 1f3e a20e 1d3e 334e c83d
00000320: f151 8c3e 8cd3 22bc 0029 4bbe fc30 58c0
00000330: 9e8c 853e 2a73 c6bd c632 30c0 faf3 283c
00000340: 5e72 1bbc 07a3 32c0 fc5f 04bd 2505 593e
00000350: 62e5 57c0 8cd8 63bd 137e 273e bc81 903e
00000360: 86b1 b63d 1151 cd3c ccfa c0bd 7b8f 603e
00000370: 2485 bd3d 96f1 8d3d 7088 913e 070f e53d
00000380: 46c6 023e a697 043e 61c0 efbe 08b9 5a3e
00000390: 2211 3f3e ff89 853d 21fb 29c0 4784 603e
000003a0: 240d 3a3e 8f26 323d d417 2bc0 c239 3e3e
000003b0: 43ed 153e 7c10 7b3e 8359 03bf 1f21 843e
000003c0: d817 593e 8c76 e03d 6a5d a83e 149c 613e
000003d0: e8a2 283e 2f7a 6b3e 582c a93e 8ca4 503e
000003e0: d88b 8a3e 7cbb 763e e596 f23d 011f 803e
000003f0: d468 5abe 22eb 6dbe cbcb cabe e928 8ebe
-0.27284506 -0.33904967 -0.027873421 -0.79201466 -0.55280894 -0.47563317 -0.061023366 -1.3595879
0.46498382 0.34598312 -0.5337503 -0.6754256 0.72236013 -1.3570324 0.022505771 -0.3013562
-0.8284202 -0.29009435 0.11418556 -0.18368319 -0.42019406 -0.7706965 -0.4819444 -0.8809383
-0.6410342 0.079214595 0.3169899 0.06620706 0.59568036 -0.7468182 -0.018046463 -0.65661585
0.7795382 -0.0017684622 -0.13187099 -0.0034368767 -0.29600188 -0.36691475 -0.06781265 -0.16190183
-0.32934147 -0.053746607 -0.16657813 -0.10177515 -0.24130198 -0.20060714 -0.23002389 -0.08693862
-0.26694542 -0.23803277 -0.26354805 -0.42721397 -0.49761146 -0.24170876 -0.22124632 -0.25370097
-0.23995586 -0.23159395 -0.34542495 -0.13784121 -0.33334488 -0.12673685 -0.18836665 -0.04943953
-0.1922823 -0.36943483 -0.2921458 -0.3517143 -0.16322462 -0.2068516 -0.37603644 -0.25056463
0.07393879 -0.009216331 -0.06411936 -0.09919084 0.09268919 0.055585902 0.0619029 0.013383816
0.10764654 0.11786938 0.042769812 0.054747887 0.1459193 0.122803 0.11238428 0.07425698
0.08421969 0.11433847 0.21201353 0.0778241 -0.04856415 -0.06002322 0.013614265 -0.064956926
-0.32597718 -0.6059461 -1.4972245 -0.2791854 -1.0498939 -1.0087032 -0.96558774 -0.7337558
-0.9051227 -0.94754505 -0.8345661 -0.98560995 -0.028578429 -0.023539102 -0.031987414 0.007555449
-0.106397815 -0.021543972 -0.06991827 -0.057617325 -0.10004319 -0.09175349 -0.15147027 -0.11004157
-0.041585255 -0.16374391 -0.19625562 -0.029947251 -0.065092966 -0.046995696 -0.08917713 -0.0826054
0.0037172704 0.15455882 0.008378281 -0.009966901 -0.10740111 -1.6515538 -1.2481252 -0.12779509
-0.61553615 -0.5456538 -0.58789164 -0.6546552 -0.6422856 -0.6296117 -0.57608104 -0.6580167
-0.48853672 -0.36383343 -0.439936 -0.41280517 -0.35137868 -0.32144088 -0.30149835 -0.28605863
-0.3370262 -0.24806638 -0.35225874 -0.32606032 -0.33205992 -0.3805211 -0.3073107 -0.30087948
-0.34493235 -0.44335473 -0.38238493 -0.4097305 -0.36751738 -0.58922714 -0.67303 1.5822365
-0.36802262 -0.6681485 1.8364295 -0.43737102 -0.42670995 1.7701315 -0.30484992 -0.32325807
1.4069942 -0.50834805 -0.37326068 -0.38404045 0.31131154 0.30090934 0.31389132 0.28833696
0.32304868 0.3204307 0.32835415 0.3483164 0.29638013 0.39739335 0.27179307 0.25923848
0.32635823 0.1087975 0.15361491 0.22273375 0.2340187 0.15583485 0.15337613 0.0978054
0.27406266 -0.009938132 -0.19839859 -3.3779898 0.26083845 -0.096899346 -2.753099 0.010312075
-0.0094877165 -2.7912004 -0.0323181 0.21193369 -3.3733754 -0.055626437 0.16356687 0.2822398
0.08920579 0.02506307 -0.09422836 0.21929733 0.0925391 0.069308445 0.28424406 0.11184507
0.12770948 0.12948474 -0.4682646 0.21359646 0.1865888 0.06520461 -2.6559527 0.2192546
0.18169075 0.043493804 -2.6733294 0.1857672 0.1464129 0.24518007 -0.5130846 0.2580652
0.21200502 0.10960111 0.3288377 0.22032195 0.16468394 0.22995828 0.33041644 0.2037527
0.27059817 0.24094957 0.11845187 0.25023654 -0.21329051 -0.23234227 -0.39608607 -0.27765587

fc1.bias f4 [200]
00000000: 562f 0d3f 6f93 103f e02a 62bf 5161 67c0
00000010: 6133 733f ccdc b7bf f529 60c0 d2db 1dbf
00000020: 99ae 41bf bfe7 58bf e4ed fa3e a03b b9be
00000030: 0762 11bf ebb8 e4be bb53 8cbf 7a73 32bd
00000040: 0e42 553f 8223 56c0 a7b5 43bf ae70 403f
00000050: e082 18c0 035d 703e 61c2 55bf 727a 85c0
00000060: 2875 c03d 062e 67bf 4b73 a6bf 15d4 5abf
00000070: 2f05 35c0 e433 83bf 3d6d 053f a434 bdbf
00000080: 01b5 9a3c f483 2d3f b548 4b3f 7925 36bf
00000090: d95d 98bf fdd2 453c 9f34 7ac0 dae3 92c0
000000a0: 429c ba3e b996 8bbe 945f 87bd 323c 9cbf
000000b0: a690 a3bf 9024 7bbe e227 1fbf b500 8dbf
000000c0: f8a3 0cc0 44cf 05bf 8745 a2bf c357 c43d
000000d0: 114d b03e 1758 1b3f d2fd 25bf a9e7 84bf
000000e0: 3584 77bf 6db0 05bf 3846 76bf 5807 093d
000000f0: ff3e 79bf 3ab4 03bf a019 07c0 9b5c 5bc0
00000100: c5a9 6d3e b822 49bf c40a 40bf 876a 973d
00000110: f312 aebf 4b78 4ac0 9b22 5abf 7dc1 62bf
00000120: b982 50bf 6d46 8b3e d77c 1d3f 24df 05bc
00000130: d343 9dc0 6a76 71bf 98d2 60c0 d634 0e3f
00000140: 813f 61be d565 28bf fac2 343f a090 48c0
00000150: c732 3ebe d745 94be e959 153f 057c ddbe
00000160: 0970 9a3e 7db5 66c0 25dc 6cbf 2bdf 27bf
00000170: a84d 8abf f829 b9be 3b39 00bf bf14 41bf
00000180: 2de4 103f 316a 443f 03a4 56bf 7064 49c0
00000190: 3d00 983b df79 84bf acd5 5ebd c5bb 0bbc
000001a0: 6aa7 e6bf 1291 313f e1e5 47c0 7069 48bf
000001b0: 2c6d 69bf 88fe d8bf 186e 333f e2c7 1dbb
000001c0: 996c d0be c19a bcbf 5d0c 59bf 3228 57c0
000001d0: 02f2 73bf bef4 2a3f 765f 72bf 913f a8bf
000001e0: 2a74 36c0 60d4 a43e 333b 97bf 2b84 f0be
000001f0: 3450 103f f9aa 95bf db83 10c0 b4e3 c93e
00000200: d023 66c0 cbb9 8ac0 74aa 83c0 aa56 22c0
00000210: c3de 993e 306c f9bf 9596 38c0 c931 88bf
00000220: 0072 1dc0 4227 a13e 2472 03bf 4651 f1bf
00000230: 6116 983c bbd0 91c0 d266 b0bc 37e0 61c0
00000240: 8d9c 973e e8fc 4ac0 f50b e5be b94a 033f
00000250: 5d03 883d 7a76 81bf 215f a6bf d8ee 6cc0
00000260: 56fe 73c0 2920 52bf 13a5 06bf 376f 0dbf
00000270: acb5 28bf 8c78 46c0 2a72 edbf 8144 04c0
00000280: 464d 83c0 8612 c3bf 3caf 4bbf a3fb 01bf
00000290: dd22 943e 8d63 6cc0 1293 49be 5991 e4bf
000002a0: 5370 86bf acd0 20c0 7eb3 603e 009d 6cc0
000002b0: fb5f d6be 2531 8cbf 824a 80bd 9922 dcbf
000002c0: c755 2bbf e081 23bf fac2 3b3f f06d 3ec0
000002d0: 02c1 1abf 10da 2f3f 84f3 3ebf 99bc 8dbf
000002e0: 1711 abbf 6800 4fc0 bf56 58bf 1c48 84bf
000002f0: 5316 40c0 3157 fdbe f980 c83e 6fa8 4abf
00000300: 75b7 87bf 00d8 96bf 85dc 20bf 94b5 81bf
00000310: f798 d3bf 58f6 06c0 d854 e0bf 5f4a 48bf
0.55150354 0.56474966 -0.8834667 -3.6153147 0.95000273 -1.4364257 -3.5025609 -0.61663544
-0.7565704 -0.84728616 0.4900962 -0.36178303 -0.567902 -0.4467233 -1.0963053 -0.04356716
0.83303916 -3.3459172 -0.76449054 0.75171936 -2.382988 0.23472981 -0.83499724 -4.171197
0.09397346 -0.903046 -1.3003935 -0.8547986 -2.8284414 -1.0250211 0.5211981 -1.478169
0.018885138 0.6777947 0.7940782 -0.7115093 -1.190364 0.012074229 -3.9094617 -4.590314
0.3644734 -0.2726343 -0.06610027 -1.220587 -1.2778518 -0.24525666 -0.6217023 -1.1015841
-2.1975079 -0.5226939 -1.2677468 0.09587052 0.34433797 0.6068129 -0.64840424 -1.0383197
-0.96686107 -0.5222233 -0.96200895 0.03345427 -0.9736175 -0.5144688 -2.110939 -3.4275272
0.23209293 -0.785686 -0.7501643 0.07393365 -1.3599533 -3.163592 -0.85209054 -0.8857649
-0.81449467 0.27202168 0.61518615 -0.008170877 -4.9145293 -0.9432131 -3.5128536 0.5554937
-0.21996881 -0.65780383 0.7061001 -3.1338272 -0.18574058 -0.28959534 0.58340317 -0.43258682
0.301636 -3.6048272 -0.92523414 -0.655749 -1.0804949 -0.36164832 -0.50087327 -0.7542228
0.5659817 0.76724535 -0.8384401 -3.1467552 0.0046387003 -1.0349692 -0.054402992 -0.008528654
-1.8019841 0.69361985 -3.1234057 -0.78285885 -0.9118221 -1.6952677 0.70089865 -0.0024075438
-0.40707853 -1.4734727 -0.8478449 -3.3618283 -0.9529115 0.66779697 -0.9467691 -1.3144399
-2.85084 0.3219328 -1.1814941 -0.46975836 0.5637238 -1.1692802 -2.2580478 0.39431536
-3.5959358 -4.33518 -4.1145573 -2.5365396 0.30052766 -1.9486141 -2.8841908 -1.0640193
-2.460083 0.31475264 -0.5134604 -1.8852928 0.018565359 -4.55673 -0.021533404 -3.52931
0.29611626 -3.1716862 -0.44735685 0.5128589 0.066412665 -1.0114281 -1.2997781 -3.7020779
-3.8123984 -0.8208032 -0.52595633 -0.55247825 -0.6590221 -3.1011076 -1.8550465 -2.0666811
-4.103183 -1.5240028 -0.7956426 -0.5077459 0.2893285 -3.693576 -0.19685009 -1.7856857
-1.0503029 -2.5127363 0.21943471 -3.6970825 -0.41870102 -1.0952498 -0.06264211 -1.7198058
-0.6692776 -0.6387005 0.73344386 -2.97546 -0.60450757 0.6869211 -0.74590325 -1.107318
-1.336459 -3.2343998 -0.84507364 -1.0334506 -3.0013626 -0.49480584 0.39160898 -0.7916326
-1.0602862 -1.1784668 -0.62836486 -1.0133538 -1.6531056 -2.1087856 -1.7525892 -0.7823848

fc2.weight f4 [36, 200]
00000000: 608d 47be a3ea 993e 90a6 ffbd c7c0 aebd
00000010: 6d43 2f3f a09e af3d 039b 2d3d 9393 263e
00000020: eba4 1a3f 1c72 8ebe 4146 f63e e5e5 e8c0
00000030: 21e4 a8bd e725 8fbe f23b 22be 2774 9fbd
00000040: 50bb 893d 0188 03be 965c dd3e 7d78 8e3e
00000050: e64c 3fbe 1f99 f33d 78d6 3e3b a26d 35be
00000060: a7b7 823c debd 303f ab7b 9c3e c2e3 2f3e
00000070: de80 6fbe 91b8 34bc b19b 90bd 7980 0bbe
00000080: 815a b8be 49aa 823e 9684 ce3e e412 363e
00000090: f6fd 74be 625e 1a3e be6c 883e 7179 50be
000000a0: e7a7 68be f1ae 76be e3ac a33d 97b5 083f
000000b0: ba3e c03e de2d 42be 1c2c 283e c33e d93c
000000c0: 1f0a debd 9386 03be 8e9b f6bd c9c2 91be
000000d0: fe2e 403e 06ae 643e fa77 c9bc 3e1a 96be
000000e0: 1045 3dbd f39a 55bd 244a 223e 061b 063e
000000f0: 8fbd 49be 3b97 a8bd 0edb a4bd 8a82 65bc
00000100: b2d0 75be 9709 853e 2a2e 693e 93e8 83bd
00000110: 20f1 d83e 8310 50be 31fb 183d c3e4 9b3e
00000120: e3a6 4f3f bc6f 433e bf91 fc3d e796 9b3d
00000130: bdf2 053f a215 583d 16ca 14be 12f1 9d3e
00000140: 26b6 91bd 299f 89bd baec 2d3d 1cf7 32be
00000150: cfa8 553f 8ce7 673d 28ec 023d 4536 693e
00000160: 8320 6cbd 303a 35bd fcbd d03e b390 3cbd
00000170: 97b4 ab3e 8d23 5dbe 9935 8cbd ee20 573e
00000180: 7aa3 45bf 1717 18be 8f84 e13e 81f2 b6bd
00000190: 44b8 8fbd 2608 0f3e e949 8fbe eca3 533c
000001a0: f2b4 0c40 b3be c63e cc0d 16be 7577 ab3e
000001b0: 56c5 ce3e fb15 8fbc 4fca 353e c32f 90bb
000001c0: dbde 533f ae38 0fbe 3272 7a3c 2857 e4bd
000001d0: 5e19 333e 12a7 983d 2368 4e3e 3e42 ac3e
000001e0: b4f6 12be f7db 9e3e a64b 42bc 15ae 9f3e
000001f0: 3ce1 e43d 907a 3bbe 079b fabd b04c 86bc
00000200: 8ac3 c73f 0bac 21be e83a c9bd 947d e8bd
00000210: 8885 35be e313 e1bd 63dd 39be bffa f83e
00000220: 0f24 06be 6be5 9f3b 9c79 b93e ec6f 27be
00000230: e502 ad3e 5911 9e3d 8185 9e3d 2c65 2dbe
00000240: 3664 4e3e 0d00 02be 9874 953d d94f 343f
00000250: a8d3 35be a242 763e 569a 78be 787e f6bd
00000260: 93e3 4abe 754b fdbd 06b5 bf3c c492 803e
00000270: c066 d2bd 1bd0 0ebe 999a 43bd 49cc a5bb
00000280: 79db eabd f69c 33be 5cdb 933e 41b8 a83e
00000290: 473f 743e 2fb1 30be 91c7 6cbd 6ea2 86be
000002a0: 633c f43e 0c01 9cbd 704e 093e 9f04 cdbd
000002b0: cb4d e93e 751f 1bbe d515 00be b3e5 7a3e
000002c0: 48c8 15bd 2f4a 09bb e716 f6bd b17d 5ebe
000002d0: c60b c13d df85 973e cfea 85bd f98d 9cbd
000002e0: be71 11be 6172 23be a7b2 e5bd 05e0 3bbd
000002f0: 3439 49be ab18 95be 352c 0a3f b16c 0d3f
00000300: b3ac 023f 4ae5 983e ceec 29be bb72 dcbd
00000310: a92c 4f3d a499 833f 7014 053e 9e45 c23c
00000320: 4771 f1be 83af ce3e 1e2d 1ebe b0ef d1bd
00000330: 0665 243f aaa9 b33c 9d2f 0bbe be08 803e
00000340: c53b be3e c179 89bd c15c 87be db20 153f
00000350: 9521 ffbd e6ff e9bd 296a b4bd cd1c c73d
00000360: 999c 5dbf 82f6 abbd c4e6 033f cd04 38bf
00000370: 2fe2 d7bd 3052 823c 88c2 c0bc a838 18be
00000380: b5a5 fe3c 4cf9 5fbe 2041 863e 4244 083e
00000390: 8c74 1bbe eadb 85be 3f6f 863e 6a43 10be
000003a0: c1b8 3b3e f880 a8be 3ecc e63e 7319 463e
000003b0: c81b 653f e0c4 423e 2311 f73e c062 1abe
000003c0: 811d b9bd ff2d 05bd 2a40 873e 1337 b13e
000003d0: 8fb7 c63e 12c9 623c dcff 883e 9a62 3dbd
000003e0: b45b f03d 0e1e 373e 065c 42be a8d2 c4be
000003f0: d855 543f 9cf9 1b3f f8c2 0cbd 818f c6be
-0.19487524 0.30061826 -0.12482941 -0.08532863 0.6846226 0.08575177 0.04238416 0.16267233
0.60407895 -0.27821434 0.48100474 -7.2780633 -0.08246637 -0.27958605 -0.1584318 -0.07785826
0.0672518 -0.1284485 0.432347 0.278263 -0.18681678 0.1189444 0.0029119533 -0.17717603
0.015956713 0.69039714 0.305631 0.17176726 -0.23389003 -0.011030332 -0.07060946 -0.13623227
-0.3600655 0.25520542 0.4033553 0.17780644 -0.23925003 0.15075067 0.26645464 -0.20358826
-0.227203 -0.24090172 0.0799196 0.53402084 0.37547857 -0.1896281 0.16423076 0.026519185
-0.10841774 -0.12844305 -0.120413885 -0.28468922 0.18767926 0.2233201 -0.024593342 -0.29316896
-0.04620844 -0.052149724 0.15848595 0.13096246 -0.19701217 -0.0823197 -0.08049594 -0.014008174
-0.24005392 0.2598388 0.22771516 -0.064408444 0.42371464 -0.20318799 0.03734893 0.3044797
0.81114024 0.19085592 0.12332486 0.07597142 0.52323514 0.052755006 -0.14530215 0.30847985
-0.0711482 -0.067198105 0.04246209 -0.17477077 0.83460706 0.056617305 0.031963497 0.22774608
-0.057648193 -0.044244945 0.40769947 -0.046036433 0.33536217 -0.21595593 -0.068461604 0.21008655
-0.7720257 -0.14852558 0.44046447 -0.08932973 -0.07017568 0.13967952 -0.27986076 0.0129175
2.198544 0.38817367 -0.146537 0.33489576 0.4038493 -0.017466536 0.17752956 -0.004400225
0.82761925 -0.13986465 0.015286015 -0.11149436 0.17490146 0.07453741 0.20156913 0.3364429
-0.14351922 0.31027195 -0.011858856 0.31187502 0.111757725 -0.18308473 -0.122366 -0.01639399
1.5606549 -0.15788285 -0.098256886 -0.11352077 -0.1772672 -0.10990121 -0.18150859 0.48628804
-0.13099693 0.0048796437 0.36225593 -0.16351289 0.3379127 0.077181526 0.077403076 -0.16933125
0.20155415 -0.12695332 0.07297629 0.7043434 -0.17756522 0.24048856 -0.24277624 -0.12035841
-0.19813375 -0.12367908 0.023401748 0.25111973 -0.10273504 -0.13946573 -0.047754858 -0.005059753
-0.11467642 -0.17540345 0.28878295 0.32953075 0.23852263 -0.1725509 -0.05780751 -0.262958
0.4770232 -0.07617387 0.13408828 -0.10010647 0.45567164 -0.15148719 -0.12508328 0.24501686
-0.036567956 -0.0020948758 -0.12016087 -0.21727635 0.09426074 0.29594323 -0.06538927 -0.07644267
-0.14203545 -0.15961601 -0.11215716 -0.04586794 -0.19650728 -0.29120383 0.53973705 0.55243975
0.5104477 0.29862434 -0.1659424 -0.107640706 0.0505797 1.0281262 0.12996078 0.023714837
-0.47156736 0.4036828 -0.15446898 -0.10250795 0.6421665 0.021931488 -0.13592382 0.2500667
0.37154976 -0.06712676 -0.26437953 0.5825326 -0.12457577 -0.11425762 -0.08809311 0.0972229
-0.86567074 -0.08396627 0.51523995 -0.71882325 -0.10541188 0.01590833 -0.02353026 -0.14865363
0.031084875 -0.21872443 0.2622156 0.13307288 -0.15181178 -0.26144344 0.2625675 -0.14088216
0.18332197 -0.32910895 0.450777 0.19345646 0.89495516 0.19020414 0.48255262 -0.15076733
-0.090388305 -0.03251457 0.2641614 0.3461233 0.3881192 0.013841884 0.26757705 -0.046236612
0.11736241 0.17882559 -0.18980417 -0.38441968 0.8294349 0.6092775 -0.034365624 -0.3878136

fc2.bias f4 [36]
00000000: ef57 f3bf e137 ecbf 16e9 02c0 d7f6 c7bf
00000010: 55b1 48bf afb8 00bf 8a37 10bf 0ab1 ebbe
00000020: 01fe 3ebd 6879 f13e 922e 3a3f ba54 253e
00000030: 2187 e33e f3a5 b53f 7a49 b33f 653d 6d3f
00000040: 2d68 383f 3117 c03f 8801 b83f 053d 8f3f
00000050: dd89 0d3f 567d c23f f022 cb3f 5ba8 8d3f
00000060: 558b cebc 2527 8e3f 8ccb 813f a545 c93e
00000070: ffda 2dbf 306a f63d b244 d8bd 734f efbe
00000080: 5d43 babf a76e dfbf e610 f4bf 7075 e8bf
-1.901121 -1.8454553 -2.0454764 -1.5622205 -0.7839559 -0.50281805 -0.56334746 -0.46033508
-0.046628956 0.47162938 0.7272731 0.16145602 0.44439033 1.4191269 1.4006798 0.92671806
0.7203396 1.5007077 1.4375467 1.1190497 0.5528849 1.51945 1.5870037 1.1067003
-0.025212923 1.1105696 1.0140243 0.39310947 -0.67912287 0.120319724 -0.105599776 -0.46740302
-1.4551808 -1.7455643 -1.9067657 -1.8160839
