saved_models/fullMaskCNN.pth (torch_old, 64934 bytes, 4 tensors)

conv.weight f4 [12, 2, 3, 3]
-0.2391923 -0.2993319 -1.4419054 -0.3143267 -0.3580717 -0.31732404 -1.6116632 -0.3019044
-0.13967289 -0.15227649 -0.32547364 2.2033336 -0.2575038 1.2880839 -0.40511757 2.3164482
-0.2756121 -0.30167156 -0.08394903 -1.842678 -0.041821536 -0.23608132 -1.6161274 -0.33906394
-0.19065866 -1.809949 -0.20056972 -0.101007864 2.0668147 -0.06477083 -0.062091548 1.9486765
1.6576827 -0.14635077 2.1097205 -0.14017467 0.01707672 -0.9428479 -0.599393 0.22363776
-0.25439933 -1.135958 -0.020817311 0.016967317 -0.011312354 -0.46161234 2.0967677 -0.7292908
-0.3835644 -0.47859156 1.8809214 -0.45655063 -0.4455113 -0.16767395 -0.8969361 -0.9307767
-0.9772084 -0.8691701 0.27851632 -0.88827926 -0.8973547 -0.94273186 -0.9744602 -0.18606892
-0.23791242 -0.19185564 -0.16540895 0.010232339 -0.16499713 -0.19292411 -0.19373243 -0.21380892
-1.8112001 -1.2762659 -1.6543343 -0.073345825 -0.058406804 -0.048835058 -0.035851806 -0.005790369
-0.037578687 1.9156978 0.83754534 1.8225638 -0.12074098 -0.21332233 -0.13009997 -0.04896598
-0.14328755 -0.3125818 0.9232721 -0.29017353 -0.20773171 0.106222056 -1.1365525 -1.2999579
0.36004376 -0.62920254 -0.5992183 -0.79104656 -0.2541845 -0.24629866 -0.47159302 -0.26258805
-0.2562842 -0.43987608 -0.16790485 -0.2765272 0.1907164 -0.12681322 -0.028811943 0.6831994
0.161677 -0.21682987 0.3959804 -0.36973387 0.1431411 -0.2929509 -0.21304789 -0.0030662627
-0.8128853 -0.15973376 0.19088006 -0.6073627 0.94538444 0.05749247 0.15273358 1.0395675
-0.16959855 -0.74668014 0.48541543 0.4204347 -0.2192433 -0.48297846 -0.036125895 -0.3012371
-1.1035774 -0.5959038 0.2882296 -0.3826233 -0.44003457 -0.11998007 0.20954591 -0.28958347
-0.3130824 -0.20193861 -0.12070115 -0.03397105 1.0948347 -0.24600199 0.67930806 -1.0294183
0.65678775 -0.3931792 -0.2946102 -0.5183684 -0.40345517 -1.0495051 -0.4922711 -0.2797473
-0.22716177 -0.33388096 -0.2322188 0.5384071 -0.42636803 0.43754932 0.51658076 0.38165542
-0.5366061 -0.5463645 -0.5968048 -0.15645318 -0.54664296 0.04893423 -0.5049174 -0.6975909
-0.5211209 0.14604527 0.1611336 0.20070173 -0.9044979 -0.77500683 0.68094975 -0.89918154
-0.87711716 -1.1214556 -0.91099304 -0.90626645 0.70735025 -0.18610613 -0.13535644 -0.47715864
-0.27879646 -0.24041437 -0.4079995 -0.17841539 -0.14064763 -0.55638826 -0.9271286 -0.22578897
0.0687959 -1.1034961 0.15853713 -0.17032385 -1.0323709 -0.15452483 0.022245785 1.3419791
-0.20136936 -0.060118396 1.0056114 -1.4580517 -0.1978734 1.2586849 -0.109434046 -0.35856047
00000000: d4ee 74be 0842 99be 5b90 b8bf 6eef a0be
00000010: 2d55 b7be 4c78 a2be fb4a cebf 3793 9abe
00000020: 6906 0fbe 5eee 1bbe 7ba4 a6be 6b03 0d40
00000030: 8ad7 83be efdf a43f 926b cfbe b040 1440
00000040: 071d 8dbe b274 9abe 78ed abbd dfdc ebbf
00000050: 0f4d 2bbd 4dbf 71be 43dd cebf ca99 adbe
00000060: 063c 43be 69ac e7bf 2662 4dbe 36dd cebd
00000070: b146 0440 92a6 84bd b553 7ebd 3b6e f93f
00000080: f22e d43f fadc 15be a905 0740 f389 0fbe
00000090: 7ae4 8b3c 7b5e 71bf d271 19bf 4c01 653e
000000a0: a140 82be 1267 91bf 1189 aabc 0bff 8a3c
000000b0: 7457 39bc 7458 ecbe 7131 0640 cdb2 3abf
000000c0: 8e62 c4be f409 f5be 08c2 f03f 01c1 e9be
000000d0: 0f1a e4be b8b2 2bbe 9b9d 65bf 6247 6ebf
000000e0: 542a 7abf ef81 5ebf b199 8e3e 4566 63bf
000000f0: 0ab9 65bf e056 71bf 3976 79bf da88 3ebe
00000100: 509f 73be ce75 44be f760 29be 8aa5 273c
00000110: 02f5 28be e68d 45be cb61 46be baf0 5abe
00000120: 68d5 e7bf ae5c a3bf 3ac1 d3bf 5636 96bd
00000130: f93b 6fbd 4507 48bd 58d9 12bd 23bd bdbb
00000140: 1cec 19bd 9635 f53f 5f69 563f c549 e93f
00000150: 0c47 f7bd 2b71 5abe ed38 05be 8d90 48bd
00000160: f9b9 12be b90a a0be 8f5b 6c3f a091 94be
00000170: 9fb7 54be f38a d93d 8d7a 91bf 0565 a6bf
00000180: a857 b83e 6b13 21bf 5f66 19bf 0782 4abf
00000190: 7924 82be b735 7cbe a474 f1be f171 86be
000001a0: af37 83be 7037 e1be 40ef 2bbe f994 8dbe
000001b0: 294b 433e 53db 01be 0607 ecbc 28e6 2e3f
000001c0: a88e 253e a608 5ebe f1bd ca3e c24d bdbe
000001d0: 9593 123e a9fd 95be 3a29 5abe 5af3 48bb
000001e0: 4019 50bf 3f91 23be 1076 433e 1f7c 1bbf
000001f0: b704 723f 397d 6b3d 3166 1c3e 8c10 853f
00000200: 3eab 2dbe 6e26 3fbf 5f88 f83e 3843 d73e
00000210: 5181 60be f448 f7be bff8 13bd c03b 9abe
00000220: 0642 8dbf 278d 18bf d592 933e 34e7 c3be
00000230: 364c e1be 1cb8 f5bd 3493 563e 4944 94be
00000240: 564c a0be ffc8 4ebe 2a32 f7bd 3a25 0bbd
00000250: 8b23 8c3f f2e7 7bbe 22e7 2d3f fbc3 83bf
00000260: 3e23 283f c94e c9be 26d7 96be cbb3 04bf
00000270: ad91 cebe 2f56 86bf f50a fcbe 0a3b 8fbe
00000280: 189d 68be 72f2 aabe c4ca 6dbe 0cd5 093f
00000290: e94c dabe 7706 e03e a33e 043f 5768 c33e
000002a0: 045f 09bf 8bde 0bbf 33c8 18bf 4335 20be
000002b0: cbf0 0bbf 426f 483d 4442 01bf 5195 32bf
000002c0: 2e68 05bf e48c 153e 3500 253e c184 4d3e
000002d0: 2d8d 67bf d966 46bf b952 2e3f c330 66bf
000002e0: c08a 60bf db8b 8fbf d736 69bf 1401 68bf
000002f0: e814 353f 9b92 3ebe e19a 0abe 234e f4be
00000300: 69be 8ebe 2f2f 76be 4fe5 d0be 86b2 36be
00000310: ef05 10be 766f 0ebf 4d58 6dbf 3935 67be
00000320: dde4 8c3d 5c3f 8dbf 8f57 223e 6069 2ebe
00000330: bb24 84bf c23b 1ebe cb3c b63c f9c5 ab3f
00000340: c533 4ebe b53e 76bd e0b7 803f 70a1 babf
00000350: 539f 4abe 961c a13f f51e e0bd 3d95 b7be

conv.bias f4 [12]
-1.965549 -2.9940426 -1.568092 0.49822462 -1.2725571 0.2632515 -0.2911465 -0.2040046
-0.0654185 0.06589873 0.19944403 -0.6563674
00000000: 1c97 fbbf 659e 3fc0 3db7 c8bf 4c17 ff3e
00000010: 27e3 a2bf e7c8 863e 2711 95be 95e6 50be
00000020: 22fa 85bd eaf5 863d 0e3b 4c3e b207 28bf

fc.weight f4 [36, 432]
-0.016894333 -0.13604712 -0.20149767 -0.23359089 0.16496122 -0.1936905 0.0041026287 0.18413937
-0.08543202 -0.29454336 0.111816436 0.11749084 -0.27428874 -0.19353908 -0.045540143 0.1109539
0.09858249 -0.030636113 0.0059089907 0.13546555 -0.4115821 -0.10866564 -0.17033358 0.11767323
-0.112451546 -0.030795502 -0.10189809 -0.25292683 -0.022135897 -0.2220515 -0.009264953 0.07512423
-0.053949077 0.04040713 0.040029667 -0.01292881 0.14695387 -0.1539947 0.07565346 -0.104308546
0.57897913 0.03888455 -0.05012477 -0.16082901 1.1679441 0.008639532 -0.3818021 -0.30372423
-0.1497236 -0.23078555 0.1642343 -0.2140973 -0.04322127 -0.092519246 -0.016985556 -0.123971365
0.051760018 0.0050119166 -0.13480963 -0.18813714 -0.0472295 -0.1887678 -0.06808334 -0.15115805
0.119881734 0.11831479 -0.07924198 0.0024530285 -0.025630802 -0.14684613 -0.014752895 -0.2209934
-0.16145352 0.22110437 0.14751874 -0.114383675 0.25820372 0.26841217 0.05371831 -0.6069121
-0.13760361 1.6982157 0.17016758 -0.1009632 -0.07258031 0.19862312 1.3393098 -0.091968134
-0.1420045 0.011605074 -0.10776141 0.26045913 0.06768367 -0.11227409 -0.052458055 -0.21177389
-0.098294444 -0.29692638 -0.13313349 -0.25234398 -0.16654406 -0.06861079 0.030036146 -0.24497262
-0.08995377 -0.0722866 -0.2142256 -0.51852506 -0.41912758 -0.53291595 -0.48108152 0.15944178
-0.7975339 0.4328302 0.26166865 -0.72573876 -0.83153003 0.45430687 0.34723312 -0.67918104
0.17880468 0.6291771 0.7028905 0.16098927 -0.26451135 0.85002023 0.5585656 -0.8131083
-0.3901361 0.62272763 1.0140506 -0.3136234 -0.038567927 0.55148065 0.7094686 0.06673555
-0.36331123 0.6749096 0.2727932 -0.07225359 0.041599866 -0.06044423 0.035313908 -0.28757644
-0.056950428 -0.046261143 0.03743013 -0.04782132 -0.11013345 1.6573645 1.1531487 0.57093734
0.0041575073 -0.190302 -0.37613845 0.14265501 -0.031168364 -0.27116 -0.044707987 -0.0016662226
-0.05070315 0.02285742 -0.061144687 0.034248415 -0.09093956 -0.02722257 -0.043064218 0.05814152
-0.18193425 -0.10532304 -0.021999594 0.030079536 0.023986774 -0.12896302 -0.059127305 -0.05707894
-0.19875513 -0.03055112 -0.07945593 -0.003757229 -0.82763016 -0.03185797 -0.18513826 0.042061415
-0.06532347 0.7328098 0.6362162 -0.09804717 0.32335758 0.574962 -0.013296721 -0.2114573
0.19702256 -0.16155095 -0.16260828 0.047103748 0.6194093 0.32983074 -0.19392963 -0.19453335
0.3114092 -0.4718716 -0.077942856 -0.11940809 0.24548359 -0.30896068 0.049350794 -0.044468056
0.22243673 -0.15852635 -0.065163605 0.031031752 0.036599662 0.102672525 0.038765732 0.19026217
-0.543316 0.061161444 0.111529425 0.1294489 -0.01350656 0.57194763 -0.73503655 -0.07762817
-0.28103706 0.21690422 0.048389643 -0.5965179 0.35304633 0.0948111 -0.21749377 -0.2125695
0.14034013 -0.027834255 -0.039920505 -0.23370972 0.057886213 -0.13061862 -0.1930278 -0.14804943
-0.030356325 -0.06769681 -0.025709186 -0.14026098 0.07972391 -0.20945804 -0.23511684 -0.21691746
0.0012591677 -0.22667782 -0.115449145 0.08417953 -0.18438098 -0.57354414 -0.16647264 0.023932695
00000000: fc65 8abc f04f 0bbe 6855 4ebe 7332 6fbe
00000010: 98eb 283e cd56 46be 586f 863b 088f 3c3e
00000020: fcf6 aebd 63ce 96be 0400 e53d 0a9f f03d
00000030: 936f 8cbe 1c2f 46be 4d88 3abd cc3b e33d
00000040: 9ee5 c93d 96f8 fabc 35a0 c13b 7bb7 0a3e
00000050: e4ba d2be 178c debd ed6b 2ebe aafe f03d
00000060: ff4c e6bd d946 fcbc f2af d0bd a07f 81be
00000070: 5756 b5bc 7861 63be 08cc 17bc bbda 993d
00000080: b5f9 5cbd f281 253d 26f6 233d 5cd3 53bc
00000090: 137b 163e c9b0 1dbe 34f0 9a3d b89f d5bd
000000a0: fa37 143f 6845 1f3d a14f 4dbd 5cb0 24be
000000b0: 317f 953f d38c 0d3c 917b c3be be81 9bbe
000000c0: 2551 19be 0c53 6cbe 092d 283e 533c 5bbe
000000d0: c908 31bd bb7a bdbd 4b25 8bbc b3e4 fdbd
000000e0: 5002 543d 013b a43b 890b 0abe 06a7 40be
000000f0: b873 41bd 594c 41be 476f 8bbd 2dc9 1abe
00000100: 8e84 f53d 064f f23d 9f49 a2bd fdc2 203b
00000110: b0f7 d1bc d55e 16be 20b6 71bc 184c 62be
00000120: 1254 25be 2f69 623e 270f 173e fd41 eabd
00000130: 4733 843e 526d 893e bb07 5c3d 975e 1bbf
00000140: f6e7 0cbe 225f d93f 6940 2e3e cbc5 cebd
00000150: fca4 94bd dc63 4b3e 816e ab3f ca59 bcbd
00000160: a169 11be 3523 3e3c 04b2 dcbd e65a 853e
00000170: bc9d 8a3d f5ef e5bd 42de 56bd 41db 58be
00000180: 994e c9bd bc06 98be 2554 08be 3b33 81be
00000190: 878a 2abe d083 8cbd 5d0e f63c 1ada 7abe
000001a0: af39 b8bd ff0a 94bd f55d 5bbe 0fbe 04bf
000001b0: e497 d6be 2e6d 08bf 5150 f6be b544 233e
000001c0: 2f2b 4cbf ec9b dd3e 6ff9 853e 04ca 39bf
000001d0: 27df 54bf e99a e83e 8ac8 b13e cfde 2dbf
000001e0: 9318 373e c011 213f a2f0 333f 5fda 243e
000001f0: 086e 87be ed9a 593f 28fe 0e3f de27 50bf
00000200: ebbf c7be 146b 1f3f 69cc 813f 3f93 a0be
00000210: 67f9 1dbd d62d 0d3f bc9f 353f a6ac 883d
00000220: ee03 babe e0c6 2c3f 8dab 8b3e b1f9 93bd
00000230: 9f64 2a3d 5e94 77bd 51a5 103d 383d 93be
00000240: da44 69bd 537c 3dbd 5650 193d 4ae0 43bd
00000250: a58d e1bd 8524 d43f 609a 933f f328 123f
00000260: b33b 883b 87de 42be 3895 c0be 2814 123e
00000270: cc54 ffbc 7cd5 8abe b91f 37bd 2765 daba
00000280: 1bae 4fbd 7c3f bb3c da72 7abd 1148 0c3d
00000290: 853e babd de01 dfbc 1b64 30bd cd25 6e3d
000002a0: f94c 3abe 9bb3 d7bd 7e38 b4bc 5c69 f63c
000002b0: e97f c43c e20e 04be 792f 72bd 9bcb 69bd
000002c0: 7786 4bbe 5846 fabc cab9 a2bd d83b 76bb
000002d0: 92df 53bf 817d 02bd e294 3dbe 9748 2c3d
000002e0: 50c8 85bd 6c99 3b3f 11df 223f f4cc c8bd
000002f0: 208f a53e b630 133f 7dda 59bc 4388 58be
00000300: 48c0 493e 9d6d 25be c982 26be dcef 403d
00000310: 9c91 1e3f 93df a83e 7d95 46be c033 47be
00000320: 0771 9f3e 2899 f1be 81a0 9fbd 3b8c f4bd
00000330: 0d60 7b3e 1830 9ebe 0f24 4a3d 2324 36bd
00000340: 74c6 633e bb54 22be 7f74 85bd 4d36 fe3c
00000350: 87e9 153d f945 d23d d1c8 1e3d 16d4 423e
00000360: c216 0bbf 6c84 7a3d 8a69 e43d 418e 043e
00000370: 9e4a 5dbc 296b 123f 5b2b 3cbf 85fb 9ebd
00000380: 17e4 8fbe 241c 5e3e 3834 463d 66b5 18bf
00000390: 7dc2 b43e 522c c23d b0b6 5ebe d2ab 59be
000003a0: 53b5 0f3e aa04 e4bc af83 23bd 9a51 6fbe
000003b0: 181a 6d3d e3c0 05be 14a9 45be 459a 17be
000003c0: d4ad f8bc a0a4 8abd 129c d2bc 93a0 0fbe
000003d0: 4a46 a33d 2b7c 56be 78c2 70be 9c1f 5ebe
000003e0: a80a a53a 3b1e 68be 9a70 ecbd 5166 ac3d
000003f0: 5ece 3cbe cad3 12bf ce77 2abe 800e c43c

fc.bias f4 [36]
-0.36139205 -0.65982795 -0.52975935 -0.7853967 -0.77344 0.15312828 -0.103801414 -0.36585203
-0.6712183 0.33243072 0.41480455 0.15088534 0.12334052 0.91511345 0.8918359 0.7509478
0.124458544 1.4006381 1.3874983 0.70620793 -0.23018911 0.7772127 0.7011978 0.53122514
-0.7775515 0.06971689 0.013583589 -0.39070597 -0.91585046 -0.11228961 -0.24816228 -1.1021866
-0.3344161 -0.12233318 -0.17689152 -0.58294696
00000000: 6108 b9be 7cea 28bf 4f9e 07bf c20f 49bf
00000010: 2a00 46bf a9cd 1c3e d695 d4bd f550 bbbe
00000020: f6d4 2bbf 5c34 aa3e 4361 d43e b081 1a3e
00000030: f499 fc3d e044 6a3f 5c4f 643f 1d3e 403f
00000040: 1fe4 fe3d 1c48 b33f 8b99 b13f 0bca 343f
00000050: b2b6 6bbe 69f7 463f b381 333f 5ffe 073f
00000060: 9d0d 47bf bbc7 8e3d b48d 5e3c 9d0a c8be
00000070: 2d75 6abf 18f8 e5bd 411e 7ebe 7314 8dbf
00000080: 9638 abbe d189 fabd 0d23 35be 033c 15bf
