saved_models/fullDeepCNN.pth (torch_old, 70442 bytes, 6 tensors)

conv1.weight f4 [12, 2, 3, 3]
0.054027785 -0.36129373 0.024886178 0.03339079 -0.83399683 -0.0760875 -0.2086535 -0.93852407
-0.074739486 -0.08914095 2.431558 -0.11974931 -0.1715434 0.56826025 -0.102147356 -0.05610785
0.2233127 -0.025296321 -0.14375946 -1.4237111 -0.08666311 -0.50712645 1.362881 -0.17465
-0.37751037 -1.4372728 -0.05421574 -0.098657794 -0.11605786 -0.05813653 -0.05556924 -0.41538313
-0.062299922 -0.11439635 -0.17937592 -0.028560892 -0.12184704 0.13393602 -0.021099154 1.137151
-0.13853076 -0.22042519 0.07291644 -0.15283756 0.056656938 -0.061075523 -0.0034256876 -0.016054863
-0.7474415 -0.04641877 -0.13166484 -0.03887143 -0.072209306 -0.003831891 0.42003933 0.51557344
0.58791846 0.46411824 0.9206825 0.33733845 0.319352 0.4575557 0.6266253 0.06895458
0.017870028 0.06545515 0.07701787 -0.46806368 0.25338188 0.10262692 0.14329061 0.16310853
0.0087422775 -0.013395349 -0.009292099 -0.91492856 -0.6512154 -0.46080834 0.0066261427 -0.04415508
-0.011160721 0.02928468 -0.27653292 -0.05174085 2.2670927 0.9538832 1.4131162 0.04607173
0.007983047 0.015184935 -0.011374711 0.050006557 -0.0860026 0.5562952 0.60751516 0.9941023
-0.20037055 0.30883062 -0.06770226 0.05034632 -0.028194064 0.032334514 -1.3760839 -0.58378434
-0.9554637 -0.15007766 -0.027110873 -0.027423803 -0.00014563913 -0.15060693 -1.1049972 -0.08135079
-0.8809268 -0.22113158 -0.6985286 0.021445228 -0.018291838 0.10889357 -0.23248844 2.159777
0.3127228 1.5549616 0.13749376 1.277224 0.13022913 0.112373054 -0.01337877 -1.4685798
0.0342619 -0.048248257 -1.1170452 -0.045352954 -0.020776134 -0.67682165 0.030584073 -0.031197652
1.0486939 0.057289887 -0.095005296 1.6786029 0.0364536 -0.068306886 2.664541 0.023731409
-0.6843898 -0.48347548 -0.51847285 -0.58260286 -0.51168203 -0.6190603 -0.52580845 -0.60229105
-0.6629309 -0.13851403 -0.019736847 -0.071431756 -0.10614422 -0.017135194 0.025042081 -0.10034422
0.066523895 -0.06566833 0.027179848 1.1256009 0.07736547 0.16370857 0.529632 0.070476845
-0.047413126 0.9578028 -0.04574577 -0.02397765 -1.7994878 -0.041069806 -0.08097516 -1.7417209
-0.08064811 -0.113699704 -1.6763607 -0.09898926 -1.3055137 -0.022643752 0.17785573 -0.0749694
-1.0425266 -0.012378061 -0.05346048 -0.0064507225 -1.1012856 1.7579856 -0.11086264 -0.077649735
-0.057759114 1.6801506 -0.17981435 -0.12961951 0.01716547 1.8767657 -0.09849267 -0.2474754
-0.38232034 0.045697246 -0.40225658 -0.18501614 0.0052263592 -0.03395592 -0.09108956 -1.317252
-0.2644113 0.16239683 -0.1044174 0.9723334 0.3059279 -1.3927389 -0.22888444 -0.13596559
00000000: 3d4c 5d3d 7efb b8be 19de cb3c c8c4 083d
00000010: d180 55bf c3d3 9bbd 43a9 55be 1d43 70bf
00000020: 0411 99bd 888f b6bd a59e 1b40 203f f5bd
00000030: 13a9 2fbe 8179 113f a232 d1bd 58d1 65bd
00000040: 16ac 643e 3b3a cfbc ae35 13be 2a3c b6bf
00000050: 6e7c b1bd 0ad3 01bf e272 ae3f 73d7 32be
00000060: 0a49 c1be 8ef8 b7bf 5311 5ebd 190d cabd
00000070: beaf edbd 9220 6ebd 929c 63bd 19ad d4be
00000080: 342e 7fbd a248 eabd 52ae 37be 88f8 e9bc
00000090: f18a f9bd 8626 093e 22d8 acbc 2a8e 913f
000000a0: 02db 0dbe 24b7 61be 3755 953d 7381 1cbe
000000b0: 1b11 683d 542a 7abd 8081 60bb 7d85 83bc
000000c0: 5358 3fbf 9c21 3ebd 26d3 06be a637 1fbd
000000d0: 79e2 93bd 7720 7bbb 650f d73e 9ffc 033f
000000e0: d381 163f e8a0 ed3e d9b1 6b3f a0b7 ac3e
000000f0: 1b82 a33e be44 ea3e 846a 203f 0f38 8d3d
00000100: 2a64 923c 5a0d 863d 8cbb 9d3d 0ba6 efbe
00000110: 45bb 813e 102e d23d c6ba 123e ec05 273e
00000120: c53b 0f3c 2a78 5bbc e33d 18bc c238 6abf
00000130: 0db6 26bf 12ef ebbe 1d20 d93b f5db 34bd
00000140: 75db 36bc 6de6 ef3c b995 8dbe 37ee 53bd
00000150: 0c18 1140 b031 743f fee0 b43f b6b5 3c3d
00000160: 53cb 023c 3cca 783c ff5c 3abc add3 4c3d
00000170: 2222 b0bd 5d69 0e3f 1d86 1b3f 7d7d 7e3f
00000180: f02d 4dbe 0c1f 9e3e 7ca7 8abd f137 4e3d
00000190: 3df7 e6bc 3271 043d 8423 b0bf e472 15bf
000001a0: 4599 74bf f5ad 19be 9f17 debc e2a7 e0bc
000001b0: b5b6 18b9 b438 1abe 8c70 8dbf 3e9b a6bd
000001c0: 6b84 61bf 5170 62be c5d2 32bf e7ad af3c
000001d0: c4d8 95bc 9803 df3d 7311 6ebe c939 0a40
000001e0: 341d a03e fb08 c73f 2acb 0c3e 137c a33f
000001f0: c95a 053e d823 e63d a132 5bbc 6cfa bbbf
00000200: 3556 0c3d f79f 45bd 56fb 8ebf 05c4 39bd
00000210: b632 aabc 2f44 2dbf 738b fa3c 3892 ffbc
00000220: 9a3b 863f cda8 6a3d 2392 c2bd 76dc d63f
00000230: 5f50 153d 7be4 8bbd d787 2a40 5f68 c23c
00000240: 2c34 2fbf 198a f7be a3ba 04bf 7625 15bf
00000250: 98fd 02bf bc7a 1ebf 629b 06bf bf2f 1abf
00000260: d7b5 29bf 9fd6 0dbe 2baf a1bc d04a 92bd
00000270: 2462 d9bd 1b5f 8cbc 0d25 cd3c 4581 cdbd
00000280: ae3d 883d 1e7d 86bd 46a8 de3c b113 903f
00000290: ca71 9e3d 38a3 273e f695 073f 2a56 903d
000002a0: 4434 42bd 9032 753f eb5f 3bbd c76c c4bc
000002b0: 9e55 e6bf d038 28bd 4ed6 a5bd b6f0 debf
000002c0: d62a a5bd 64db e8bd fd92 d6bf e2ba cabd
000002d0: 131b a7bf 647f b9bc d01f 363e 8f89 99bd
000002e0: 8371 85bf 5acd 4abc 60f9 5abd 9560 d3bb
000002f0: edf6 8cbf ac05 e13f f40b e3bd d306 9fbd
00000300: d294 6cbd 2d0f d73f 4121 38be faba 04be
00000310: 9a9e 8c3c dc39 f03f 86b6 c9bd 316a 7dbe
00000320: 7ebf c3be 092d 3b3d 93f4 cdbe df74 3dbe
00000330: e141 ab3b 5d15 0bbd 2a8d babd b79b a8bf
00000340: eb60 87be 5b4b 263e cad8 d5bd d7ea 783f
00000350: 95a2 9c3e 4545 b2bf af60 6abe 903a 0bbe

conv1.bias f4 [12]
-1.1551567 -0.18654217 0.0036030586 -0.959994 -1.2454169 -0.13945746 -1.7699678 -1.8836362
0.35932437 -0.032990232 -2.277917 5.514416e-05
00000000: 2ddc 93bf e904 3fbe 4b21 6c3b 2bc2 75bf
00000010: d269 9fbf f0cd 0ebe 4e8e e2bf fe1a f1bf
00000020: 5df9 b73e c420 07bd 64c9 11c0 974a 6738

conv2.weight f4 [12, 12, 3, 3]
0.0023169713 1.7990402 0.02893582 0.1432162 0.25457126 0.14676866 0.030105906 0.046210714
0.0968631 0.09861038 -0.82584935 0.00588746 -0.2026455 0.6597271 0.021661852 0.11886252
-1.8499286 -0.01579414 -0.0709799 -0.07165095 0.1506915 0.05696274 0.48493543 -0.15438436
-0.116659686 0.04886237 -1.2868518 -0.040196408 0.23561916 -0.12067958 -0.40472186 -0.23220448
-0.13466437 -0.017617151 -0.26101726 -0.10228764 -0.057894655 -0.072817855 0.016220149 -0.08801425
-0.19409558 -0.078288145 -0.057227727 -0.036248416 -0.051171273 0.02662897 0.07443725 0.079523765
-0.035885874 0.07431539 0.023311138 -0.5231993 -0.034647647 -0.20063844 0.042292275 0.09724911
-0.07376154 -0.06324727 -0.019210588 -0.0339673 -0.07672505 -0.03944826 -0.04277551 0.063943066
0.6449257 0.033948828 -0.038551144 1.3328393 -0.052783847 -0.0017569083 -0.0060613584 -0.05589382
0.30101743 0.109132886 0.33691514 -0.27145562 0.0576535 -0.85858035 -0.2472616 -0.004092274
0.1432627 -0.09800534 1.0847268 -0.02972468 -0.05253762 1.0272042 -0.04237097 -0.0014360687
-0.03340009 0.08394198 -0.06691574 0.05776899 -0.076087914 0.011231371 -0.034496397 -0.057728134
0.033264168 -0.018818293 -0.07802986 0.06813008 -0.051721156 -0.0632265 0.23477723 -0.31340384
0.24291529 0.12961408 0.04081992 0.08115191 -0.097857326 -0.536972 -0.004969607 0.0022446464
0.035729144 0.09898869 -0.07463717 0.818231 -0.16367345 -0.24552825 -0.042882483 -0.14445573
-0.03458372 -0.29302934 -0.023402963 -0.19517808 -1.2966237 0.04245224 -0.16404958 0.14999679
-0.126866 0.007957456 -0.021215657 -0.110240035 -0.24498473 -0.12482291 0.20222321 -0.18241325
-0.53698456 -0.22257991 -0.1728074 0.0045726313 -0.13721746 0.23308523 -0.0009686786 0.11186304
-0.14834708 -0.1759983 -0.28654847 -0.055902887 -0.026869807 -0.16051635 -0.0136948265 0.07678941
0.029545626 -0.04493047 0.09511141 -0.1007562 -0.04253772 -0.02775952 0.06064097 -0.074909486
0.01758553 -0.10356871 0.0056490866 -0.3101786 -0.16590154 -0.16168706 -0.08248184 -0.07783481
0.06933798 0.02989934 0.051592216 -0.11395794 -0.23759282 -0.15403385 0.08948813 0.27446076
0.025949322 0.10402951 0.5920891 0.019785587 0.1539849 0.4721773 0.35338587 -0.6309229
-0.23644254 -0.32885873 -0.39060208 -0.8883349 -0.025777956 0.041474007 -0.21506123 -0.09717986
-0.058262847 0.74580675 -0.101581015 -0.0741058 1.0711452 -0.09681891 -0.10309794 -0.315524
0.040229667 0.04594808 -0.079814225 -0.1098523 0.033112053 0.021613274 0.058208205 0.07401917
-1.0728805 0.020237692 0.18324935 0.053819314 0.19885124 -0.1303641 0.028085781 -0.0144871855
-0.23561376 -0.19249088 -0.48453823 0.28509983 -0.040981155 0.013513993 -0.062514246 0.06546969
0.20876533 -0.77583295 0.19952545 0.19097579 0.2183019 0.86541426 0.25513273 0.3270047
0.23441856 -0.551933 -0.16936097 -0.57651633 -0.047797788 -0.021979196 -0.0052844286 -0.6932673
-0.13907781 0.32895234 0.005235741 -0.45410255 -0.26423803 -0.38278148 0.0586224 0.4267843
-0.065492794 -0.24803366 -0.14458781 -0.46153498 -0.1464054 0.002509614 -0.010814503 -0.25319532
00000000: 54d8 173b f346 e63f d00a ed3c 44a7 123e
00000010: 2a57 823e 864a 163e a9a0 f63c 7247 3d3d
00000020: 2960 c63d 3df4 c93d dd6a 53bf 98eb c03b
00000030: 4d82 4fbe e0e3 283f 3274 b13c 316e f33d
00000040: 76ca ecbf b662 81bc e95d 91bd bcbd 92bd
00000050: df4e 1a3e c351 693d 7549 f83e ef16 1ebe
00000060: 46eb eebd e923 483d 8fb7 a4bf fda4 24bd
00000070: 2646 713e db26 f7bd b437 cfbe 03c7 6dbe
00000080: 75e5 09be d851 90bc 0ea4 85be 2f7c d1bd
00000090: f222 6dbd 8721 95bd 1ee0 843c d140 b4bd
000000a0: fec0 46be 8955 a0bd 9f67 6abd 3879 14bd
000000b0: f898 51bd ff24 da3c 8f72 983d 5bdd a23d
000000c0: 11fd 12bd ab32 983d 00f7 be3c 64f0 05bf
000000d0: b1ea 0dbd 2a74 4dbe aa3a 2d3d 8b2a c73d
000000e0: 4a10 97bd c987 81bd 865f 9dbc 4c21 0bbd
000000f0: 0622 9dbd 8094 21bd 6035 2fbd 95f4 823d
00000100: da19 253f ed0d 0b3d cee7 1dbd 7a9a aa3f
00000110: e033 58bd 0f48 e6ba 5c9e c6bb ebf0 64bd
00000120: f51e 9a3e 1081 df3d 2480 ac3e 3bfc 8abe
00000130: 1426 6c3d eccb 5bbf 2532 7dbe 7b18 86bb
00000140: 75b3 123e 06b7 c8bd 54d8 8a3f 2c81 f3bc
00000150: b031 57bd 6d7b 833f 2f8d 2dbd 783a bcba
00000160: 88ce 08bd c6e9 ab3d 1f0b 89bd 2d9f 6c3d
00000170: fbd3 9bbd c903 383c 184c 0dbd 5674 6cbd
00000180: 0240 083d d228 9abc 1fce 9fbd c987 8b3d
00000190: 90d9 53bd e57c 81bd 7169 703e 7876 a0be
000001a0: c9be 783e 8eb9 043e ca32 273d f932 a63d
000001b0: 6c69 c8bd ff76 09bf 16d8 a2bb eb1a 133b
000001c0: b958 123d 95ba ca3d 5fdb 98bd 9677 513f
000001d0: 039a 27be c26b 7bbe 8ba5 2fbd 34ec 13be
000001e0: a9a7 0dbd f107 96be 92b7 bfbc c3dc 47be
000001f0: c4f7 a5bf 66e2 2d3d 9dfc 27be c298 193e
00000200: 29e9 01be fd5f 023c 75cc adbc 87c5 e1bd
00000210: 47dd 7abe 27a3 ffbd 9a13 4f3e 8aca 3abe
00000220: d277 09bf fdeb 63be 6cf4 30be 03d6 953b
00000230: bc82 0cbe e5ad 6e3e ecee 7dba 7318 e53d
00000240: 4ce8 17be e638 34be 7bb6 92be 6dfa 64bd
00000250: 121e dcbc 665e 24be 4460 60bc c443 9d3d
00000260: ab09 f23c 0309 38bd c5c9 c23d 4459 cebd
00000270: 083c 2ebd ef67 e3bc aa62 783d 256a 99bd
00000280: 880f 903c d51b d4bd f91b b93b bbcf 9ebe
00000290: 18e2 29be 4b91 25be 3dec a8bd db67 9fbd
000002a0: 1201 8e3d 76ef f43c 5c52 533d c862 e9bd
000002b0: 884b 73be 0dbb 1dbe 8d45 b73d 1f86 8c3e
000002c0: ac93 d43c 6c0d d53d 2793 173f 6215 a23c
000002d0: 38ae 1d3e 39c1 f13e feee b43e 2a84 21bf
000002e0: fe1d 72be 2c60 a8be fffc c7be ea69 63bf
000002f0: 4b2c d3bc a6e0 293d 0339 5cbe 3c06 c7bd
00000300: 06a5 6ebd 31ed 3e3f b509 d0bd c8c4 97bd
00000310: 491b 893f fe48 c6bd 0325 d3bd 5d8c a1be
00000320: ddc7 243d 0e34 3c3d a475 a3bd 3efa e0bd
00000330: 81a0 073d 520e b13c ba6b 6e3d 5d97 973d
00000340: 2654 89bf 84c9 a53c b8a5 3b3e a471 5c3d
00000350: a99f 4b3e 2b7e 05be 2714 e63c a95b 6dbc
00000360: bc44 71be 541c 45be 6515 f8be 9bf8 913e
00000370: dbdb 27bd cb69 5d3c 7807 80bd f914 863d
00000380: 94c6 553e fd9c 46bf 6650 4c3e 288f 433e
00000390: 898a 5f3e ca8b 5d3f c2a0 823e 296d a73e
000003a0: 6b0b 703e 7b4b 0dbf f66c 2dbe 9396 13bf
000003b0: 9dc7 43bd b70d b4bc 0029 adbb f779 31bf
000003c0: 6a6a 0ebe 716c a83e 9490 ab3b 2180 e8be
000003d0: 354a 87be effb c3be 0b1e 703d 7983 da3e
000003e0: 1621 86bd 89fc 7dbe d40e 14be 504e ecbe
000003f0: 4ceb 15be 5678 243b 502f 31bc d1a2 81be

conv2.bias f4 [12]
-2.0569942 -0.3239758 -0.024273828 -0.08921603 0.15559746 -0.06318628 0.53205866 0.46445587
-0.9990562 -0.18056677 -0.3074229 -0.82436496
00000000: cba5 03c0 28e0 a5be e8d9 c6bc e5b6 b6bd
00000010: f154 1f3e cf67 81bd ff34 083f 29cd ed3e
00000020: 26c2 7fbf 7fe6 38be 8966 9dbe 9509 53bf

fc.weight f4 [36, 432]
0.00035960478 -0.15588894 0.12658428 -0.09333379 0.6690989 0.08632936 0.079964615 -0.16737214
0.84194595 -0.084075674 -0.074638724 -0.20954621 -0.17968635 0.040171765 -0.0053660893 0.0088832695
-0.082534485 -0.09620153 -0.06832268 -0.027875595 -0.112782694 -0.07157113 -0.104873225 -0.1549387
0.007995481 -0.012861277 -0.14415626 -0.10913384 -0.09088409 -0.21084781 -0.14012136 0.006523966
-0.023370944 -0.0062043737 -0.0056683077 -0.03417577 -0.031004384 0.0069894157 -0.033590768 0.043242656
0.6093587 -0.092815764 -0.1845575 -0.045962688 -0.13018693 -0.1936161 -0.10387819 -0.27145848
0.03218398 0.089349456 -0.041668896 -0.084398575 0.054142755 -0.07609425 -0.07182174 -0.03796831
-0.08922754 -0.24618748 -0.16182618 -0.070835724 -0.046170622 0.06624648 -0.02195638 -0.16797715
-0.051649224 -0.10125345 -0.1790279 0.056803588 0.0042344737 -0.039902546 -0.052409437 0.043527577
0.5188776 0.07932654 -0.087126896 0.5016819 0.05606497 0.61718804 -0.016015423 -0.04474863
-0.07600162 -0.018056925 0.7569692 0.015687611 0.012310619 0.03620527 0.06744679 0.22457209
0.01515755 -0.0024951722 -0.20143762 -0.09204285 0.034460176 -0.057623588 -0.18164217 -0.007886176
0.10292275 -0.1701597 -0.08989645 -0.10223445 -0.12230887 -0.106657445 -0.3149795 -0.11108221
-0.0720028 0.033183005 -0.20961949 -0.07666893 -0.030583195 0.11804226 -0.077539966 -0.082335986
0.10759096 -0.05514756 -0.06016441 0.04916993 0.01597803 -0.11527549 -0.11904124 0.05184258
-0.034873 -0.20210484 -0.06300221 0.05896151 -0.06317849 -0.11592685 -0.07474959 0.025357522
-0.09511162 -0.21848051 -0.050585315 -0.0822242 0.039082106 -0.10023928 -0.038038954 0.004821542
0.016695071 -0.11641307 0.066439115 0.15197673 -0.16949461 -0.039705925 0.041167848 -0.017742697
0.24697024 -0.066364974 -0.19912261 0.029786564 0.022650253 -0.07644441 -0.27868718 0.017959677
0.01576301 -0.22213982 -0.13817078 0.27414376 -0.07528327 -0.09441895 -0.056337424 -0.019872753
-0.0925811 -0.029798836 -0.11140329 -0.0650341 0.027076771 -0.13397148 0.03298932 0.33002573
-0.06886392 -0.065950945 -0.14720626 -0.04991838 -0.1769543 -0.05687203 -0.080632314 0.22953871
-0.13575831 -0.14472361 -0.010415889 -0.037338987 0.2545908 -0.11784844 0.09459235 -0.110502996
0.006081867 -0.24345535 -0.3214086 0.04392564 0.45757177 -0.2770392 -0.23191248 0.054403957
0.106371254 -0.2111181 -0.28650728 -0.16259949 -0.22107136 -0.15614597 -0.11806181 -0.16145168
-0.09833595 -0.008744347 0.028669756 -0.18281889 -0.17213693 -0.09096056 -0.19493821 -0.06269996
0.111237116 -0.14142464 0.0025336822 0.0031344006 0.15309142 0.027454076 -0.019142618 0.008473116
0.12588444 -0.25289482 -0.41731554 -0.3282368 -0.20650172 -0.10168021 -0.37496898 -0.50188005
-0.12046564 0.17802693 0.5150982 -0.08453973 0.21409374 0.005874228 0.1715418 0.055308484
-0.084812075 0.17987072 0.13258831 0.123581156 -0.02445063 0.20676428 0.31617752 0.16980454
0.12986532 0.29122087 0.36252236 0.15181932 -0.0047494415 0.10904948 0.2885281 0.08184401
0.017666696 0.101511955 0.05394259 -0.077564694 -0.42048407 -0.5352772 -0.6163875 -0.13350381
00000000: 5689 bc39 5aa1 1fbe 4f9f 013e c925 bfbd
00000010: 114a 2b3f 73cd b03d 7dc4 a33d 9a63 2bbe
00000020: c589 573f de2f acbd 30dc 98bd 4893 56be
00000030: b3ff 37be 268b 243d 05d6 afbb 228b 113c
00000040: d707 a9bd 4f05 c5bd c3ec 8bbd 5c5b e4bc
00000050: 9dfa e6bd e293 92bd c6c7 d6bd 40a8 1ebe
00000060: 7aff 023c 1bb8 52bc b39d 13be 9081 dfbd
00000070: 7021 babd 7de8 57be f97b 0fbe fec6 d53b
00000080: 6c74 bfbc 0f4e cbbb 36bd b9bb e4fb 0bbd
00000090: e8fc fdbc 7807 e53b 7996 09bd 361f 313d
000000a0: effe 1b3f 3116 bebd a4fc 3cbe 5f43 3cbd
000000b0: b94f 05be 4d43 46be 17be d4bd 9bfc 8abe
000000c0: 59d3 033d d9fc b63d 01ad 2abd 29d9 acbd
000000d0: cbc4 5d3d 4dd7 9bbd 4717 93bd a984 1bbd
000000e0: eebc b6bd 9218 7cbe c3b5 25be 5212 91bd
000000f0: 681d 3dbd 3cac 873d dedd b3bc 3402 2cbe
00000100: 238e 53bd f85d cfbd 1753 37be e1aa 683d
00000110: 57c1 8a3b da70 23bd 47ab 56bd f949 323d
00000120: 2ad5 043f f475 a23d 966f b2bd 3a6e 003f
00000130: 62a4 653d 0900 1e3f c732 83bc 574a 37bd
00000140: bda6 9bbd 1eec 93bc bcc8 413f 4e83 803c
00000150: 7ab2 493c fa4b 143d 8b21 8a3d 3af6 653e
00000160: 5f57 783c 0b86 23bb aa45 4ebe f680 bcbd
00000170: 1d26 0d3d b606 6cbd 6800 3abe 0535 01bc
00000180: 2ac9 d23d 583e 2ebe a11b b8bd 4c60 d1bd
00000190: 137d fabd 386f dabd fe44 a1be 127f e3bd
000001a0: 3476 93bd e7ea 073d 7ea6 56be 9a04 9dbd
000001b0: 9c89 fabc 24c0 f13d 46cd 9ebd c59f a8bd
000001c0: a658 dc3d 68e2 61bd f56e 76bd 6966 493d
000001d0: 5ce4 823c 8e15 ecbd e5cb f3bd e358 543d
000001e0: fed6 0ebd 92f4 4ebe 4d07 81bd a081 713d
000001f0: b963 81bd 0e6b edbd 5016 99bd 94ba cf3c
00000200: e2c9 c2bd 5bb9 5fbe 8c32 4fbd 2965 a8bd
00000210: 8f14 203d 404a cdbd bcce 1bbd 07fe 9d3b
00000220: 1ac4 883c fa69 eebd 3b11 883d ca9f 1b3e
00000230: ff8f 2dbe aea2 22bd 9e9f 283d 2259 91bc
00000240: c4e5 7c3e 5cea 87bd cce6 4bbe f402 f43c
00000250: 068d b93c e38e 9cbd 16b0 8ebe 2c20 933c
00000260: 6e21 813c 9f78 63be a47c 0dbe 925c 8c3e
00000270: 1d2e 9abd b95e c1bd 12c2 66bd 2fcc a2bc
00000280: 299b bdbd b01c f4bc 6827 e4bd 9930 85bd
00000290: 1bd0 dd3c d22f 09be cf1f 073d 22f9 a83e
000002a0: 8708 8dbd 4a11 87bd 3dbd 16be 3777 4cbd
000002b0: 8233 35be a5f2 68bd 8e22 a5bd 320c 6b3e
000002c0: 3a04 0bbe 6d32 14be 68a7 2abc c4f0 18bd
000002d0: ba59 823e 865a f1bd a2b9 c13d 654f e2bd
000002e0: 664a c73b 5c4c 79be ab8f a4be 5feb 333d
000002f0: d946 ea3e 15d8 8dbe 777a 6dbe afd6 5e3d
00000300: 2cd9 d93d 582f 58be 15b1 92be 7b80 26be
00000310: 8860 62be bbe4 1fbe 64ca f1bd 9753 25be
00000320: 5c64 c9bd 7344 0fbc d6dc ea3c e034 3bbe
00000330: aa44 30be 8849 babd e29d 47be d668 80bd
00000340: 49d0 e33d 9fd1 10be 220c 263b 846a 4d3b
00000350: ffc3 1c3e 5fe7 e03c fbd0 9cbc d3d2 0a3c
00000360: dae7 003e 6e7b 81be 62aa d5be a70e a8be
00000370: 3075 53be b73d d0bd effb bfbe 367b 00bf
00000380: b1b6 f6bd b14c 363e 7add 033f 2a23 adbd
00000390: 643b 5b3e 997c c03b a7a8 2f3e 268b 623d
000003a0: f4b1 adbd 0830 383e 3bc5 073e 1e18 fd3d
000003b0: b04c c8bc 04ba 533e 05e2 a13e 3ee1 2d3e
000003c0: 6afb 043e e71a 953e 889c b93e 8676 1b3e
000003d0: 34a1 9bbb 5555 df3d f5b9 933e d59d a73d
000003e0: bfb9 903c 80e5 cf3d e8f2 5c3d 3dda 9ebd
000003f0: b049 d7be ed07 09bf 92cb 1dbf 39b5 08be

fc.bias f4 [36]
-0.75379896 -0.8255117 -0.8582621 -0.75024015 -0.78905815 -0.11896589 0.03557836 -0.7383873
-0.33017412 0.49653274 0.38678336 -0.4859986 0.268034 0.8276699 0.76049656 0.32594734
0.17850232 1.0062295 0.99510187 0.21919066 0.23939733 0.72683346 0.867962 0.26897505
-0.05161884 0.3905645 0.5042522 -0.1646273 -0.31014147 0.12535341 0.2572654 -0.3293651
-0.66027844 -0.5342301 -0.4018225 -0.8277656
00000000: f8f8 40bf bc54 53bf 11b7 5bbf bd0f 40bf
00000010: b7ff 49bf 63a4 f3bd 9dba 113d f306 3dbf
00000020: 950c a9be 8a39 fe3e 7808 c63e cfd4 f8be
00000030: c13b 893e 2de2 533f e7af 423f 92e2 a63e
00000040: 50c9 363e 21cc 803f ffbe 7e3f 8473 603e
00000050: 9324 753e c211 3a3f c232 5e3f 19b7 893e
00000060: 476e 53bd 12f8 c73e ac16 013f 0f94 28be
00000070: ddca 9ebe a55c 003e 4ab8 833e 8ba2 a8be
00000080: 0208 29bf 4ec3 08bf aebb cdbe 72e8 53bf
