saved_models/fullDeepLinear5_200_data.pth (torch_old, 571904 bytes, 10 tensors)

fc1.weight f4 [200, 72]
-0.4214069 -0.47544348 -0.36312142 -0.3047287 -0.31678468 -0.27246094 -0.41038814 -0.50784355
-0.32580292 -0.05414819 -0.16307873 -0.5367579 0.0446259 0.3389894 -0.16519721 -0.36424693
0.7123083 0.73988223 0.27367517 -0.4235401 0.789947 0.8770233 0.28674674 -0.6687504
0.46328637 0.5046512 0.23694769 -0.3283861 -0.20693183 -0.39501753 -0.075863935 -0.32269254
-0.66568685 -0.45259523 -0.19423284 -0.6085322 -0.29654667 -0.13601804 -0.11020698 -0.10248724
-0.013012645 0.094282255 0.02526832 0.020012956 -0.073915325 0.10314855 -0.011237205 -0.18493597
-0.06320468 -0.09252899 -0.11190264 -0.08244318 -0.22423203 0.0020848366 -0.16929586 -0.24566635
-0.19716765 -0.13406417 -0.15439986 -0.12725064 -0.35026217 -0.22332162 -0.14035992 -0.12028128
-0.12094946 -0.24750842 -0.13024306 -0.034195196 -0.1740221 -0.13456199 -0.07444147 -0.009696523
0.5480907 0.2837775 0.38875785 0.5475187 0.47618204 0.38178512 0.53774357 0.4000765
0.2870545 0.12713374 0.2230048 0.3313013 0.19527908 -0.091488115 0.04340105 0.110677004
-0.08194049 -0.14811899 -0.21246992 0.049869444 -0.0323379 -0.16312724 -0.16462417 -0.03901355
-0.07677235 -0.15190917 -0.27783933 -0.07794076 0.17981276 0.0799259 0.022779945 0.069380626
0.16825639 0.14825939 0.2670968 0.17622505 0.2358067 0.09189456 0.18674113 0.31295797
0.3249223 0.28674608 0.30625734 0.34267744 0.22119364 -0.021619802 0.04893625 0.23564644
0.14291707 0.027427591 0.08109155 0.057537258 0.09372127 0.14236759 0.024780061 0.18253843
-0.03680382 0.064284116 0.05964109 0.0718537 0.025190817 0.09892438 -0.030163668 0.16914214
0.15198892 0.05390345 0.13629246 0.14113729 0.04141687 0.11745688 0.22505027 0.17141591
0.63512063 0.8558818 0.67206246 0.3943363 -0.34327227 -0.19641842 -0.024952028 -0.28359815
-0.0768455 -0.16393444 -0.20698287 -0.23898141 -0.29664925 -0.28809136 -0.047992215 -0.2755047
-0.4382928 -0.083871596 -0.20420061 -0.12661564 -0.3031999 -0.028148662 -0.22748843 -0.32698235
-0.47241485 -0.054237064 -0.1819224 -0.33520707 -0.38593927 -0.15716852 -0.07474688 -0.27701703
-0.39446363 0.07990217 0.4704613 0.037048776 -1.6568317 -1.5629379 -1.6769956 -1.8307257
-0.039277025 0.07476226 0.3622881 0.15564416 0.2737671 0.21729968 0.25458142 0.38925245
0.29613227 0.15099303 0.28929374 0.22641134 0.03105716 0.45862818 0.27825466 0.22191165
0.13840772 0.29449737 0.16922323 0.10382099 0.07794223 0.0943846 0.013603194 0.009954937
-0.11855204 0.019430716 -0.011534445 -0.09063041 -0.09382416 -0.10665443 -0.24430536 -0.21727853
-0.39175117 -0.33177674 -0.17647566 -0.31081387 -0.014289169 -0.30520543 -0.23020126 -0.21074867
0.47444588 -0.24725528 -0.26667944 -0.22204942 0.9155796 -0.33775875 -0.29634762 -0.1734496
0.8512101 -0.27056438 -0.26618677 -0.22698411 0.86154443 -0.26615337 -0.23396608 -0.26241776
0.7404421 -0.33635926 -0.27823818 -0.10314511 0.24239713 -0.21736415 -0.45146793 -0.21118711
-0.42530876 -0.2786686 -0.32744431 -0.3495397 0.13693267 0.24620035 0.08006957 0.1565001
00000000: a5c2 d7be 546d f3be 0deb b9be 6605 9cbe
00000010: 9a31 a2be 0080 8bbe 651e d2be 0902 02bf
00000020: a4cf a6be 7eca 5dbd 1cfe 26be f768 09bf
00000030: a6c9 363d 0590 ad3e 7529 29be 937e babe
00000040: d659 363f ec68 3d3f 271f 8c3e 3fda d8be
00000050: f739 4a3f 9984 603f 78d0 923e 3a33 2bbf
00000060: df33 ed3e d230 013f 6aa2 723e 3922 a8be
00000070: f0e5 53be bd3f cabe 8d5e 9bbd f537 a5be
00000080: 746a 2abf 90ba e7be f9e4 46be c4c8 1bbf
00000090: f7d4 97be 5048 0bbe 32b4 e1bd d5e4 d1bd
000000a0: fd32 55bc 0e17 c13d 82ff ce3c 36f2 a33c
000000b0: eb60 97bd 8c3f d33d 411c 38bc db5f 3dbe
000000c0: 7571 81bd d77f bdbd 362d e5bd f8d7 a8bd
000000d0: 159d 65be c1a1 083b e55b 2dbe f68f 7bbe
000000e0: 51e6 49be 1e48 09be ff1a 1ebe fe4d 02be
000000f0: 9055 b3be 6cae 64be 83ba 0fbe 0856 f6bd
00000100: 5ab4 f7bd d972 7dbe 705e 05be 4310 0cbd
00000110: d932 32be 9eca 09be c574 98bd 2ade 1ebc
00000120: ac4f 0c3f 494b 913e 450b c73e 2f2a 0c3f
00000130: 22ce f33e 5779 c33e 90a9 093f d4d6 cc3e
00000140: cff8 923e 592f 023e 5f5b 643e 53a0 a93e
00000150: 3df7 473e 1f5e bbbd 4dc5 313d a0aa e23d
00000160: 6ad0 a7bd 81ac 17be b791 59be e743 4c3d
00000170: bf74 04bd d40a 27be 3d93 28be accc 1fbd
00000180: d23a 9dbd 148e 1bbe f540 8ebe 689f 9fbd
00000190: d620 383e 31b0 a33d 029d ba3c 6e17 8e3d
000001a0: 674b 2c3e 4fd1 173e e9c0 883e 5774 343e
000001b0: 5077 713e 3733 bc3d 1139 3f3e 073c a03e
000001c0: 375c a63e 62d0 923e c3cd 9c3e 6b73 af3e
000001d0: 9680 623e 031c b1bc 6171 483d 4d4d 713e
000001e0: da58 123e d4af e03c 5413 a63d 30ac 6b3d
000001f0: f0f0 bf3d cfc8 113e 8eff ca3c 5beb 3a3e
00000200: 9abf 16bd 64a7 833d 374a 743d 0828 933d
00000210: f95c ce3c de98 ca3d cc19 f7bc 9933 2d3e
00000220: fca2 1b3e ddc9 5c3d 4090 0b3e 4b86 103e
00000230: bca4 293d 3c8d f03d 9473 663e a787 2f3e
00000240: 4497 223f 121b 5b3f 490c 2c3f 73e6 c93e
00000250: 62c1 afbe e921 49be 3268 ccbc c733 91be
00000260: 2c61 9dbd 6ede 27be 51f3 53be 8bb7 74be
00000270: 69e2 97be b680 93be 7c93 44bd f40e 8dbe
00000280: ea67 e0be dfc4 abbd f719 51be 88a7 01be
00000290: 043d 9bbe 0698 e6bc baf2 68be 3b6a a7be
000002a0: 5ce0 f1be af27 5ebd de49 3abe 43a0 abbe
000002b0: d599 c5be c9f0 20be e414 99bd 2dd5 8dbe
000002c0: 23f7 c9be c0a3 a33d 4ee0 f03e 75c0 173d
000002d0: 1013 d4bf 590e c8bf cba7 d6bf 3855 eabf
000002e0: f2e0 20bd f51c 993d d37d b93e 2f61 1f3e
000002f0: 342b 8c3e cf83 5e3e 7f58 823e 194c c73e
00000300: a69e 973e eb9d 1a3e 4f1e 943e 60d8 673e
00000310: 966b fe3c 50d1 ea3e 6577 8e3e cf3c 633e
00000320: c1ba 0d3e 5cc8 963e db48 2d3e 19a0 d43d
00000330: 2da0 9f3d b74c c13d eedf 5e3c 081a 233c
00000340: 69cb f2bd 2a2d 9f3c f8fa 3cbc 709c b9bd
00000350: e226 c0bd a36d dabd 2f2b 7abe 437e 5ebe
00000360: 9c93 c8be a4de a9be 09b6 34be ff22 9fbe
00000370: 1e1d 6abc e343 9cbe e1b9 6bbe 80ce 57be
00000380: 92ea f23e 7d30 7dbe 358a 88be ec60 63be
00000390: 6d63 6a3f b7ee acbe e0ba 97be c69c 31be
000003a0: e8e8 593f 6a87 8abe a249 88be 866e 68be
000003b0: 2d8e 5c3f 4145 88be ce94 6fbe 9f5b 86be
000003c0: 9d8d 3d3f 4837 acbe 3c75 8ebe be3d d3bd
000003d0: f436 783e b594 5ebe ce26 e7be 6f41 58be
000003e0: 12c2 d9be a7ad 8ebe c8a6 a7be def6 b2be
000003f0: 1438 0c3e f21b 7c3e 84fb a33d 9041 203e

fc1.bias f4 [200]
-0.48434392 -1.1826181 -0.31199867 -0.5864126 -1.3031324 -1.2402599 -3.024787 0.64706403
-0.9523258 0.59250087 -2.2192764 -2.1747382 -2.19666 -0.4394087 -0.005704781 -1.0912141
-0.2532861 -0.8020768 -0.06780397 -0.32776108 0.23946111 0.14885952 -1.4308733 -1.6120449
0.70036715 0.0038885379 -1.5295357 -0.9255882 -0.8886206 -1.6273516 0.15480117 -0.96627337
0.28784814 -1.5939223 -1.5868268 -2.3284287 -2.1231213 -1.392248 -1.0629592 -0.20161778
-0.15140802 -2.3629267 -0.9451333 0.51145846 -0.87775445 0.08424449 -0.85450196 -1.4409324
-1.3904023 -1.3062276 -0.8993805 -2.6291745 0.086316206 -1.8088275 -1.2731853 0.7328844
0.5947164 -2.2766552 -0.7290051 -1.3953174 -2.827026 -0.6022795 -0.5653639 -1.6899164
-1.8590751 -1.0810146 0.566957 0.4380879 0.7947553 -1.6726072 -2.9602463 -1.8854223
-0.74055856 -2.7071242 -2.0875194 -0.9151942 0.41001025 0.089050196 -0.012516328 -0.8736082
-1.7934232 0.69412524 -1.8066479 -3.135306 -2.8882284 -2.3858979 -1.4630381 -1.2044073
-0.53966933 -0.5506974 -0.15215604 -0.29943246 0.043085072 1.4358879 0.02548435 -1.3019196
-0.8653836 -0.881009 -0.62389845 -1.020546 -0.9880464 -1.0569311 -0.69556874 0.034541734
0.37369078 -0.72761625 -2.2540262 -0.26017538 -0.2453488 -0.9899336 -1.3066328 -2.595713
-1.6386437 0.4801224 -1.0367719 -2.243959 -2.1304736 -2.530457 -2.7144601 -0.23410806
-2.4656613 -1.9007727 0.17262708 -1.1248997 -0.48508838 -1.7595042 -1.0634539 0.679503
-0.60289663 -0.99649304 -0.7408267 -0.80260235 0.28410172 -0.17415003 -0.6349621 0.32206497
0.05253748 -1.8541621 0.10530298 -2.7282 -0.9509136 -1.1162882 -1.2620493 0.5421229
-0.7683733 -0.9300769 -1.9377583 -1.6184095 0.29920727 -0.6937309 0.5988398 -0.464348
-2.246697 -1.7216007 -1.0848205 -0.6344022 -0.723005 -0.9368261 -0.8464134 -1.2940496
-1.7419022 -1.4590545 -1.717818 -1.1699288 -2.491831 -0.3790441 -1.636609 -1.1083184
-1.0980062 -2.5884929 0.19556062 0.36283648 -2.2541285 -1.3476855 0.5196225 -1.4020098
-1.124666 -1.8985177 -1.0601554 -2.1596384 -1.4109606 -2.1069305 -1.2541122 -0.6117677
-0.8572986 -1.9175056 0.38000342 -0.36544693 -0.9557635 -1.7802098 0.8440548 -2.4821138
-2.8048081 -2.6783333 -1.2410562 -0.6094752 -0.51667196 -2.2554054 -0.66676575 -1.8131129
00000000: edfb f7be 0860 97bf 4abe 9fbe 231f 16bf
00000010: 0bcd a6bf d6c0 9ebf 1c96 41c0 fda5 253f
00000020: a0cb 73bf 23ae 173f a008 0ec0 e92e 0bc0
00000030: 1496 0cc0 2dfa e0be 2cef babb e7ac 8bbf
00000040: b7ae 81be e854 4dbf cfdc 8abd 4dd0 a7be
00000050: 4b35 753e a16e 183e db26 b7bf 7d57 cebf
00000060: 434b 333f d7d6 7e3b d3c7 c3bf 59f3 6cbf
00000070: a47c 63bf 0f4d d0bf 3384 1e3e b15d 77bf
00000080: d560 933e a505 ccbf 241d cbbf fa04 15c0
00000090: 38e1 07c0 2f35 b2bf 0c0f 88bf e474 4ebe
000000a0: b40a 1bbe 313a 17c0 42f4 71bf f1ee 023f
000000b0: 84b4 60bf 6088 ac3d a4c0 5abf 7970 b8bf
000000c0: b4f8 b1bf 7732 a7bf cd3d 66bf 6544 28c0
000000d0: 8dc6 b03d a987 e7bf bcf7 a2bf 509e 3b3f
000000e0: 563f 183f b8b4 11c0 14a0 3abf c399 b2bf
000000f0: feed 34c0 fd2e 1abf b0bb 10bf 2e4f d8bf
00000100: 2cf6 edbf b05e 8abf 1824 113f 0f4d e03e
00000110: 1575 4b3f fe17 d6bf ad74 3dc0 8555 f1bf
00000120: 3f95 3dbf 8641 2dc0 eb99 05c0 2b4a 6abf
00000130: ddec d13e f35f b63d 4911 4dbc c9a4 5fbf
00000140: e48e e5bf 31b2 313f 3d40 e7bf daa8 48c0
00000150: bcd8 38c0 8db2 18c0 d544 bbbf 052a 9abf
00000160: c527 0abf 81fa 0cbf cbce 1bbe 364f 99be
00000170: f979 303d 2dcb b73f 8ec4 d03c 4da5 a6bf
00000180: c889 5dbf ce89 61bf cfb7 1fbf 40a1 82bf
00000190: 9cf0 7cbf 8549 87bf cb10 32bf a27b 0d3d
000001a0: 6654 bf3e 0f45 3abf f741 10c0 b535 85be
000001b0: b73c 7bbe 4a6c 7dbf be3f a7bf 2920 26c0
000001c0: 14bf d1bf 9ad2 f53e f1b4 84bf 069d 0fc0
000001d0: ae59 08c0 02f3 21c0 b7b9 2dc0 06ba 6fbe
000001e0: 65cd 1dc0 854c f3bf 27c5 303e b7fc 8fbf
000001f0: 815d f8be 6f37 e1bf 421f 88bf e9f3 2d3f
00000200: 6f57 1abf 2b1a 7fbf d2a6 3dbf 5977 4dbf
00000210: c875 913e 6354 32be e08c 22bf b3e5 a43e
00000220: 8a31 573d 2f55 edbf 17a9 d73d d49a 2ec0
00000230: 136f 73bf 88e2 8ebf d58a a1bf 91c8 0a3f
00000240: 1db4 44bf 8519 6ebf 7708 f8bf 0b28 cfbf
00000250: b231 993e 5998 31bf 914d 193f 05bf edbe
00000260: e2c9 0fc0 695d dcbf 66db 8abf 2f68 22bf
00000270: db16 39bf d6d3 6fbf 8cae 58bf 6ba3 a5bf
00000280: a7f6 debf 4cc2 babf 76e1 dbbf 3ac0 95bf
00000290: 297a 1fc0 1112 c2be 677c d1bf 61dd 8dbf
000002a0: 788b 8cbf dea9 25c0 0b41 483e b4c5 b93e
000002b0: a443 10c0 f580 acbf fb05 053f 0f75 b3bf
000002c0: 0ef5 8fbf a102 f3bf 2cb3 87bf 8437 0ac0
000002d0: 5b9a b4bf f3d7 06c0 c086 a0bf cf9c 1cbf
000002e0: ec77 5bbf d370 f5bf cf8f c23e dc1b bbbe
000002f0: ebac 74bf eadd e3bf fa13 583f f4da 1ec0
00000300: fa81 33c0 d069 2bc0 eeda 9ebf 9106 1cbf
00000310: 9d44 04bf 9058 10c0 29b1 2abf 1514 e8bf

fc2.weight f4 [200, 200]
-0.27774364 0.1495897 0.08954861 0.3618895 -0.15515472 0.059976555 -0.15103754 0.044705465
-0.23411761 -0.19947173 -0.43831876 0.083227344 -0.10808222 -0.05589606 0.002213646 -0.26199692
-0.08068942 -0.111734696 0.025014523 -0.14459868 0.019887894 0.35561618 0.26147166 -0.50878966
0.052852158 0.26473388 -0.020916536 0.21807942 0.01783123 -0.045692474 0.16828416 -0.05128765
0.07629901 0.22127518 -0.49730274 -0.12906411 -0.30878085 0.074026495 -0.17089124 0.1647712
-0.09564482 0.0072862767 -0.047695916 0.17257221 -0.083277114 -0.260697 0.07268176 -0.20738514
-0.3425821 -0.03667625 -0.1915165 -0.27661878 -0.15299286 -0.18349981 -0.074400775 -0.21517149
0.16722639 -0.31260112 -0.08939277 -0.23606116 -0.132572 0.2516431 0.046714623 0.009150128
-0.019338096 0.069621034 -0.006854133 -0.07616912 0.01120369 -0.25362337 -0.5681634 -0.33272764
-0.055831853 -0.3223384 -0.058477983 -0.1855197 0.14474036 0.025958888 -0.27418122 0.07421099
-0.32136932 0.11812579 -0.34401464 -0.30785337 -0.29641375 -0.43741244 0.08460033 0.08012086
-0.11329084 -0.01654278 0.015325203 -0.10167347 0.22130597 0.046747822 -0.2545375 -0.1491527
-0.019251857 -0.21251677 -0.031068662 0.25674683 -0.10249875 -0.157011 -0.019019386 0.04168455
0.1523644 0.04506226 0.009841044 -0.0938759 0.20353253 -0.34926763 0.14897542 -0.31053945
-0.00048002877 0.17304505 0.13843721 -0.014385578 -0.17642924 -0.26419306 -0.34545663 0.252653
-0.13432926 -0.22872218 0.28963962 -0.11671372 -0.14956366 -0.3724667 0.0020137376 0.037218757
-0.10381403 -0.05381891 -0.053822976 0.21585591 0.049655166 -0.54910433 -0.59786767 -0.21524903
-0.026707454 -0.066086896 -0.06347942 0.61501235 -0.24064821 0.10103929 0.11334072 0.06410757
0.14481549 -0.37065104 -0.08101855 -0.021352047 -0.03747225 -0.089043975 -0.23037767 -0.4440163
0.042804033 -0.12587336 0.060584627 0.029501392 -0.39934078 0.0049358993 -0.34564576 0.14332426
0.4617861 -0.10463773 -0.20717457 -0.28278288 -0.57443595 0.04745545 -0.28416932 0.24342816
-0.19432552 -0.2084031 -0.07657584 -0.2758292 0.7211823 -0.09534129 -0.051345598 0.3874689
0.04663081 -0.023935763 0.047532495 -0.5972701 -0.0045388504 -0.11823919 0.10406219 0.00312238
0.15548891 -0.068323776 -0.2969833 0.06914276 0.14135857 0.09290453 -0.17031601 -0.25443694
-0.3503928 -0.35653222 0.20369005 0.031565756 0.14744563 -0.17539112 -0.28648004 0.4010237
-0.64256644 -0.09953908 0.098344475 0.19754979 0.17436346 -0.51294583 -0.82863075 0.013808265
0.2700217 -0.065885924 -0.585353 -0.28884664 -0.1428382 0.05188023 -0.23225242 -0.3502646
0.05398323 0.07038685 -0.062254813 0.19944897 -0.08082338 -0.23889871 0.023504557 -0.2691962
0.12901485 -0.17806001 -0.030293696 -0.47703186 0.07239949 0.02140872 -0.028297342 -0.08745327
-0.0992664 0.121699475 0.011961997 -0.43440685 0.18424346 -0.5733997 -0.2346453 -0.13209154
0.050036825 0.17288435 -0.15717773 0.038382933 -0.10460684 -0.13871017 -0.28843263 -0.81868625
-0.11969707 0.013238914 -0.28124112 0.11310713 -0.120076366 -0.16125613 0.06339916 0.1677353
00000000: 6a34 8ebe 0b2e 193e 4365 b73d 9549 b93e
00000010: e1e0 1ebe faa9 753d 96a9 1abe 141d 373d
00000020: 87bc 6fbe 5142 4cbe 516b e0be 1973 aa3d
00000030: 365a ddbd 44f3 64bd d112 113b 7624 86be
00000040: 7f40 a5bd 29d5 e4bd 42eb cc3c ad11 14be
00000050: f0eb a23c 5313 b63e 9ddf 853e 0a40 02bf
00000060: 817b 583d 338b 873e 2859 abbc 3650 5f3e
00000070: cd12 923c 0828 3bbd af52 2c3e 0013 52bd
00000080: a842 9c3d f695 623e 779e febe 6229 04be
00000090: 8618 9ebe 349b 973d 1dfe 2ebe c8b9 283e
000000a0: 6ee1 c3bd b8c1 ee3b cb5c 43bd c5b6 303e
000000b0: 318d aabd 147a 85be 2dda 943d c55c 54be
000000c0: ec66 afbe d639 16bd e71c 44be faa0 8dbe
000000d0: 29aa 1cbe 60e7 3bbe 6f5f 98bd ea55 5cbe
000000e0: 653d 2b3e 410d a0be 8e13 b7bd 04ba 71be
000000f0: f4c0 07be 5dd7 803e d557 3f3d 6bea 153c
00000100: ed6a 9ebc 7995 8e3d a398 e0bb 8efe 9bbd
00000110: af8f 373c ecda 81be 2873 11bf 475b aabe
00000120: f1af 64bd 8a09 a5be 9c86 6fbd e0f8 3dbe
00000130: d136 143e bca7 d43c 7b61 8cbe eefb 973d
00000140: 858a a4be efeb f13d b022 b0be f59e 9dbe
00000150: 8bc3 97be 86f4 dfbe f042 ad3d 6816 a43d
00000160: 0705 e8bd b984 87bc 8f16 7b3c 2e3a d0bd
00000170: 089e 623e a57a 3f3d bd52 82be 7cbb 18be
00000180: 12b6 9dbc ff9d 59be b583 febc 5274 833e
00000190: ddea d1bd 7ec7 20be 8bce 9bbc 6bbd 2a3d
000001a0: 6a05 1c3e 3493 383d 553c 213c 0242 c0bd
000001b0: d56a 503e 35d3 b2be 038d 183e 07ff 9ebe
000001c0: 5fac fbb9 b932 313e 7cc2 0d3e 7db1 6bbc
000001d0: dea9 34be 5044 87be b1df b0be bc5b 813e
000001e0: 9c8d 09be 2636 6abe a54b 943e 9a07 efbd
000001f0: 3727 19be f5b3 bebe e9f8 033b b272 183d
00000200: 739c d4bd 3871 5cbd 7b75 5cbd 5509 5d3e
00000210: 3763 4b3d 1a92 0cbf db0d 19bf 3e6a 5cbe
00000220: 97c9 dabc 9158 87bd 8001 82bd 7371 1d3f
00000230: 7c6c 76be b0ed ce3d 2e1f e83d d44a 833d
00000240: 834a 143e f9c5 bdbe 0eed a5bd 7dea aebc
00000250: 817c 19bd b05c b6bd 20e8 6bbe 1b56 e3be
00000260: 4853 2f3d f2e4 00be 9627 783d e7ac f13c
00000270: 6576 ccbe 53bd a13b 7bf8 b0be 98c3 123e
00000280: 3a6f ec3e 4e4c d6bd 9225 54be ebc8 90be
00000290: 3c0e 13bf a560 423d a47e 91be 3b45 793e
000002a0: 45fd 46be 9f67 55be cbd3 9cbd 7c39 8dbe
000002b0: 679f 383f 4b42 c3bd c34f 52bd 5362 c63e
000002c0: f3ff 3e3d ef14 c4bc 6fb1 423d b1e6 18bf
000002d0: a3ba 94bb 6327 f2bd 8f1e d53d d8a0 4c3b
000002e0: 7c38 1f3e 56ed 8bbd 320e 98be b89a 8d3d
000002f0: 4dc0 103e bb44 be3d 5267 2ebe 8f45 82be
00000300: af66 b3be 648b b6be 2094 503e 184b 013d
00000310: fdfb 163e bb99 33be 83ad 92be fa52 cd3e
00000320: 3c7f 24bf 25db cbbd d468 c93d 7e4a 4a3e
00000330: 568c 323e 6b50 03bf 2521 54bf 103c 623c
00000340: 4940 8a3e 33ef 86bd b2d9 15bf b5e3 93be
00000350: 2d44 12be 5d80 543d 94d3 6dbe e255 b3be
00000360: 851d 5d3d fb26 903d e7fe 7ebd 5a3c 4c3e
00000370: ba86 a5bd dda1 74be a18c c03c 16d4 89be
00000380: 781c 043e 5d55 36be 7c2a f8bc 853d f4be
00000390: 2f46 943d 5761 af3c d4cf e7bc b31a b3bd
000003a0: 2f4c cbbd 933d f93d 40fc 433c 936a debe
000003b0: 51aa 3c3e 53ca 12bf dc46 70be 0143 07be
000003c0: 6af3 4c3d 9808 313e 33f3 20be 6c37 1d3d
000003d0: 1c3c d6bd 0a0a 0ebe 71ad 93be 6c95 51bf
000003e0: bd23 f5bd 08e8 583c d6fe 8fbe b6a4 e73d
000003f0: 99ea f5bd 5420 25be 6bd7 813d cdc2 2b3e

fc2.bias f4 [200]
-0.20610671 0.4975286 -0.8933195 0.30502045 0.75722075 0.4075958 0.30430683 -0.12648432
-0.59999627 0.62528914 -0.44268438 -0.03619065 -0.17791684 0.0404596 0.06218958 -0.056669887
0.03885354 -0.38869625 -0.33498508 0.23236573 -0.16341795 -1.1644667 -0.3018774 -0.10950909
-0.3609809 -0.2525472 -0.13019241 -0.13020557 0.2959701 -0.11612372 0.39007092 0.5804352
-0.3266542 0.26474464 -0.39952293 -0.567219 -0.29097676 0.38758692 -0.21148904 -1.6726328
-0.913662 -0.37028027 -0.16345227 0.07479602 -0.2782403 0.1291283 -0.8394384 0.22058107
-0.28723562 -0.02908287 0.12409192 -0.23940663 -0.35819998 -0.39078155 0.25327104 -0.94743884
-0.41195792 -1.207575 -0.7237866 -0.12814806 -0.0035378109 0.21487091 -0.7390622 -0.021399923
-0.16444223 -0.044653825 -0.69637454 -0.026583739 0.0005698086 -2.1673954 0.03319409 -1.0072314
-0.0815086 0.07396435 -0.053543344 -0.04133227 0.9799166 -0.2192604 -0.8628767 0.12398704
0.04068292 0.22234727 -0.4995009 0.019868067 -0.09650465 -0.33363265 -0.046684425 -0.21779013
-0.32549888 -0.12090529 -2.463177 0.39058745 -0.43100634 0.18818301 -0.4022423 -0.43198287
-0.7862566 -0.18562044 -0.2773964 0.104549445 -0.4215787 -0.6120764 -0.2949993 0.18021913
-0.21591222 -0.047890063 -0.19862942 0.06801382 1.0926934 0.015892027 0.048584796 -0.1390605
0.14235091 0.06771611 -0.28769723 -0.847218 0.1979782 0.19738528 -0.014828349 -0.05909271
-0.070905 -0.053218346 -0.08616951 -0.04894027 -0.06450657 0.17468624 -3.0780776 0.47967124
0.014982673 0.19448659 0.08479264 -0.29303035 -0.064004906 0.15803316 0.1762644 0.0015373693
0.47552603 0.07094033 -1.447516 -1.5706494 -0.07392741 -1.8105606 0.21601015 -0.14540148
0.29535624 0.101607464 0.16414456 -0.26036933 -0.0514853 0.0023010955 -0.050172653 0.10439923
-0.19224465 -0.18529205 0.09632176 -0.2623205 0.010373074 0.1951196 0.27854267 0.16738349
-0.39444494 -0.5349418 -0.5394211 -0.4204622 -0.42211744 0.22859968 0.48408437 -2.1464806
-0.38579327 -0.15764879 0.2465231 -0.7591812 0.06934715 -0.08691934 -0.34705016 0.04921949
0.042783957 -0.35976395 -1.2910955 0.060799263 -0.11024934 0.18473019 0.31228286 0.24577592
0.25983566 -0.031216297 -0.04169875 -0.0037222207 0.04698017 -0.10577497 -0.38443604 -0.2835312
-0.11459922 -0.35759678 0.42388445 -0.79382 -0.03706424 -0.1529602 -0.27541706 0.25182158
00000000: a30d 53be 12bc fe3e 96b0 64bf a42b 9c3e
00000010: 38d9 413f 66b0 d03e 1bce 9b3e 1b85 01be
00000020: 5b99 19bf f312 203f 87a7 e2be a63c 14bd
00000030: d52f 36be f7b8 253d 80ba 7e3d af1e 68bd
00000040: e424 1f3d 3203 c7be 2a83 abbe 48f1 6d3e
00000050: 0957 27be 3f0d 95bf ad8f 9abe 4d46 e0bd
00000060: 7dd2 b8be de4d 81be 2951 05be 9c54 05be
00000070: 6589 973e 46d2 edbd 60b7 c73e 6797 143f
00000080: 383f a7be 9c8c 873e 458e ccbe 4435 11bf
00000090: e8fa 94be cb71 c63e 9590 58be d518 d6bf
000000a0: c1e5 69bf 6095 bdbe 0860 27be a82e 993d
000000b0: 8375 8ebe 363a 043e 6fe5 56bf 01e0 613e
000000c0: 8c10 93be 333f eebc e823 fe3d 0327 75be
000000d0: fd65 b7be 8514 c8be beac 813e 5a8b 72bf
000000e0: 26ec d2be d191 9abf 144a 39bf 3f39 03be
000000f0: 9eda 67bb 1f07 5c3e 2e33 3dbf e44e afbc
00000100: 8b63 28be eee6 36bd 9a45 32bf 24c6 d9bc
00000110: 355f 153a 9bb6 0ac0 87f6 073d f5ec 80bf
00000120: fbed a6bd 9f7a 973d 4450 5bbd 074c 29bd
00000130: d0db 7a3f cc85 60be 7de5 5cbf ebec fd3d
00000140: 22a3 263d 01af 633e 95be ffbe 5bc2 a23c
00000150: 3ba4 c5bd e6d1 aabe 2b38 3fbd 6004 5fbe
00000160: caa7 a6be 319d f7bd b1a4 1dc0 14fb c73e
00000170: ddac dcbe 0cb3 403e b4f2 cdbe dc2c ddbe
00000180: 1d48 49bf 4913 3ebe e706 8ebe 051e d63d
00000190: 2ad9 d7be 0ab1 1cbf 260a 97be 5d8b 383e
000001a0: 1818 5dbe 5f28 44bd 8365 4bbe d44a 8b3d
000001b0: 61dd 8b3f ff2f 823c da00 473d e065 0ebe
000001c0: 70c4 113e beae 8a3d 0d4d 93be 47e3 58bf
000001d0: ccba 4a3e 5e1f 4a3e 9bf2 72bc 330b 72bd
000001e0: a436 91bd 7bfb 59bd a479 b0bd 9875 48bd
000001f0: 051c 84bd f3e0 323e 39ff 44c0 7897 f53e
00000200: e379 753c 7e27 473e c3a7 ad3d 1308 96be
00000210: 0115 83bd 72d3 213e a87e 343e 8e81 c93a
00000220: 2678 f33e 2a49 913d 3448 b9bf 0a0b c9bf
00000230: 4167 97bd 73c0 e7bf c431 5d3e 20e4 14be
00000240: ef38 973e 9317 d03d 8315 283e 214f 85be
00000250: 40e2 52bd facd 163b d781 4dbd 43cf d53d
00000260: c8db 44be 33bd 3dbe 5844 c53d df4e 86be
00000270: d3f3 293c 6fcd 473e 259d 8e3e 9466 2b3e
00000280: b0f4 c9be f2f1 08bf 8017 0abf d246 d7be
00000290: c71f d8be 0916 6a3e e8d9 f73e f05f 09c0
000002a0: b286 c5be af6e 21be 8d70 7c3e b359 42bf
000002b0: e105 8e3d c402 b2bd 8fb0 b1be 609a 493d
000002c0: 3b3e 2f3d fb32 b8be 9e42 a5bf a608 793d
000002d0: 68ca e1bd e929 3d3e 8ae3 9f3e afac 7b3e
000002e0: 2e09 853e 52b9 ffbc 4fcc 2abd 80f0 73bb
000002f0: 476e 403d 8ca0 d8bd cdd4 c4be 002b 91be
00000300: ffb2 eabd ed16 b7be 6207 d93e ca37 4bbf
00000310: acd0 17bd 99a1 1cbe 7703 8dbe c2ee 803e

fc3.weight f4 [200, 200]
-0.32063738 -0.0022212435 -0.16680272 0.041973565 -0.084702015 0.12098562 -0.42978582 0.03239209
-0.07625606 0.01504206 0.17241743 0.057925817 0.09879139 -0.3131601 -0.33280915 -0.30963686
-0.05876232 -0.09273104 0.0116955945 0.1222968 0.114818245 0.11752495 0.024173586 -0.121861786
-0.09716397 0.018928722 0.03456215 0.12199165 -0.071097545 -0.15061803 -0.40282148 0.05008973
-0.0444913 -0.19429125 0.014891617 -0.19028716 -0.008411659 0.13350795 -0.16002817 -0.3524879
-0.29375058 0.046454173 0.10294628 0.24675196 0.047660794 0.0021855645 0.05799484 -0.19347349
0.025808714 -0.3822034 0.054971408 0.051686745 -0.0680278 -0.022884188 0.06329201 -0.14491493
0.04239866 -0.02032556 0.17700915 0.10878628 -0.026686179 -0.32178244 -1.1932987 -0.09894175
0.087825045 0.12678291 0.19285631 0.03322078 -0.13387845 -0.097652934 0.060975313 0.10527011
-0.2013967 0.039451998 0.11765123 -0.052215733 -0.34605324 -0.27014637 -0.14686956 -0.18720901
0.04702217 -0.3857596 -0.09701271 -0.02130272 -0.19768411 0.05217256 -0.042333994 -0.04443287
0.063068375 0.3119063 0.24018113 0.020588726 0.04097509 -0.31563568 0.08349756 -0.014118997
-0.009390679 -0.38745373 0.070404075 -0.07600194 -0.50428206 -0.08731667 0.0582833 0.20587349
-0.09892069 -0.14332166 0.0450667 0.044807475 -0.0001897709 -0.32958448 0.0063441726 -0.12123178
0.02814488 -0.07054461 -0.0084096305 -0.06711332 0.11770331 -0.028454859 0.006662331 0.099965796
-0.40026784 -0.017190136 -0.12101365 0.15920845 0.050904796 0.32779452 -0.08241841 -0.07392111
0.11940544 0.042845163 0.22383395 0.08886236 0.08365085 -0.25286266 0.03755869 -0.0069177747
0.005095543 -0.10036617 -0.16612417 -0.055766534 0.016397843 -0.023955405 0.16562666 -0.071947016
-0.27131665 -0.13361095 -0.18130746 -0.026283905 -0.060530417 -0.06594932 0.041881036 -0.19035095
0.0064340318 -0.1998119 -0.015193934 -0.29675844 -0.16349913 -0.3944246 0.07050658 -0.05028319
0.07654943 0.035526525 -0.13991854 0.34214857 -0.059808757 -0.0054688775 0.21298884 0.11196168
0.35089234 0.21303537 -0.59798944 0.018218383 -0.05268038 -0.71023613 -0.027330589 -0.032541238
-0.1292902 0.010802134 0.046607547 -0.03337633 0.018205639 -0.3796379 0.13776116 0.005568847
0.040699877 -0.0061839693 0.06686014 -0.13134278 -0.009606398 -0.00018057256 0.04640366 0.08268467
-0.24125542 -0.08212518 -0.36596635 -0.29414883 -0.2644607 0.041070394 -0.047615085 -0.022021145
-0.1242891 0.22799444 -0.1232377 -0.06769299 0.13524234 -0.22445413 0.057120997 -0.045340445
0.25055948 -0.16414514 0.0052001397 -0.090617515 0.15927838 -0.82199025 -0.15302706 -0.6436184
-0.10220417 -0.04460232 -0.015587603 0.09117547 0.033127367 0.12810418 0.0078874575 0.09647507
-0.17698243 0.04481725 -0.07343086 0.07726156 0.35651487 -0.15859723 0.10039239 -0.21377498
-0.10746249 -0.31218508 -0.16786884 -0.38584796 -0.002943265 -0.08187988 0.14004207 -0.25225654
-0.066605814 -0.07793158 0.11547106 -0.16755605 0.23165658 -0.6623276 -0.22716947 -0.05275818
-0.13563254 -0.17550595 -0.14685003 -0.0496009 0.06568625 -0.33603096 0.30536598 0.11420627
00000000: 952a a4be 4892 11bb 55ce 2abe 79ec 2b3d
00000010: 4078 adbd 4fc7 f73d e30c dcbe 91ad 043d
00000020: 232c 9cbd f972 763c 328e 303e 9f43 6d3d
00000030: 2453 ca3d 8556 a0be f665 aabe b988 9ebe
00000040: c2b0 70bd c6e9 bdbd e19e 3f3c bf76 fa3d
00000050: d425 eb3d ecb0 f03d af07 c63c ac92 f9bd
00000060: e7fd c6bd 6810 9b3c 0a91 0d3d c2d6 f93d
00000070: 979b 91bd 9d3b 1abe 9e3e cebe e42a 4d3d
00000080: 823c 36bd 49f4 46be f8fb 733c a3da 42be
00000090: 0ed1 09bc 4fb6 083e 6dde 23be 4b79 b4be
000000a0: 7a66 96be bb46 3e3d 80d5 d23d 8cac 7c3e
000000b0: f737 433d b03b 0f3b ff8b 6d3d ea1d 46be
000000c0: cc6c d33c 2ab0 c3be b329 613d 7bb5 533d
000000d0: 2952 8bbd 9f77 bbbc 3e9f 813d 9464 14be
000000e0: 38aa 2d3d ca81 a6bc e341 353e 57cb de3d
000000f0: f99c dabc abc0 a4be 03be 98bf f9a1 cabd
00000100: 9edd b33d 61d3 013e 207c 453e 8312 083d
00000110: 6f17 09be 43fe c7bd 40c1 793d db97 d73d
00000120: f03a 4ebe 6b98 213d 21f3 f03d 2ae0 55bd
00000130: e42d b1be a050 8abe f964 16be b8b3 3fbe
00000140: 529a 403d 4882 c5be 9aae c6bd 0b83 aebc
00000150: b46d 4abe e5b2 553d 6966 2dbd 3eff 35bd
00000160: fe29 813d 2fb2 9f3e 0bf2 753e b0a9 a83c
00000170: 7fd5 273d 009b a1be c500 ab3d 5e53 67bc
00000180: 5ddb 19bc 5660 c6be 0330 903d e8a6 9bbd
00000190: a118 01bf 15d3 b2bd 78ba 6e3d 80d0 523e
000001a0: ee96 cabd eac2 12be dc97 383d 0b88 373d
000001b0: 3dfd 46b9 4cbf a8be c7e2 cf3b 5e48 f8bd
000001c0: 1790 e63c b179 90bd 8cc8 09bc b572 89bd
000001d0: 6f0e f13d 2a1a e9bc af4f da3b deba cc3d
000001e0: e8ef ccbe 54d2 8cbc 01d6 f7bd 8a07 233e
000001f0: 8c81 503d afd4 a73e fcca a8bd f363 97bd
00000200: d78a f43d 697e 2f3d ba34 653e 78fd b53d
00000210: 2351 ab3d 3777 81be 24d7 193d 80ae e2bb
00000220: 83f8 a63b c78c cdbd 741c 2abe 736b 64bd
00000230: c554 863c 203e c4bc 099a 293e f558 93bd
00000240: 04ea 8abe 4fd1 08be aaa8 39be 5851 d7bc
00000250: beee 77bd 7010 87bd 738b 2b3d 5ceb 42be
00000260: 92d4 d23b 7e9b 4cbe faef 78bc b9f0 97be
00000270: 516c 27be 05f2 c9be c165 903d bff5 4dbd
00000280: f3c5 9c3d 4384 113d ce46 0fbe 192e af3e
00000290: 07fa 74bd 4534 b3bb bf19 5a3e 2a4c e53d
000002a0: 29a8 b33e f225 5a3e d615 19bf b83e 953c
000002b0: 62c7 57bd 09d2 35bf 66e4 dfbc f649 05bd
000002c0: a664 04be 6ffb 303c 8ee7 3e3d 9eb5 08bd
000002d0: fe23 953c e65f c2be 4311 0d3e e07a b63b
000002e0: eab4 263d e5a2 cabb f8ed 883d b97e 06be
000002f0: 2764 1dbc 1458 3db9 c411 3e3d 9556 a93d
00000300: a90b 77be 3f31 a8bd f15f bbbe ad9a 96be
00000310: 6567 87be 6e39 283d 0908 43bd b065 b4bc
00000320: 498b febd 6077 693e 0c64 fcbd 9fa2 8abd
00000330: f87c 0a3e 4ed7 65be b5f7 693d e7b6 39bd
00000340: 5549 803e aa15 28be ef65 aa3b ad95 b9bd
00000350: df19 233e f46d 52bf 20b3 1cbe 2dc4 24bf
00000360: 6b50 d1bd ecb0 36bd 2563 7fbc 34ba ba3d
00000370: 90b0 073d be2d 033e 653a 013c b994 c53d
00000380: e23a 35be 4b92 373d eb62 96bd 4f3b 9e3d
00000390: 1e89 b63e 5067 22be 869a cd3d d4e7 5abe
000003a0: 4b15 dcbd b9d6 9fbe cfe5 2bbe dd8d c5be
000003b0: cbe3 40bb a3b0 a7bd 3067 0f3e c527 81be
000003c0: a168 88bd 989a 9fbd 177c ec3d d093 2bbe
000003d0: 6237 6d3e 4d8e 29bf 1d9f 68be f618 58bd
000003e0: 42e3 0abe d5b7 33be db5f 16be 502a 4bbd
000003f0: 8386 863d 400c acbe ee58 9c3e fae4 e93d

fc3.bias f4 [200]
0.7042875 0.60940915 0.4821094 0.20758457 0.28348175 0.22543955 0.13143307 0.5952709
0.28250307 0.4930957 0.522797 0.07488848 0.12978153 0.4562297 -0.78455806 -0.5544787
-0.11872175 -0.007132834 -0.50690037 -1.5934613 0.66190934 0.15037505 0.56212795 -0.81174874
-3.190683 0.04728906 -0.2732115 0.24390739 -2.2995107 0.35327703 0.25844863 -1.0291135
0.8419967 0.004414352 -0.025624145 0.10544794 -2.7674515 -0.5954648 -0.7176646 0.10203065
0.19755027 0.4230569 0.68730813 0.23018049 0.37916997 0.044478364 0.00051116507 -2.2986522
0.68153363 0.33361673 -0.026272958 0.13601296 0.21704417 0.4503272 0.5261125 0.23787901
0.70371777 0.37493014 -1.5008215 0.28673014 0.6744921 0.5703265 0.54139984 0.57238
0.449 0.6213012 -3.1771357 -0.100324415 0.22903046 0.1172383 0.4639772 0.1774653
-2.1802735 0.15469591 -0.8303694 -0.26165238 -0.3160933 0.3974063 0.31142655 0.33233187
0.13313375 -2.7602835 0.1633368 0.15970702 0.0441625 0.37603965 0.2568624 -1.72484
0.37288603 -0.45683527 0.15814869 -0.06904637 0.2239664 0.2109712 0.27849635 0.22715698
0.5516213 0.21383637 -1.1050012 0.47335285 -0.42426875 0.29342338 0.42446008 0.6264833
0.37283292 0.23436764 0.6718889 0.14391385 0.07541897 -0.009171729 0.11017772 -1.4311777
-3.1981108 0.37210482 0.24167977 -0.25043717 -0.02410641 0.13653624 0.31592906 0.12040365
0.068263665 -0.096164025 0.3087161 -0.12481931 0.37208295 0.39994308 -3.5089042 0.1475065
-0.047525827 0.38766208 0.68509996 -1.4624095 -0.57423526 0.2572023 0.7491318 0.14182642
-1.1081778 -0.9454538 0.054265015 0.15006311 -0.09957407 0.13535444 -0.50722307 0.3686515
-0.19642119 0.13083 0.34882724 0.3570682 0.5050657 0.287251 0.3257604 -0.8920029
0.5832701 0.3838487 0.070918754 -0.06183625 0.4896444 0.0534501 0.28344676 0.38787827
-0.39154485 0.35615212 -2.7968855 -0.15794776 -0.60053855 0.6229686 0.3283694 -0.21969578
0.5677712 0.21299456 -0.096201956 0.18563856 0.27199396 0.14308472 0.2073831 0.23857148
0.22451162 0.24064179 -1.9749153 0.53022015 0.38107547 0.8128049 0.33097667 0.18167041
-0.57447636 0.4431657 0.46523273 -0.39877692 0.477318 0.08378424 -2.338164 -0.11466693
0.15602036 0.24508452 0.5492198 -0.04641217 0.53437674 0.40813574 0.16020924 -0.4442292
00000000: 304c 343f 3d02 1c3f 0bd7 f63e 0d91 543e
00000010: 8524 913e a0d9 663e 6496 063e ac63 183f
00000020: 3ea4 903e 0a77 fc3e 06d6 053f 225f 993d
00000030: 73e5 043e f096 e93e ccd8 48bf 51f2 0dbf
00000040: 6424 f3bd 8cba e9bb 39c4 01bf 8af6 cbbf
00000050: e472 293f ebfb 193e 9ee7 0f3f c4ce 4fbf
00000060: 2634 4cc0 2cb2 413d 61e2 8bbe dcc2 793e
00000070: 2f2b 13c0 bae0 b43e 6153 843e feb9 83bf
00000080: 198d 573f 45a6 903b bae9 d1bc 17f5 d73d
00000090: ed1d 31c0 6270 18bf deb8 37bf 72f5 d03d
000000a0: 9e4a 4a3e ea9a d83e 6df3 2f3f 6fb4 6b3e
000000b0: 9122 c23e f22e 363d b5ff 053a 1e1d 13c0
000000c0: fd78 2e3f d0cf aa3e 633a d7bc fb46 0b3e
000000d0: d440 5e3e 4991 e63e 4faf 063f 8e96 733e
000000e0: d926 343f d8f6 bf3e eb1a c0bf 4bce 923e
000000f0: 84ab 2c3f eb00 123f 2e99 0a3f 7f87 123f
00000100: 54e3 e53e 980d 1f3f 3156 4bc0 e376 cdbd
00000110: f686 6a3e a21a f03d 6b8e ed3e 77b9 353e
00000120: 9a89 0bc0 9b68 1e3e 1793 54bf 4df7 85be
00000130: fbd6 a1be d778 cb3e 4d73 9f3e 6727 aa3e
00000140: 3754 083e 7ca8 30c0 c341 273e 3d8a 233e
00000150: bde3 343d 4588 c03e 7883 833e 8fc7 dcbf
00000160: ebea be3e 50e6 e9be bbf1 213e 2f68 8dbd
00000170: 7357 653e d608 583e 1397 8e3e d79b 683e
00000180: 0e37 0d3f ecf7 5a3e ae70 8dbf 4e5b f23e
00000190: c139 d9be 973b 963e d552 d93e 3661 203f
000001a0: f5e3 be3e 12fe 6f3e e900 2c3f 275e 133e
000001b0: 4375 9a3d 0545 16bc dba4 e13d d530 b7bf
000001c0: d9ad 4cc0 8684 be3e e77a 773e 4d39 80be
000001d0: ce7a c5bc 28d0 0b3e 74c1 a13e 3096 f63d
000001e0: d2cd 8b3d a5f1 c4bd 0910 9e3e 44a1 ffbd
000001f0: a881 be3e 57c5 cc3e e391 60c0 f20b 173e
00000200: 71aa 42bd a57b c63e b662 2f3f 3c30 bbbf
00000210: 1501 13bf 05b0 833e 1ac7 3f3f f23a 113e
00000220: c5d8 8dbf 4309 72bf fe44 5e3d 25aa 193e
00000230: 7ded cbbd 5b9a 0a3e 5fd9 01bf e4bf bc3e
00000240: a322 49be 4df8 053e 7c99 b23e a5d1 b63e
00000250: fc4b 013f 9012 933e 11ca a63e 4d5a 64bf
00000260: 3051 153f d187 c43e da3d 913d 0248 7dbd
00000270: acb2 fa3e 7eee 5a3d ef1f 913e fb97 c63e
00000280: 9178 c8be 9259 b63e 2c00 33c0 0fbd 21be
00000290: e5bc 19bf df7a 1f3f 0920 a83e eef7 60be
000002a0: 7459 113f 3f1b 5a3e 8805 c5bd 0918 3e3e
000002b0: cb42 8b3e cd84 123e 3c5c 543e 154c 743e
000002c0: 60e6 653e cd6a 763e 06ca fcbf 82bc 073f
000002d0: 531c c33e fb13 503f c675 a93e cf07 3a3e
000002e0: e210 13bf 9de6 e23e fc32 ee3e 7d2c ccbe
000002f0: 0663 f43e 1297 ab3d 7ba4 15c0 7fd6 eabd
00000300: cdc3 1f3e 70f7 7a3e ab99 0c3f b01a 3ebd
00000310: eacc 083f 2bf7 d03e e40d 243e 0272 e3be

fc4.weight f4 [200, 200]
-0.33775863 -0.011928378 -0.07099873 -0.068828546 0.17138793 -0.13118823 -0.13473178 -0.0020226012
-0.010202601 0.08864407 -0.035271697 -0.31682187 -0.14775953 -0.008680826 0.058338944 -0.083076596
-0.1397988 -0.42082196 0.119606175 -0.12852287 -0.15771244 0.06907545 0.062313467 -0.28002915
0.044738542 -0.062272403 -0.31309703 -0.31613347 -0.16870546 0.39029405 0.118473366 0.10168185
0.031064434 -0.17501183 -0.02534779 0.047636125 0.023354735 0.0025104522 -0.01768097 -0.090741634
-0.05367158 0.008401395 0.0004989435 -0.06959362 -0.055856604 0.0459666 0.113047525 0.17572509
0.20496282 -0.22062519 -0.05895534 -0.05655074 -0.10723203 -0.041730355 -0.0020192957 -0.0283475
-0.018408382 0.19492677 0.060907774 0.051583655 0.18845741 0.09534836 -0.30197027 0.23155853
0.02023555 0.06053182 -0.018970424 -0.360501 0.038206663 -0.09575439 -0.23492172 -0.20516199
-0.032037236 0.031076439 0.057259835 -0.18832591 -0.029546289 -0.028061537 -0.34085542 0.06231698
-0.08106142 -0.07625991 -0.06357333 -0.21109991 -0.43396056 -0.10620195 -0.25027964 -0.3361824
0.090120606 -0.065371744 -0.27860403 -0.34475586 -0.08551762 -0.050321523 -0.027897963 0.017189065
-0.06340917 -0.040332872 -0.07435431 0.020281 -0.098881416 0.04936082 0.10902459 -0.087849006
-0.18417072 -0.035944857 0.12858821 -0.028955286 -0.16228227 -0.1376794 -0.005242424 0.101433836
-0.66518646 0.056438584 -0.057081405 0.011316989 -0.19893068 0.13600259 0.004734184 -0.056462023
-0.05189869 -0.3405017 -0.21188222 -0.10414538 -0.12023299 0.05787618 0.25314942 0.10963649
-0.19648787 -0.25680843 0.01724825 -0.001716002 -0.08098503 0.2306257 -0.093559094 -0.23701419
-0.06542265 -0.24921778 0.01983705 -0.003768778 -0.030909555 -0.19867209 -0.023253817 -0.08901192
-0.32125676 -0.11463739 0.10082365 -0.11261184 -0.0825096 0.022086944 0.03409689 0.044660322
0.17887706 -0.113367476 -0.3820356 0.021560078 -0.057339676 0.10019762 0.07442818 -0.12033731
0.028687026 0.022886511 -0.24020512 -0.056480005 -0.30916154 -0.09399055 0.0017091716 -0.4447686
-0.2429797 -0.06681563 0.035536 -0.050130684 -0.087362766 0.16107462 -0.09166283 -0.10194111
-0.30896935 0.023933787 -0.23651452 0.0367275 0.015024145 -0.03894867 0.051884923 -0.088597
0.08164213 0.116375364 -0.031997945 0.061796773 0.011109211 0.044853095 -0.14812887 -0.530514
0.009493519 -0.24098907 -0.07005863 -0.13406684 0.11897282 0.07542512 0.023775807 -0.054647323
0.016775683 -0.39260593 0.04670085 0.060756635 -0.14867644 0.0079354765 -0.3133886 -0.25106028
-0.008562092 0.037342355 -0.0028310344 -0.07567418 -0.15419409 -0.10903278 -0.05339076 -0.2269537
-0.39972648 -0.12766458 -0.037291933 -0.60125494 0.13016455 -0.3441472 -0.1380048 0.054197773
-0.7078329 -0.19247033 0.2726524 -0.022395067 -0.11154574 -0.024033813 -0.09046401 -0.2614757
0.09059266 -0.10701403 -0.13149266 0.03937697 0.0242891 -0.016050294 -0.29652646 0.10999358
-0.088521205 -0.09171866 -0.24433163 0.06743189 -0.01799805 0.11252154 -0.29402006 0.16660263
0.004776645 0.018074758 0.052431654 -0.3385228 0.098450914 -0.008642116 0.010403816 0.06816208
00000000: b3ee acbe 3e6f 43bc c867 91bd fbf5 8cbd
00000010: 5180 2f3e 3556 06be 21f7 09be 9e8d 04bb
00000020: cf28 27bc 068b b53d 0e79 10bd 7a36 a2be
00000030: 464e 17be 063a 0ebc d1f4 6e3d 1024 aabd
00000040: 6b27 0fbe fa75 d7be 15f4 f43d 809b 03be
00000050: 5f7f 21be 6e77 8d3d 683c 7f3d fb5f 8fbe
00000060: c33f 373d 5911 7fbd 414e a0be 3fdc a1be
00000070: 20c1 2cbe 9fd4 c73e 2aa2 f23d 933e d03d
00000080: d77a fe3c 4d36 33be 2ba6 cfbc 191e 433d
00000090: 6e52 bf3c 6686 243b aed7 90bc c0d6 b9bd
000000a0: bbd6 5bbd 01a6 093c 88cb 023a 1a87 8ebd
000000b0: e5c9 64bd 7947 3c3d 7685 e73d 47f1 333e
000000c0: c6e1 513e 92eb 61be 287b 71bd c0a1 67bd
000000d0: 779c dbbd 73ed 2abd 2956 04bb 0439 e8bc
000000e0: 2dcd 96bc e29a 473e 6e7a 793d 6249 533d
000000f0: fbfa 403e 0046 c33d d99b 9abe ae1d 6d3e
00000100: 06c5 a53c 37f0 773d dd67 9bbc 9693 b8be
00000110: 977e 1c3d e11a c4bd 528f 70be fc15 52be
00000120: 7a39 03bd 0494 fe3c 4a89 6a3d 82d8 40be
00000130: 0f0b f2bc 4fe1 e5bc 9a84 aebe 1740 7f3d
00000140: 8803 a6bd 282e 9cbd bc32 82bd 932a 58be
00000150: 1430 debe 6880 d9bd a724 80be 1920 acbe
00000160: 2791 b83d 9fe1 85bd 30a5 8ebe d783 b0be
00000170: dd23 afbd f11d 4ebd 458a e4bc 15d0 8c3c
00000180: abdc 81bd 1534 25bd 1347 98bd 5724 a63c
00000190: 5782 cabd 922e 4a3d 4948 df3d 2eea b3bd
000001a0: 4097 3cbe ea3a 13bd a1ac 033e a333 edbc
000001b0: 532d 26be d4fb 0cbe a4c8 abbb 8bbc cf3d
000001c0: a949 2abf 252c 673d 31ce 69bd e46a 393c
000001d0: 7cb4 4bbe 4344 0b3e 3721 9b3b b944 67bd
000001e0: b993 54bd 3d56 aebe a7f7 58be 2c4a d5bd
000001f0: b73c f6bd 930f 6d3d cd9c 813e 1989 e03d
00000200: 1e34 49be 657c 83be 344c 8d3c 79eb e0ba
00000210: 7bdb a5bd 2529 6c3e e99b bfbd d9b3 72be
00000220: 4ffc 85bd f232 7fbe 4f81 a23c 9afd 76bb
00000230: 0936 fdbc b270 4bbe ca7e bebc e24b b6bd
00000240: c47b a4be 02c7 eabd a17c ce3d 09a1 e6bd
00000250: cbfa a8bd aeef b43c 2ea9 0b3d beed 363d
00000260: 8c2b 373e 352d e8bd 2c9a c3be c39e b03c
00000270: 02dd 6abd 6934 cd3d cd6d 983d 6873 f6bd
00000280: 0e01 eb3c 7e7c bb3c 55f8 75be 9457 67bd
00000290: 6c4a 9ebe 1e7e c0bd 4806 e03a b6b8 e3be
000002a0: accf 78be a2d6 88bd 328e 113d d555 4dbd
000002b0: 40eb b2bd bff0 243e b9b9 bbbd 80c6 d0bd
000002c0: 3b31 9ebe ca10 c43c dd30 72be 936f 163d
000002d0: d527 763c a488 1fbd 4985 543d 5872 b5bd
000002e0: fd33 a73d 3556 ee3d 4710 03bd 9d1e 7d3d
000002f0: 6803 363c e1b7 373d 18af 17be c4cf 07bf
00000300: b48a 1b3c d7c5 76be e67a 8fbd d148 09be
00000310: 06a8 f33d 7c78 9a3d 7bc5 c23c dfd5 5fbd
00000320: 286d 893c a503 c9be 6449 3f3d f3db 783d
00000330: a33e 18be cd03 023c 7874 a0be f98a 80be
00000340: 0448 0cbc 4cf4 183d e088 39bb 11fb 9abd
00000350: 0ee5 1dbe 944c dfbd 45b0 5abd 8d66 68be
00000360: f3a8 ccbe 81ba 02be 6dbf 18bd d8eb 19bf
00000370: db49 053e 1034 b0be 2151 0dbe 7cfe 5d3d
00000380: 8934 35bf f116 45be 1899 8b3e dc75 b7bc
00000390: 1872 e4bd 8fe2 c4bc 3245 b9bd 25e0 85be
000003a0: a588 b93d 2c2a dbbd 03a6 06be bf49 213d
000003b0: eff9 c63c e87b 83bc 51d2 97be 5044 e13d
000003c0: 9b4a b5bd fed6 bbbd 1232 7abe bb19 8a3d
000003d0: a670 93bc b171 e63d cc89 96be e199 2a3e
000003e0: 6785 9c3b 8411 943c 93c2 563d dc52 adbe
000003f0: a2a0 c93d a997 0dbc c474 2a3c 9098 8b3d

fc4.bias f4 [200]
0.29682562 0.42978632 0.14933047 0.22502483 -0.004095286 0.28193784 -0.018949797 -0.0066760466
0.09007413 0.24944784 0.18270846 0.15622623 0.24894589 0.028244272 0.17161955 0.05803158
0.049233504 -0.0021263536 -0.014307176 0.15831427 0.30364826 0.21122752 0.0048278784 -0.0071789455
-0.005730714 0.23082946 0.11586516 -0.012600744 -0.009437193 -0.0021649152 0.11606441 0.2534282
0.214496 0.22071038 -0.0014606798 0.04537553 0.02400433 0.24695879 -0.0112348255 -0.019920578
-0.001187407 0.082442865 0.1484216 0.25484788 0.20197687 0.033114143 -0.013977773 -0.021332715
-0.0059699304 0.1747824 0.20814003 -0.013131844 0.1044159 0.040644806 0.02151196 0.22087511
-0.15589565 0.05116743 -0.0017376331 0.1945819 0.14524269 -0.022756329 0.016490046 -0.009237653
-0.0057147937 0.09396043 0.22049098 -0.43086562 0.1364691 0.0006715602 0.16691455 0.12988776
0.20387788 0.27649608 0.009508421 -0.0050600385 0.041478854 2.6701134e-06 -0.017963512 0.1621743
0.28983435 0.2463631 0.03986805 0.058031958 -0.029129507 0.07465104 -0.007832121 -0.0025065166
-0.014616823 -0.0027227027 -0.02136995 -0.028612887 0.036935788 -0.064122796 0.107383914 -0.02336666
0.08838493 -0.014508292 -0.0073843114 -0.0012612977 0.24718352 0.283138 -0.010945885 -0.0059334734
0.13199855 0.2010295 -0.010963266 0.09604727 0.14291829 -0.012596356 0.06725938 0.0047020954
0.18645395 0.00023947345 0.07853101 0.07208341 -0.0001151586 0.19216283 -0.0053671105 0.00046956068
0.0039098174 0.134204 -0.029855404 0.03084637 0.110211305 -0.062247522 0.064609446 0.18492152
0.01176965 -0.0021958288 0.23066267 0.25233415 -0.008749953 -0.027042465 0.005541748 -0.044940397
0.2394405 -0.029786931 0.18129922 -0.0009925523 -0.0021938363 0.10267751 0.35273603 0.106411226
0.0992422 -0.012372288 0.25621754 -0.0034250624 0.091374256 0.23724686 0.019628061 -0.031131458
-0.0060320394 -0.010725439 0.07542583 0.16685294 0.13331512 -0.030358972 0.17635465 0.1599921
0.19076684 -0.022185858 0.19322088 -0.87738365 -0.017312616 0.003993688 0.14259964 0.05546087
0.001477048 0.05994722 0.18419445 0.15641983 0.15359256 -0.0069432487 0.2779921 -0.014857533
0.14241509 -0.018287104 0.17015785 -0.006075944 0.21181025 0.22973435 -0.006601261 -0.025146399
-0.023853965 0.3119467 0.030835545 -0.107932284 0.102306254 0.021168392 0.1753171 -0.01129044
0.35216144 0.091345 -0.012645791 0.042201307 0.028293286 0.16242394 0.22575313 0.08355774
00000000: 87f9 973e f40c dc3e 16ea 183e e96c 663e
00000010: c031 86bb 285a 903e 9b3c 9bbc bdc2 dabb
00000020: c978 b83d 416f 7f3e ed17 3b3e c5f9 1f3e
00000030: aceb 7e3e 8860 e73c 09bd 2f3e 86b2 6d3d
00000040: 12a9 493d 4b5a 0bbb a568 6abc 231d 223e
00000050: c977 9b3e 074c 583e 2e33 9e3b 5c3d ebbb
00000060: b7c8 bbbb 8f5e 6c3e b74a ed3d 5a73 4ebc
00000070: 759e 1abc 40e1 0dbb 2db3 ed3d 57c1 813e
00000080: d7a4 5b3e e701 623e 4874 bfba b1db 393d
00000090: bba4 c43c c4e2 7c3e 4612 38bc 7b30 a3bc
000000a0: c4a2 9bba ced7 a83d d5fb 173e 6c7b 823e
000000b0: 06d3 4e3e b2a2 073d 0703 65bc f2c1 aebc
000000c0: 689f c3bb 28fa 323e a922 553e f226 57bc
000000d0: 01d8 d53d 2b7b 263d da39 b03c 162d 623e
000000e0: 1ca3 1fbe f094 513d 4bc1 e3ba 7a40 473e
000000f0: 80ba 143e 7b6b babc 2216 873c 8659 17bc
00000100: 2a43 bbbb 536e c03d 63c8 613e 6b9a dcbe
00000110: 8ebe 0b3e a40b 303a a6eb 2a3e 4c01 053e
00000120: 5dc5 503e e590 8d3e 35c9 1b3c aece a5bb
00000130: bbe5 293d 3330 3336 3728 93bc 0511 263e
00000140: 2b65 943e 9c46 7c3e ae4c 233d ebb2 6d3d
00000150: 01a1 eebc a5e2 983d 4c52 00bc 5f44 24bb
00000160: 667b 6fbc 5f6f 32bb 0910 afbc 9365 eabc
00000170: fb49 173d d052 83bd 19ec db3d 706b bfbc
00000180: 2803 b53d 30b4 6dbc 18f8 f1bb 2152 a5ba
00000190: ad1d 7d3e 77f7 903e 5f56 33bc 956d c2bb
000001a0: a12a 073e adda 4d3e 459f 33bc 6eb4 c43d
000001b0: 2c59 123e f260 4ebc 49bf 893d 0914 9a3b
000001c0: c9ed 3e3e 2a1b 7b39 ded4 a03d 78a0 933d
000001d0: 4d81 f1b8 55c6 443e 96de afbb 5e2f f639
000001e0: ed1d 803b c66c 093e 5293 f4bc 87b1 fc3c
000001f0: 77b6 e13d 42f7 7ebd f551 843d 115c 3d3e
00000200: 7dd5 403c e5e7 0fbb d632 6c3e f131 813e
00000210: f65b 0fbc 2988 ddbc 8d97 b53b 6c13 38bd
00000220: e42f 753e b903 f4bc 81a6 393e 8718 82ba
00000230: 77c6 0fbb 9648 d23d d199 b43e 21ee d93d
00000240: 7f3f cb3d 23b5 4abc f22e 833e 0377 60bb
00000250: 6d22 bb3d d7f0 723e 07cb a03c 6607 ffbc
00000260: 6aa8 c5bb c0b9 2fbc dc78 9a3d 7fdb 2a3e
00000270: c283 083e 61b3 f8bc 5096 343e f8d4 233e
00000280: 6258 433e 1ebf b5bc b2db 453e 379c 60bf
00000290: 30d3 8dbc 7cdd 823b a405 123e f02a 633d
000002a0: 8299 c13a 378b 753d 789d 3c3e 852c 203e
000002b0: 5e47 1d3e 3184 e3bb fb54 8e3e 036d 73bc
000002c0: 43d5 113e d6ce 95bc dc3d 2e3e b618 c7bb
000002d0: c9e4 583e 7b3f 6b3e 644f d8bb d2ff cdbc
000002e0: 6469 c3bc 7ab7 9f3e d39a fc3c 9a0b ddbd
000002f0: f185 d13d 5669 ad3c 5386 333e 8afb 38bc
00000300: 814e b43e 1613 bb3d 4b30 4fbc 47db 2c3d
00000310: 52c7 e73c 7652 263e d42b 673e 5220 ab3d

fc5.weight f4 [36, 200]
0.6020558 0.9321063 0.12519701 0.12958959 0.16009045 0.4868351 -0.32125506 -0.060788278
0.28721675 0.35058868 0.27569455 0.0120420735 0.77143484 0.14374751 0.25088066 -0.03839682
-0.09034402 -0.17410468 -0.048374753 0.44036812 0.35712245 0.024255611 -0.24242483 -0.03353357
-0.11883091 -0.17354406 0.3055735 0.06208381 -0.011792396 -0.372462 0.10654453 0.16649611
0.32326877 0.34410584 -0.088874005 -0.4017571 0.21064344 0.10293112 0.19905972 -0.1299903
-0.16733448 0.07060079 0.16779618 0.64030206 0.18330905 -0.074739315 -0.052290257 -0.028092837
0.15816216 0.29146615 0.22698803 -0.5070873 -0.1573331 0.0969296 0.22525269 0.18974417
0.060102172 -0.13573293 0.3024725 -0.078252204 0.36841926 0.06760142 0.025232676 -0.15175538
-0.4592972 0.13723536 0.05930565 0.45766285 0.13086195 -0.20697315 0.380123 0.19734746
0.16876698 0.28115478 0.17240162 0.13733687 0.04783138 0.26322123 -0.13271227 0.14401285
0.2593744 0.20002581 0.39218283 -0.009021646 0.085782714 -0.17510441 0.018854376 0.1653197
-0.18922304 -0.26283574 0.093556836 -0.5849024 0.13139024 -0.2848829 0.19507812 0.14965977
0.21488462 -0.021069966 0.047954343 -0.43707088 0.52252483 0.44763303 -0.1618382 0.05823599
0.07468726 0.12558481 -0.26154172 0.011320351 0.2598308 -0.5678218 0.12240841 0.17099904
-0.061192013 -0.26026872 0.07685338 0.30463934 -0.06795218 0.28913504 -0.056378845 0.27510226
-0.09370894 -0.15196514 -0.3090372 -0.17831455 -0.022809796 -0.03055446 0.07276751 0.15615079
0.080708444 -0.7666459 0.5138199 0.35392874 -0.118215635 -0.27087995 0.03053488 -0.017089196
0.3677477 -0.022924373 0.12557639 0.14180626 0.10190789 -0.035366643 0.31530806 -0.10705735
-0.07250665 -0.32575822 0.37772965 -0.4806369 -0.07797768 0.10742472 0.32247233 0.19066946
0.15633099 0.030797292 0.04304245 0.14502229 0.4687489 0.00558095 -0.13790286 0.16711825
0.02728033 0.1832861 0.043244753 0.4891364 0.100972995 0.16618203 0.14572333 -0.044983234
-0.00012353256 0.050917767 0.31139582 0.037185106 0.038825676 0.18130718 0.597492 0.054049052
-0.0049501774 0.12011479 -0.0278132 0.26613963 0.3432326 0.11281827 0.21142273 -0.044967033
0.2700657 0.3646372 0.018825473 0.043454293 0.066430755 0.06820154 0.36335796 -0.37489098
0.49052978 0.32089868 -0.2638888 -0.0122166835 0.03966819 0.67266995 0.035821006 0.16739926
-0.13480765 0.13328648 -0.096898295 0.15439586 0.18550354 0.055719975 -0.062232878 0.18527824
0.3494397 0.09936423 0.119979896 0.035831653 0.30149364 -0.4018931 -0.7232523 -0.039454784
0.04468055 0.0008042005 -0.044508506 -0.5338322 0.1039118 0.40745834 -0.10700455 -0.06311009
0.027280265 0.029217934 -0.379672 0.14164168 0.39770785 0.07576464 -0.028435526 0.046702735
0.32629937 0.3991823 0.3897685 -0.05764743 -0.31855753 0.080604866 -0.024963645 -0.24272966
0.33123475 0.08277902 0.214496 -0.16990624 0.16516316 0.24162172 -0.009614051 -0.01996981
0.072974816 0.09238967 -0.1399861 0.48086202 0.1214244 0.26266834 0.21343583 0.32495368
00000000: 5420 1a3f 859e 6e3f a533 003e 22b3 043e
00000010: c0ee 233e 7342 f93e 8b7b a4be 21fd 78bd
00000020: 130e 933e 5c80 b33e d627 8d3e 1e4c 453c
00000030: c17c 453f 8c32 133e 6e73 803e fc45 1dbd
00000040: 4906 b9bd 7f48 32be 9b24 46bd ee77 e13e
00000050: c1d8 b63e b4b3 c63c 373e 78be 7f5a 09bd
00000060: 9f5d f3bd 89b5 31be 2174 9c3e 984b 7e3d
00000070: e534 41bc 57b3 bebe 0534 da3d f57d 2a3e
00000080: 7c83 a53e a42e b03e 9303 b6bd 1bb3 cdbe
00000090: eab2 573e 8dcd d23d 50d6 4b3e 2d1c 05be
000000a0: bb59 2bbe 2697 903d c3d2 2b3e d6ea 233f
000000b0: 5eb5 3b3e ed10 99bd 4f2e 56bd f322 e6bc
000000c0: 43f5 213e 0d3b 953e 8d6f 683e 79d0 01bf
000000d0: ee1b 21be 0783 c63d a4a8 663e 4c4c 423e
000000e0: b22d 763d 93fd 0abe addd 9a3e b142 a0bd
000000f0: 73a1 bc3e 9d72 8a3d c2b4 ce3c c365 1bbe
00000100: 0129 ebbe 6d87 0c3e 7bea 723d c952 ea3e
00000110: ad00 063e c5f0 53be 7b9f c23e 7415 4a3e
00000120: 40d1 2c3e 85f3 8f3e 0d8a 303e 09a2 0c3e
00000130: d6ea 433d efc4 863e bae5 07be 1b78 133e
00000140: b9cc 843e 91d3 4c3e 30cc c83e 87cf 13bc
00000150: d9ae af3d 924e 33be 7e74 9a3c 9149 293e
00000160: afc3 41be 6892 86be ba9a bf3d 2abc 15bf
00000170: 2a8b 063e 2cdc 91be 8fc2 473e 6940 193e
00000180: b70a 5c3e ec9a acbc c66b 443d c1c7 dfbe
00000190: 30c4 053f 2830 e53e eab8 25be dd88 6e3d
000001a0: a2f5 983d 4e99 003e cce8 85be fe78 393c
000001b0: 8b08 853e c55c 11bf 43b1 fa3d 5f1a 2f3e
000001c0: 7aa4 7abd f141 85be 4e65 9d3d b0f9 9b3e
000001d0: 832a 8bbd 8209 943e 81ed 66bd 34da 8c3e
000001e0: 79ea bfbd c09c 1bbe 203a 9ebe 1798 36be
000001f0: 9cdb babc 594d fabc 2207 953d fee5 1f3e
00000200: 784a a53d e842 44bf b389 033f 2636 b53e
00000210: 0a1b f2bd c7b0 8abe 4924 fa3c a4fe 8bbc
00000220: 6d49 bc3e e5cb bbbc 1997 003e a935 113e
00000230: 15b5 d03d 9ddc 10bd 0f70 a13e e240 dbbd
00000240: 5e7e 94bd c8c9 a6be c865 c13e 0a16 f6be
00000250: c3b2 9fbd 7e01 dc3d 181b a53e db3e 433e
00000260: 3b15 203e 9a4a fc3c 484d 303d b980 143e
00000270: dbff ef3e 67e0 b63b 6836 0dbe 0c21 2b3e
00000280: 007b df3c 5aaf 3b3e 6921 313d 1670 fa3e
00000290: eeca ce3d 9f2b 2a3e 7f38 153e 5740 38bd
000002a0: 8588 01b9 268f 503d 466f 9f3e 694f 183d
000002b0: ac07 1f3d 97a8 393e 3cf5 183f 8a62 5d3d
000002c0: 1935 a2bb befe f53d 82d8 e3bc 7443 883e
000002d0: 2fbc af3e 440d e73d 337f 583e 5a2f 38bd
000002e0: 0d46 8a3e bab1 ba3e e137 9a3c 21fd 313d
000002f0: d90c 883d 40ad 8b3d 0e0a ba3e b6f1 bfbe
00000300: b826 fb3e d54c a43e 6f1c 87be 7c28 48bc
00000310: 1d7b 223d 1934 2c3f 0cb9 123d b66a 2b3e
00000320: 040b 0abe 407c 083e 9d72 c6bd f319 1e3e
00000330: a4f4 3d3e a13a 643d e7e7 7ebd 94b9 3d3e
00000340: c3e9 b23e 797f cb3d 05b8 f53d 36c4 123d
00000350: 605d 9a3e efc4 cdbe 1027 39bf 579b 21bd
00000360: f402 373d fbd0 523a 8d4e 36bd 3aa9 08bf
00000370: b6cf d43d 619e d03e 3425 dbbd dd3f 81bd
00000380: dd7a df3c 735a ef3c 5e64 c2be 840a 113e
00000390: 5da0 cb3e 7e2a 9b3d 9ff1 e8bc 5e4b 3f3d
000003a0: b610 a73e 9f61 cc3e bd8f c73e b61f 6cbd
000003b0: f919 a3be 2a14 a53d 8f80 ccbc 208e 78be
000003c0: 9a97 a93e 0c88 a93d d7a4 5b3e e7fb 2dbe
000003d0: 8820 293e af6b 773e 4184 1dbc ba97 a3bc
000003e0: d273 953d cc36 bd3d 8458 0fbe 8c33 f63e
000003f0: 5bad f83d 777c 863e ec8e 5a3e 5460 a63e
