saved_checkpoints/BasicCNN_4_data.pth (torch_old, 21989 bytes, 4 tensors)

conv.weight f4 [4, 2, 3, 3]
0.044162598 0.30696175 0.51865095 -2.7194808 0.3210133 0.013508355 0.6561603 0.3117053
0.43961135 -0.1879579 -0.038892988 0.06284676 -2.4740767 0.4892647 0.2694586 0.27951226
0.2187784 0.63405395 -0.3074125 0.3437857 -0.62669 0.2971961 0.6669717 -0.097386815
-0.68857425 0.69022834 -0.65693283 0.10360279 -0.20372696 0.40345892 -0.40658787 -3.150026
-0.42248967 0.93548703 -2.6236959 0.43580723 -0.06930094 2.4934018 -0.026076484 -0.10935999
0.104489334 -0.079925895 -0.36452854 -0.2651021 -0.4250562 -0.011550477 2.5516593 0.070750535
0.23159099 -0.13190362 0.10145162 -0.1272964 -0.23559856 -0.28777954 -0.015549202 -2.5755227
-0.026133552 -0.014644135 -1.7788042 -0.04222973 -0.026652304 -1.9064386 -0.08480629 -0.2124813
2.0271554 -0.17021768 -0.51945144 1.1116183 -0.4351348 0.12711352 2.2562912 0.0043912465
00000000: d7e3 343d 172a 9d3e 4fc6 043f f90b 2ec0
00000010: db5b a43e 2652 5d3c 1ffa 273f d697 9f3e
00000020: bd14 e13e 0978 40be 414e 1fbd cdb5 803d
00000030: 4657 1ec0 e780 fa3e 7af6 893e 3b1c 8f3e
00000040: 7207 603e 5c51 223f 2c65 9dbe ae04 b03e
00000050: c16e 20bf 162a 983e a8be 2a3f bd72 c7bd
00000060: 6746 30bf ceb2 303f c02c 28bf b32d d43d
00000070: cd9d 50be 2b92 ce3e 492c d0be 079a 49c0
00000080: 9150 d8be 147c 6f3f a2ea 27c0 2022 df3e
00000090: a7ed 8dbd e593 1f40 5a9e d5bc 21f8 dfbd
000000a0: 81fe d53d 30b0 a3bd 7ca3 babe 76bb 87be
000000b0: f7a0 d9be 363e 3dbc 634e 2340 a8e5 903d
000000c0: 3026 6d3e be11 07be dec5 cf3d fd59 02be
000000d0: c040 71be d757 93be 15c2 7ebc 5dd5 24c0
000000e0: 0816 d6bc f4ed 6fbc dbaf e3bf 15f9 2cbd
000000f0: ef55 dabc 2e06 f4bf ecae adbd b394 59be
00000100: eabc 0140 8b4d 2ebe c5fa 04bf 8249 8e3f
00000110: fdc9 debe 0c2a 023e 1367 1040 72e4 8f3b

conv.bias f4 [4]
0.93386525 0.009647873 -0.5824139 -1.7115262
00000000: cb11 6f3f 1d12 1e3c 1419 15bf 4a13 dbbf

fc.weight f4 [36, 144]
0.10829419 1.868106 0.062150978 0.018519858 0.032836705 0.3791423 0.15590963 0.4215862
0.118074425 -0.057125147 -0.08931287 -0.23828791 0.47201458 -0.14100541 -0.4090733 -0.3984726
0.32192296 -0.16614155 -0.46861312 -0.659276 0.10568161 -0.2053601 -0.33492303 -0.372062
0.14152934 -0.08253029 -0.17810205 -0.24342787 0.24571306 -0.16315667 -0.09838045 -0.19084199
-0.064299844 -0.10070758 0.07377819 -0.029556181 0.45992234 0.13199921 0.35697314 0.061849684
0.16204451 -0.3214214 0.18852748 0.3150425 0.58492196 -0.41972372 -0.42578417 -0.060212117
-0.113158084 -0.10544069 -0.25499526 -0.18161145 -0.428624 -0.26981032 -0.03811645 -0.17498265
-0.1391936 -0.29462013 -0.18890046 -0.14013942 -0.20373997 -0.119226545 -0.20985237 -0.14640951
-0.07094652 -0.100985736 -0.13164788 -0.10973832 0.06387102 -0.20853797 -0.119348876 0.22361408
0.29835066 0.06844256 0.18825018 -0.01527772 -5.961909 0.076454975 0.3869541 0.5197059
-0.03826436 0.5073027 -0.14631914 0.083673 -0.086372934 -0.11258477 0.42043933 0.12504879
-0.070059955 -0.25248882 0.013927061 0.8376465 -0.07885344 -0.4010923 -0.12652025 0.31300256
-0.06347632 -0.17604345 0.114111386 0.3968482 0.06634094 -0.13389236 0.010607893 0.23538953
-0.03068831 0.043511305 0.098651975 0.21865997 0.20388325 0.09150822 -0.05821739 0.0022180085
1.2114319 -0.054869406 -0.6527532 -0.23320821 1.1498433 -0.20864941 -0.24054609 -0.3653527
-0.41975856 -0.08919381 -0.095988736 0.08053983 -0.13657866 -0.098158896 -0.09520753 0.004766148
-0.07899575 -0.054938324 -0.040085644 -0.1828645 -0.15054406 -0.12838173 -0.1279116 -0.048058342
-0.041133024 -0.07970055 0.024194527 -0.018609248 -0.08950242 -0.118204094 -0.108727664 0.004822344
-0.920213 1.174715 2.6151288 0.20076789 -0.45890096 -0.07785985 0.23374447 0.07370325
-0.40853223 -0.002658468 -0.28061357 -0.1680468 0.60895115 -0.16484694 -0.05960856 -0.23708269
0.7765824 -0.23186992 -0.2201967 -0.59073335 0.21468693 -0.26129666 -0.24519433 -0.38886368
0.0536778 -0.19710708 -0.26657018 -0.41210315 0.016239483 -0.09977002 -0.04634203 -0.13265115
0.09126231 -0.053956956 -0.04094379 -0.0705458 0.05308129 0.38832614 0.06483501 0.47110167
-0.030793406 0.4760558 0.0693675 0.085995525 -0.20690662 0.4683819 -0.040244386 -0.09080665
-0.15921119 -0.049086332 0.0025713176 -0.06289231 -0.12718695 -0.10788748 -0.023635976 -0.07596484
-0.1862014 -0.028850365 -0.08309909 -0.06655412 -0.09965327 -0.097331405 -0.06694081 -0.09323357
-0.12641352 0.018340442 0.03541524 -0.10511357 0.071352 0.043253124 0.02043292 0.09291957
0.5682305 0.53283423 0.08856176 0.26515898 2.5257518 -6.1851273 0.57460964 0.43750077
0.38273567 -0.1385469 -0.25534746 -0.5322055 0.6185521 0.3439409 0.20487957 0.3205725
-0.15219733 0.17358185 0.049261864 0.17638391 -0.31534252 0.023051783 -0.052462682 0.27495572
-0.20996135 -0.16558494 0.09678565 0.32491317 -0.021112917 -0.12933607 -0.0072114486 0.27071556
0.10402133 0.1405555 0.21130939 0.2828708 0.39667976 0.968078 -0.11982404 -0.1851985
00000000: 58c9 dd3d 191e ef3f 0692 7e3d f5b6 973c
00000010: c87f 063d f11e c23e c6a6 1f3e 25da d73e
00000020: 01d1 f13d 0ffc 69bd aae9 b6bd bf01 74be
00000030: e5ab f13e b963 10be 0e72 d1be 9a04 ccbe
00000040: 16d3 a43e 0321 2abe 0fee efbe 50c6 28bf
00000050: 9a6f d83d eb49 52be 087b abbe e97e bebe
00000060: 11ed 103e a405 a9bd 6260 36be 2845 79be
00000070: 349c 7b3e 8b12 27be b07b c9bd 156c 43be
00000080: a3af 83bd c73f cebd 0519 973d ce1f f2bc
00000090: f17a eb3e cd2a 073e 2fc5 b63e 1856 7d3d
000000a0: ffee 253e 5991 a4be 590d 413e 404d a13e
000000b0: 72bd 153f 07e6 d6be 6200 dabe fba0 76bd
000000c0: 6dbf e7bd 4af1 d7bd bd8e 82be 5af8 39be
000000d0: 9b74 dbbe 9424 8abe ff1f 1cbd a72e 33be
000000e0: c488 0ebe 73d8 96be 1f6f 41be b580 0fbe
000000f0: 36a1 50be 0c2d f4bd 8ae3 56be 60ec 15be
00000100: 694c 91bd 9cd1 cebd b4ce 06be 7cbe e0bd
00000110: cfce 823d fa8a 55be 2f6d f4bd 17fb 643e
00000120: 6bc1 983e 9d2b 8c3d a8c4 403e 674f 7abc
00000130: f5c7 bec0 6d94 9c3d d91e c63e 720b 053f
00000140: 17bb 1cbd 97de 013f afd4 15be c05c ab3d
00000150: 4be4 b0bd d892 e6bd d343 d73e ca0c 003e
00000160: 987b 8fbd 3746 81be 542e 643c 0070 563f
00000170: ea7d a1bd f85b cdbe 868e 01be df41 a03e
00000180: dfff 81bd bc44 34be 3bb3 e93d b02f cb3e
00000190: c2dd 873d 141b 09be bacc 2d3c f409 713e
000001a0: 0d66 fbbc e938 323d 0c0a ca3d 66e8 5f3e
000001b0: c5c6 503e a968 bb3d 5c75 6ebd 025c 113b
000001c0: 3310 9b3f bebe 60bd d51a 27bf 22ce 6ebe
000001d0: 112e 933f 31a8 55be b751 76be 820f bbbe
000001e0: 98ea d6be 3fab b6bd be95 c4bd 11f2 a43d
000001f0: 47db 0bbe 8807 c9bd 2afc c2bd 592d 9c3b
00000200: 86c8 a1bd 0207 61bd d830 24bd d540 3bbe
00000210: 3928 1abe 8076 03be 42fb 02be d3d8 44bd
00000220: 1a7b 28bd 0b3a a3bd 9a33 c63c 6c72 98bc
00000230: 0b4d b7bd fd14 f2bd 9cac debd c104 9e3b
00000240: 1493 6bbf 105d 963f 455e 2740 1996 4d3e
00000250: 11f5 eabe fc74 9fbd b65a 6f3e bbf1 963d
00000260: 232b d1be b139 2ebb 95ac 8fbe 7614 2cbe
00000270: 39e4 1b3f a3cd 28be 1b28 74bd cec5 72be
00000280: 1bce 463f 4f6f 6dbe 3e7b 61be 4d3a 17bf
00000290: e4d6 5b3e adc8 85be 3914 7bbe 2419 c7be
000002a0: 41dd 5b3d 70d6 49be e37b 88be 2fff d2be
000002b0: aa08 853c 3954 ccbd 24d1 3dbd b4d5 07be
000002c0: bce7 ba3d f801 5dbd adb4 27bd 517a 90bd
000002d0: c46b 593d afd2 c63e 38c8 843d 3d34 f13e
000002e0: 7442 fcbc 96bd f33e 8c10 8e3d 6c1e b03d
000002f0: 54df 53be c1cf ef3e 4cd7 24bd d6f8 b9bd
00000300: 4208 23be c00e 49bd 8d83 283b afcd 80bd
00000310: 4c3d 02be 1cf4 dcbd 3ca0 c1bc 7493 9bbd
00000320: 94ab 3ebe 9a57 ecbc db2f aabd 874d 88bd
00000330: 0317 ccbd b055 c7bd 4318 89bd 3ef1 bebd
00000340: 8c72 01be b23e 963c 920f 113d c945 d7bd
00000350: ff20 923d 302a 313d f062 a73c 9e4c be3d
00000360: 8e77 113f d367 083f de5f b53d ebc2 873e
00000370: eba5 2140 90ec c5c0 9e19 133f 1a00 e03e
00000380: eef5 c33e 3ddf 0dbe e7bc 82be 9f3e 08bf
00000390: 6e59 1e3f 0619 b03e f3cb 513e 1422 a43e
000003a0: 9ed9 1bbe 71bf 313e cfc6 493d fc9d 343e
000003b0: 9374 a1be 18d7 bc3c 1ce3 56bd ffc6 8c3e
000003c0: 1c00 57be 198f 29be 8e37 c63d 055b a63e
000003d0: fff4 acbc ad70 04be 044e ecbb 3b9b 8a3e
000003e0: 2309 d53d c8ed 0f3e 7d61 583e 71d4 903e
000003f0: 9c19 cb3e f6d3 773f 4e66 f5bd ada4 3dbe

fc.bias f4 [36]
0.94330984 -1.5842109 -2.3462186 -0.459694 -0.82270193 -0.19594622 -1.2743345 -1.0534388
1.17829295e-05 0.7060928 0.0993148 -0.3484102 0.7831914 1.8776563 1.153311 0.7541687
1.0325309 2.3662345 1.8127261 0.84149694 0.349906 1.4821662 1.1706883 0.2166834
-0.42102158 0.04858822 -0.029958954 -0.7116809 -1.0055091 -0.6647272 -1.0152447 -1.3799433
0.40111917 -1.2964457 -2.0009139 0.4971475
00000000: c17c 713f 6cc7 cabf 7228 16c0 035d ebbe
00000010: 989c 52bf 20a6 48be 651d a3bf 15d7 86bf
00000020: 4caf 4537 7fc2 343f 8f65 cb3d d262 b2be
00000030: 3b7f 483f 0b57 f03f b29f 933f 3311 413f
00000040: f929 843f 6370 1740 6907 e83f 586c 573f
00000050: e126 b33e 9fb7 bd3f 1dd9 953f 41e2 5d3e
00000060: 2490 d7be 7104 473d 7b6c f5bc b830 36bf
00000070: 86b4 80bf 902b 2abf 8af3 81bf fba1 b0bf
00000080: 7e5f cd3e eff1 a5bf f90e 00c0 1e8a fe3e
