saved_checkpoints/BasicCNN.pth (torch_old, 64071 bytes, 4 tensors)

conv.weight f4 [12, 2, 3, 3]
00000000: a37f d0bd b2c0 e83c c514 4cbe 1afb 13bf
00000010: dde1 14bf b03d 643f 27f9 53be a022 2dbc
00000020: b2d0 f8bd 0f1f 52bc ab7e 9dbe ee94 8c3b
00000030: 2c26 183f 31d1 a73f 0b3e 06c0 a3b6 9e3c
00000040: 747a 43bc a223 afbd ff75 07bf 320a acbf
00000050: 9ca5 06bf 6ac4 a8bf 9053 153f 9227 abbf
00000060: d273 13bf 68ec a6bf dc94 05bf acd3 29be
00000070: a5c5 68be d1fa 55be 70e2 59be 82d2 86bd
00000080: e436 4cbe 381b 70be 7df0 88be e133 8abe
00000090: c0e3 e3bd c4e0 28c0 71d4 afbd f372 b1bd
000000a0: f02e bfbf a286 bbbd 360d 56bc b38a 12c0
000000b0: 275e c83b 9b4c febd 5eb8 c43f 9d12 3bbe
000000c0: 7ab2 2eba 274a c23f cbbf e4b9 af76 123d
000000d0: 88fb d33f 22ee 52bd 604c 3b3c aae6 57be
000000e0: d48b a83e 6c6f 3e3e b136 4cc0 b5e3 3a3f
000000f0: 1121 61bd 7970 07bf 0082 913e 74f9 38bc
00000100: bb97 9d3e 0576 e83e 5eed 583f 2949 48c0
00000110: c5d3 823f dd4c 623d da38 15be be45 c3bc
00000120: b142 e4bd 6ca0 69bd 4fe7 dc3e e718 c1bd
00000130: 8575 3ebe b3fc edbd a741 4d3d 06f7 e3bd
00000140: 0ac7 82bd 4997 b7bd e2c2 333e 9b6a 18c0
00000150: 18be 06be 17a1 b63f fdc3 15be 1df0 b03f
00000160: a261 1bbe cd56 06be fe23 753f e432 23be
00000170: fe12 08be 7a94 39be 1026 2040 f3fe ebbd
00000180: 9046 503d ffc4 13bd 4b02 8dbf 62a5 733f
00000190: 5767 3cbe acc2 eebd 711c c53d 7bf1 ab3f
000001a0: 6538 f4bd 3fe8 1d3e 6d4b fbbd 10d4 8ebd
000001b0: 0b48 e9bd f6f1 5e3f b287 96bb cfed 81bd
000001c0: aee5 0ec0 d8d7 4a3b 29e2 24be bbc0 a43f
000001d0: 73ec 3bbd cc25 3c3d 64c5 363f 9200 ad3e
000001e0: c343 363e 2e8a 23c0 1ed3 ac3e 7d31 80bd
000001f0: 1c85 2b3f 0430 f8bc ea5b 6ebf 70ea 4dbd
00000200: 5769 4dbf 8ef4 5c3c 68bd d13f 8a0b aebe
00000210: 7568 263f dcb2 25bf 65d7 fa3e bad0 0cbf
00000220: 8be7 a3be 5f40 d3be fabf 0abf 016f 99bf
00000230: 4418 b7be b31e 8abe fbff 04bf 6a84 cdbe
00000240: f56d db3e 352a fabd 8f5d e4be 3400 17be
00000250: f6e0 6f3d 09d8 9abd c14d b63c 5188 413c
00000260: da56 61bc 0851 18c0 6b7d cc3f 1910 813f
00000270: 15ce 90be 7618 893d 7391 f3bc 14ca 80bd
00000280: 9e15 d2bc efff dcbb 8166 d2bf bc52 8abe
00000290: cfd4 49be d309 70be 38ed 8e3e e93c 81be
000002a0: 7614 13be ca31 62be bb7e e7bf 3926 2740
000002b0: e7ba acbe ae6a a5be 60cd b2be 65ee 0640
000002c0: c551 92be ba7e 80be ad86 7cbe 7c4e 0740
000002d0: 6944 513d 3ee2 94be 5f38 f53d 2ba6 babf
000002e0: 5d96 25bf 40f3 133f 46d1 733d 40dd 4ebe
000002f0: a05a 303d 481e 7dbe 39ab f53e a4c9 60be
00000300: ab26 a13f 82a3 2e3e 3b0a 8abf cb92 9dbe
00000310: 7189 07be cd65 77be 9c5c e4bc d52e c23d
00000320: e387 35bd 91f4 9dbe 0d22 85be 422a 0abe
00000330: 530d a0bd 0758 b83c b9bc 04be 2226 32be
00000340: 7459 2bc0 9638 83bf 1feb 8abd 8743 a53f
00000350: 228e 4dbe 09b0 00be cb7b 343f d5de 95be
-0.10180595 0.028412197 -0.19929798 -0.57805026 -0.5815714 0.8915663 -0.20700513 -0.010567337
-0.121491805 -0.012824788 -0.30760702 0.0042902147 0.59433246 1.3110715 -2.0975368 0.019374197
-0.011931051 -0.08551718 -0.5291442 -1.3440611 -0.5259645 -1.3184941 0.5833063 -1.3371451
-0.575986 -1.3040895 -0.52180266 -0.16584653 -0.22731645 -0.2089646 -0.21277785 -0.0658312
-0.19942814 -0.23447883 -0.26745978 -0.26992705 -0.11127424 -2.6387186 -0.08585442 -0.08664503
-1.4936199 -0.091565385 -0.013064673 -2.2897155 0.0061147395 -0.12416955 1.5368764 -0.18268819
-0.00066641683 1.517888 -0.00043630446 0.035757717 1.6561136 -0.051496632 0.011431783 -0.21084085
0.3291918 0.18597192 -3.190838 0.73003703 -0.054963175 -0.52905995 0.28419495 -0.011289943
0.30779824 0.45402542 0.84737194 -3.1294653 1.0220877 0.055249084 -0.14572468 -0.023836967
-0.11145533 -0.057037756 0.43145224 -0.09428578 -0.18599518 -0.11620464 0.05011144 -0.111311
-0.0638562 -0.08964402 0.1755481 -2.3815067 -0.13158453 1.4267911 -0.14625545 1.3823277
-0.15173963 -0.1311905 0.95758045 -0.15937382 -0.13288495 -0.18123046 2.5023232 -0.11523237
0.050848544 -0.036076542 -1.1016325 0.9517423 -0.18398796 -0.116582245 0.096245654 1.3433069
-0.11924819 0.15420626 -0.12270246 -0.069740415 -0.11390694 0.87087953 -0.004593813 -0.063441865
-2.2327685 0.0030951407 -0.16101898 1.2871317 -0.045879792 0.045934483 0.71394944 0.33789498
0.17799287 -2.5553088 0.3375482 -0.06259439 0.66999984 -0.030296333 -0.93109 -0.050272405
-0.8023886 0.013486041 1.6385927 -0.3399318 0.6500314 -0.6472604 0.48992458 -0.5500599
-0.3201259 -0.4126005 -0.54199183 -1.1987001 -0.357607 -0.26976547 -0.51953095 -0.40140086
0.42857328 -0.122150816 -0.4460263 -0.14746171 0.05856415 -0.07560737 0.022253873 0.0118122855
-0.013753617 -2.3799458 1.5975775 1.0083038 -0.28282228 0.06694119 -0.029732442 -0.06288543
-0.025645074 -0.006744377 -1.6437532 -0.27016246 -0.19710086 -0.23441248 0.2791536 -0.25241783
-0.14363274 -0.22089306 -1.808555 2.611708 -0.33736345 -0.32307953 -0.34922314 2.1083004
-0.2857801 -0.25096685 -0.2466075 2.1141653 0.05109063 -0.2907886 0.119736426 -1.458196
-0.6468256 0.57793045 0.05952575 -0.20201588 0.043055177 -0.24718583 0.47982195 -0.2195192
1.2589926 0.17054561 -1.0784372 -0.30776057 -0.13236023 -0.24159928 -0.02787619 0.09481589
-0.044319045 -0.30850652 -0.2600254 -0.13492683 -0.078150414 0.022502912 -0.12962617 -0.17397359
-2.6773348 -1.0251644 -0.06783127 1.2911233 -0.2007375 -0.12567152 0.70501393 -0.2927157

conv.bias f4 [12]
00000000: 09c2 9ebe 5282 183f 98f2 4dbf fbf0 8b3e
00000010: 289c d5be 11f5 94bf a2d4 fb35 8c3c 70be
00000020: 489c bebe 7439 3ac0 5906 38be 7638 03be
-0.31007412 0.59573853 -0.80448294 0.2733229 -0.417207 -1.1637288 1.8762842e-06 -0.23460597
-0.37228608 -2.9097567 -0.17971171 -0.12814507

fc.weight f4 [36, 432]
00000000: c09f 1dbf b885 8dbf eacf 43bf 24b0 343f
00000010: 4ef3 0abe dc7c bf3d 6414 293e 80a1 ccbd
00000020: e8e5 03bf 1403 403e 7c7e 74bd 67b2 4f3d
00000030: 8eb0 a9bd 3434 0f3e 494c 0a3f 96b4 49bd
00000040: ff5d 563e 7e6c 863d a084 e93c 6301 273d
00000050: ea24 94bc 5947 503d 886d c6bd 7f93 13bd
00000060: 5c4c 623d c2f5 7b3d cef2 f8bc d1d8 22bd
00000070: 3938 063c 88ce afbd 1ef2 0f3d 744e 04bd
00000080: cf7c 4abd edb3 5d3e 5768 a1bd d294 23be
00000090: b4d7 86bf 9086 34bf da99 4ebf c972 3d3e
000000a0: 985d 27bf 2665 313e ce3a babe 7005 23bf
000000b0: 90e4 d8be 88c8 8c3e 8f49 273f a752 40be
000000c0: 175b b63e 737b fb3e b3de c63e 3b97 373f
000000d0: ef35 4abc ee5f 663f 00d9 fd3e 1023 0ebf
000000e0: 623e bbbd 5496 483f 4371 4b3f 62c1 63bd
000000f0: c5d4 9cbc 7b28 b53e eae2 193f 7e83 57bc
00000100: 5ea2 35bd 0c12 323f 0fa5 923e 3852 12bd
00000110: dae2 4abe 0bbf 98bd b872 e1bd c120 21be
00000120: ddc6 373f 9f10 6fbe 03b8 9bbd fd3d d43d
00000130: ebe2 733f 9493 45bd a9a5 2abe 3354 16be
00000140: 992e 9b3f cbb3 efbd 0b1d a1be 1397 0cbe
00000150: d736 88be 9925 50be ef5b 5dbe 51b7 64be
00000160: 6136 01be 17ca ecbd 05f9 86bc 05ae 02be
00000170: 2d0e 10bd 00a3 a8bd 0f72 45be 4681 0cbe
00000180: c93b 11be bb91 eebd ec4b 5abe 2cfa 50be
00000190: 11e7 b5bd 6407 ffbd 2a83 f4bc dacd ca3d
000001a0: 23e5 1dbe 691f 5abc 3faa 12be 2984 1dbe
000001b0: 9f63 0140 59ce 8abc 7f9e 19be 6dec cc3d
000001c0: c9cb df3d 7845 863e 325a 9ebd 812d 87be
000001d0: b53e e1bd 94c0 743d 4f40 733c 16a1 07be
000001e0: 7209 933d dd80 043e 83b5 d73c 9252 443e
000001f0: 61f4 74be e6e6 0f3e 4d9b 50bd bb63 cbbe
00000200: 3084 f0bd 6bf4 d8bd f6a7 1fbe 6577 1abe
00000210: b807 73be b693 92bc 9b9a cd3d 138f acbe
00000220: 67bc 9bbe aa16 c2bc b192 a1bc 1f22 4dbc
00000230: 80df b2bd 52b5 393c dc22 92bd 4c05 d43c
00000240: 70bd 3cbf 75a7 1dbf d828 36bf 3698 80bd
00000250: 463e 3fbf 1e94 1abe 6972 7f3c 524b 5cbd
00000260: ff3c 8d3e a237 313e 773f 423d e999 d13d
00000270: 2a5f 033f 91f9 423e 05de 2c3e ae28 2b3e
00000280: 2aca 4c3e 1d7c 0f3e 93de 603e 2dc3 3d3e
00000290: 9198 063e 1c6a 533e 9146 c33d 31c9 2d3e
000002a0: 8d0a 963d 5d51 933d 7a47 373e 2d56 243e
000002b0: 4137 81bd db2b 983e a8aa 32bd c515 3f3e
000002c0: b2c8 21bc 53be 663d 2963 663d 470c fa3d
000002d0: 3059 42c0 8ac8 923d 66fd ce3e 0a22 7a3f
000002e0: 7fda 46bf 378f aabf b05f 82bb a22b 7c3e
000002f0: 0203 953e 14e9 f63d aaa4 bdbe 9c57 6c3e
00000300: c354 193f 4175 4d3e 188b 273e 36cb 033e
00000310: 5ad9 e63d 58a8 893e 5036 173e 4c96 1b3e
00000320: 8b3b 273e 5d8f 723e 992b 233e 3c62 c43d
00000330: 1dd6 0c3e 3939 c83e ed94 863e 4797 413e
00000340: 1b5b 5ebd 2d3d 1b3e f1ad 133e 474e 3e3e
00000350: 9317 27bc 25f1 cb3d a116 1c3e e5a7 ad3e
00000360: f3bb 0740 57e8 153f 4c5d b4be 547e 803d
00000370: 9825 9e3c be84 86ba 386b 213e 0664 07be
00000380: 7300 66be 36d0 323d e015 0d3d 61ee 2e3e
00000390: ef5f f2bd 2ae1 80bd 3fd7 513d b1d1 0ebd
000003a0: a628 78bd d4c0 42be 5b56 54bc bd2c 2a3e
000003b0: e1c5 d23b 8c57 823c 1f28 12bd d84b b4bd
000003c0: f913 893d 137f 10bd 642f afbd 850a eabc
000003d0: 20bd b33c 4cef 513d aff2 0dbd 0ddc 08be
000003e0: 704f 31be ac07 15bd 1407 de3d bad8 9cbe
000003f0: a7ba cbbf 206c 8fbe bba4 cc3e e5f2 7a3e
-0.61571884 -1.1056433 -0.76489127 0.7058127 -0.13569376 0.09349987 0.16511685 -0.09991741
-0.51522684 0.18751174 -0.059690937 0.050707247 -0.08285628 0.13984758 0.5402265 -0.049244486
0.20934294 0.06563662 0.028505623 0.040772807 -0.018084008 0.050849292 -0.0968886 -0.036029335
0.055248603 0.06151367 -0.030389216 -0.039757553 0.008192115 -0.085843146 0.03514301 -0.03230138
-0.049435433 0.21650667 -0.07881229 -0.15974739 -1.0534577 -0.70517826 -0.8070351 0.18500818
-0.6537719 0.17323741 -0.3637299 -0.6368017 -0.4236188 0.27496743 0.65346617 -0.1878153
0.3561637 0.49117622 0.3884178 0.71715134 -0.01234196 0.8999013 0.4957962 -0.5552225
-0.09142758 0.7835438 0.794697 -0.055604346 -0.019144425 0.35382447 0.6011187 -0.013153909
-0.0443443 0.6955879 0.28641555 -0.03572294 -0.198131 -0.074583136 -0.11008209 -0.15735151
0.71787816 -0.23346184 -0.07603457 0.10363386 0.95268124 -0.048236445 -0.16664757 -0.14680557
1.2123595 -0.11704215 -0.3146747 -0.13729505 -0.2660434 -0.20326842 -0.21617101 -0.22335555
-0.126184 -0.11561983 -0.016476164 -0.12761696 -0.03516977 -0.08234215 -0.19281791 -0.13721189
-0.14182962 -0.1164889 -0.21318024 -0.20407933 -0.08881963 -0.124525815 -0.0298477 0.09902544
-0.1541944 -0.013313153 -0.14322756 -0.15382446 2.0217054 -0.016944097 -0.15001868 0.10006032
0.10927541 0.26224875 -0.07732047 -0.26401904 -0.109982885 0.05975397 0.014846875 -0.13245043
0.07179536 0.12939782 0.026331669 0.19172123 -0.23921348 0.14052925 -0.050929356 -0.39724526
-0.11743963 -0.10593494 -0.15591416 -0.15084608 -0.23733413 -0.0178927 0.10039254 -0.33702907
-0.30417177 -0.023692448 -0.019723268 -0.012520342 -0.087340355 0.011334734 -0.07135555 0.025881432
-0.7372656 -0.61583644 -0.7115607 -0.06279032 -0.74704397 -0.15095565 0.015591242 -0.05378277
0.275856 0.17306378 0.047423806 0.10234434 0.51317084 0.19040515 0.16881569 0.16714737
0.19998994 0.14012189 0.21959905 0.18531485 0.13144137 0.20645946 0.09534944 0.1697128
0.07326231 0.07193253 0.1789836 0.16048498 -0.06309367 0.2972096 -0.04361978 0.18660648
-0.00987451 0.05633385 0.05624691 0.12209373 -3.0366936 0.07167156 0.40427703 0.9770819
-0.7767715 -1.3324956 -0.003978692 0.2462602 0.29103857 0.12056175 -0.3703969 0.23080295
0.5989496 0.2006426 0.16361654 0.12870488 0.11271925 0.2688625 0.14766812 0.15194052
0.16331308 0.23687501 0.159346 0.09589049 0.13753553 0.39106157 0.26285496 0.18905364
-0.054286104 0.15160055 0.14421822 0.18584548 -0.010198492 0.09958104 0.15243007 0.33917156
2.1208465 0.5855765 -0.3522743 0.06274095 0.019305035 -0.0010262949 0.15763557 -0.1322175
-0.22461109 0.043655597 0.03444469 0.17083122 -0.11834704 -0.06292947 0.051230665 -0.034867946
-0.06058564 -0.1901887 -0.012960042 0.16618629 0.0064322804 0.015910886 -0.035682794 -0.088035285
0.066932626 -0.035277437 -0.08553961 -0.02856947 0.021940768 0.051253602 -0.03465527 -0.13365193
-0.17315459 -0.03638427 0.10841194 -0.306341 -1.5916337 -0.2801218 0.3996943 0.2450672

fc.bias f4 [36]
00000000: 7c7b aabe db7a 3dbf d3e7 1dbf d118 a7be
00000010: 2954 f2be fb19 a6be d69d b7be f89a bfbe
00000020: c357 25be 6804 453e 15bc cb3e e5b3 cdbc
00000030: 1892 933e a9b9 693f 7fe2 743f bea4 bf3e
00000040: dc47 9f3e d361 a33f 8967 ab3f 370e 163f
00000050: 31bc 443d 4a52 203f 83f6 4c3f 5b62 de3e
00000060: df67 f1be e8ae 603c b065 f63d ecdb 23be
00000070: 7c88 29bf cf2d ddbe b04f d5be 118e 76be
00000080: 3f7a 40bf f327 1dbf 37fc 10bf 7634 29bf
-0.33297336 -0.7401559 -0.6168186 -0.3263612 -0.47329834 -0.32441697 -0.35862607 -0.3742292
-0.1614676 0.19239962 0.39791933 -0.025110194 0.28822398 0.9129892 0.95658106 0.37430376
0.31109512 1.2764229 1.3390971 0.5861544 0.048031036 0.62625563 0.8006365 0.43434414
-0.4714956 0.013713576 0.12031114 -0.16001862 -0.66223884 -0.43199012 -0.4166236 -0.24077632
-0.7518653 -0.6138908 -0.5663485 -0.66095674
