saved_checkpoints/DeepLinear6_100.pth (torch_old, 207112 bytes, 12 tensors)

fc1.weight f4 [100, 72]
-0.10479821 0.11604065 -0.004966319 0.32752782 -1.859732 -1.6885248 -1.5331222 -1.6631463
0.20928806 0.12149212 0.02986603 0.044181272 0.49133465 0.12237115 0.24699898 0.0005416185
-0.10074984 0.065909155 0.17032008 -0.001066691 0.33185294 0.17825015 -0.015582755 0.17683792
0.31180593 0.19240323 0.21453059 0.23764363 0.1360748 0.2633714 0.26615962 0.14030637
0.18448234 0.18051769 0.16881935 0.29230493 -0.14949296 -0.21106027 0.1643766 -0.16453898
1.3136121 1.535914 1.2515976 0.8749541 -0.3841994 -0.8923384 0.17580576 -0.067814
-0.6818827 -0.38791242 -0.1408049 -0.0079585 -0.23285593 -0.15525763 -0.25792578 -0.15372406
-0.17101406 -0.23207927 -0.22603665 -0.25957575 -0.16759604 -0.14487915 -0.08190888 -0.05473356
-0.19115748 -0.20797107 -0.17281324 -0.26710406 -0.078876756 -0.29846913 -0.03998861 -0.0656885
0.33867112 0.17938973 0.30501285 0.19306578 -0.08873796 -0.04419071 -0.05997856 0.13412361
0.07297741 0.06701359 0.05450114 0.106009744 -0.10414216 0.15094164 -0.04715546 0.08206525
0.16433893 0.07289703 -0.056264117 0.04428932 0.12784019 0.19992091 0.14505449 0.143139
0.18801871 0.2703465 0.22774117 0.09909668 0.35257202 0.41065434 0.35802567 0.36258766
-1.255945 -1.2504231 -1.6104368 -1.0426587 -0.07409769 0.009160623 -0.07804121 -0.14331396
-0.051894937 -0.0896827 -0.16665997 -0.24334764 -0.13903098 -0.022802748 -0.14907023 -0.33270064
-0.11213434 -0.20194423 -0.20532236 -0.00561624 -0.10038808 -0.14118665 -0.1604436 -0.12257767
-0.33764827 -0.24806203 -0.31629348 -0.25615585 -0.1700929 -0.4609813 -0.40584993 -0.21516569
-0.24798165 -0.39592966 -0.34557837 -0.10876968 1.1942332 1.5062673 1.574179 1.259049
0.09751837 0.15258092 0.38983974 -2.0988986 0.19485265 0.30445084 0.22445518 -1.7946392
0.033044264 0.114356704 0.17984979 -1.5123787 0.21390124 0.2392379 0.061493214 -1.287075
0.0060902964 0.17150788 0.11677919 0.6387004 -0.011800478 0.20176192 0.0638023 0.5249114
0.20660338 0.1071956 0.13536827 0.061548073 0.23607592 0.09565847 0.10809441 0.14034311
0.03874472 0.27339342 0.100029066 0.096036196 -0.14407662 -0.31990853 -0.117403395 1.2898986
-0.18986702 -0.20148985 -0.16197236 1.4773644 -0.44507584 -0.24806595 -0.16578722 1.1408937
-0.13891251 -0.23765808 -0.13443083 0.4154606 -0.28645724 -0.22054166 -0.18120363 -0.18269336
-0.2390025 -0.27316195 -0.27730563 -0.4032275 -0.0665046 -0.16497052 -0.12175577 -0.2726202
-0.22763921 -0.109872974 -0.14523704 -0.265353 -0.10758487 0.08780217 -0.07521206 -0.17376478
0.19407059 0.15549323 0.27042934 0.12839997 0.15349239 0.15554999 0.26799014 0.07662806
0.09193227 0.10024069 0.016040456 0.242187 0.10863264 -0.08090586 -0.004873635 0.17950094
-1.124371 0.014159823 0.02730748 0.16051628 0.042973995 -1.0116475 -0.031160932 0.057176102
0.27070558 0.10085649 -0.9838359 -0.0069831605 0.1816226 0.16600932 0.09089414 -2.2694774
0.14976913 0.3739148 0.19848077 0.15991119 -0.023313493 -0.128224 -0.3102808 -0.23463912
00000000: 72a0 d6bd b8a6 ed3d 81bc a2bb bab1 a73e
00000010: b30b eebf 9521 d8bf 593d c4bf fae1 d4bf
00000020: 9c4f 563e dcd0 f83d 9ba9 f43c 6cf7 343d
00000030: 3790 fb3e ba9d fa3d 4ded 7c3e 67fb 0d3a
00000040: ef55 cebd 61fb 863d 6368 2e3e 36d0 8bba
00000050: a1e8 a93e 3587 363e d04e 7fbc 0015 353e
00000060: 07a5 9f3e 5a05 453e e8ad 5b3e da58 733e
00000070: 3157 0b3e 9ed8 863e 1346 883e 79ac 0f3e
00000080: f0e8 3c3e a1d9 383e fbde 2c3e fea8 953e
00000090: af14 19be 2f20 58be 5752 283e e87c 28be
000000a0: 7124 a83f d498 c43f 5a34 a03f fefc 5f3f
000000b0: c9b5 c4be 4a70 64bf 6d06 343e 11e2 8abd
000000c0: dd8f 2ebf 759c c6be 292f 10be 5e64 02bc
000000d0: c971 6ebe dbfb 1ebe d90e 84be d769 1dbe
000000e0: 4f1e 2fbe 30a6 6dbe 2776 67be 1de7 84be
000000f0: 4c9e 2bbe 335b 14be d8bf a7bd 4c30 60bd
00000100: c9be 43be 5ef6 54be f4f5 30be ddc1 88be
00000110: 238a a1bd f2d0 98be 19cb 23bd b187 86bd
00000120: 4d66 ad3e f1b1 373e a52a 9c3e 09b3 453e
00000130: 3fbc b5bd 5101 35bd 14ac 75bd b357 093e
00000140: 2e75 953d 6c3e 893d 963c 5f3d a31b d93d
00000150: 7c48 d5bd 7290 1a3e 1526 41bd d311 a83d
00000160: 7748 283e 0a4b 953d 3475 66bd b868 353d
00000170: 8ae8 023e 11b8 4c3e 2a89 143e 0893 123e
00000180: fa87 403e db6a 8a3e fb34 693e 33f3 ca3d
00000190: 5284 b43e 4941 d23e 244f b73e 17a5 b93e
000001a0: cec2 a0bf dd0d a0bf cb22 cebf d775 85bf
000001b0: 88c0 97bd 7016 163c 12d4 9fbd e5c0 12be
000001c0: c98f 54bd 90ab b7bd e9a8 2abe 2030 79be
000001d0: 235e 0ebe d4cc babc dea5 18be bd57 aabe
000001e0: b0a6 e5bd 78ca 4ebe 0640 52be 7008 b8bb
000001f0: 4498 cdbd 3c93 10be 544b 24be 000a fbbd
00000200: 3ce0 acbe f903 7ebe 38f1 a1be dc26 83be
00000210: d52c 2ebe be05 ecbe 90cb cfbe 6554 5cbe
00000220: e7ee 7dbe 4bb7 cabe a6ef b0be a3c2 debd
00000230: a2dc 983f 5ecd c03f b37e c93f 8528 a13f
00000240: b6b7 c73d 2c3e 1c3e 1399 c73e 5b54 06c0
00000250: 7487 473e fbe0 9b3e 94d7 653e bdb6 e5bf
00000260: 6c59 073d d933 ea3d 8b2a 383e a095 c1bf
00000270: ed08 5b3e c8fa 743e 4fe0 7b3d e0be a4bf
00000280: 1c91 c73b c39f 2f3e ee29 ef3d df81 233f
00000290: cb56 41bc ad9a 4e3e c8aa 823d 9860 063f
000002a0: d68f 533e 5e89 db3d fb9d 0a3e d519 7c3d
000002b0: e3bd 713e 97e8 c33d 9a60 dd3d 1bb6 0f3e
000002c0: c9b2 1e3d 39fa 8b3e 0adc cc3d a0ae c43d
000002d0: d288 13be 0dcb a3be 3171 f0bd 661b a53f
000002e0: 806c 42be 5b53 4ebe 15dc 25be 471a bd3f
000002f0: fbe0 e3be 0005 7ebe 20c4 29be ce08 923f
00000300: 153f 0ebe a45c 73be 3ca8 09be 40b7 d43e
00000310: 86aa 92be acd5 61be 728d 39be f813 3bbe
00000320: 12bd 74be e2db 8bbe 01fb 8dbe d673 cebe
00000330: 9033 88bd 08ee 28be 175b f9bd e094 8bbe
00000340: 411a 69be 1505 e1bd 05b9 14be 59dc 87be
00000350: 7555 dcbd a0d1 b33d c808 9abd 65ef 31be
00000360: 71ba 463e 9e39 1f3e b775 8a3e 487b 033e
00000370: 1c2d 1d3e 7f48 1f3e 0136 893e 2cef 9c3d
00000380: fc46 bc3d fe4a cd3d 4667 833c deff 773e
00000390: ca7a de3d f9b1 a5bd 03b3 9fbb 18cf 373e
000003a0: 64eb 8fbf 9afe 673c f0b3 df3c 615e 243e
000003b0: 8005 303d aa7d 81bf 3645 ffbc 7d31 6a3d
000003c0: ec99 8a3e d98d ce3d abdc 7bbf ffd2 e4bb
000003d0: 46fb 393e 59fe 293e b526 ba3d 1e3f 11c0
000003e0: 145d 193e c371 bf3e 8b3e 4b3e c2bf 233e
000003f0: f0fb bebc 274d 03be 20dd 9ebe 3d45 70be

fc1.bias f4 [100]
-1.0204134 -0.21003087 -0.8119464 -1.6930511 -0.7086955 -1.4206183 -1.0064509 -1.2380923
0.17370358 0.9931904 -1.19509 -1.687022 0.64368725 -1.6543792 0.18692927 0.12690899
-1.4612107 -0.4272598 -0.12210719 -0.8738664 -0.26168603 -1.047057 -0.53264743 -0.89723027
0.4761197 -0.109234616 -1.0941825 -1.3338729 -0.26304367 -0.09212148 0.31091368 1.1699716
-1.0643208 0.44718835 0.9274005 -0.50944287 -1.5399091 -1.5133551 -1.4895653 -0.0059580486
-0.9908857 -1.0902132 -0.465821 0.04343186 -0.54133976 -1.0936973 -1.278002 0.009339434
0.11952877 -0.45096666 -0.8795472 0.61771065 0.44646853 -1.2110218 -0.7151587 -0.27406603
-0.31692648 -1.0998669 -1.6188091 -1.0778027 -0.3717294 -0.42833748 0.22602381 -0.15936477
0.20102464 0.06890706 0.41830245 -1.6975613 -1.1287552 -1.8867216 -0.088488944 -0.18485695
-1.6773885 -0.6467612 -0.49004868 -1.6244487 -0.9428538 -0.775269 0.5062991 -0.23304658
0.46970525 -1.3420265 0.47524762 -1.1837106 -0.3976239 -1.082089 -0.47985485 -0.7876013
-0.3261693 -0.14495425 -0.6801369 -0.5127008 -0.13945761 0.6324743 -0.2659594 -0.25796354
0.9697614 0.7310896 -1.5700576 -1.3602395
00000000: e89c 82bf 5512 57be b8db 4fbf e6b5 d8bf
00000010: 116d 35bf d2d6 b5bf 62d3 80bf cf79 9ebf
00000020: 5adf 313e ba41 7e3f b6f8 98bf 56f0 d7bf
00000030: b0c8 243f b3c2 d3bf 636a 3f3e 6ef4 013e
00000040: f408 bbbf ccc1 dabe 5613 fabd b5b5 5fbf
00000050: b6fb 85be f705 86bf 955b 08bf e2b0 65bf
00000060: f6c5 f33e 66b6 dfbd 2c0e 8cbf 59bc aabf
00000070: a9ad 86be 30aa bcbd 1430 9f3e a1c1 953f
00000080: aa3b 88bf dff5 e43e 1f6a 6d3f d96a 02bf
00000090: be1b c5bf 9fb5 c1bf 13aa bebf bc3b c3bb
000000a0: afaa 7dbf 1b8c 8bbf 1780 eebe 9be5 313d
000000b0: 3e95 0abf 46fe 8bbf 9295 a3bf 6d04 193c
000000c0: 80cb f43d 1ae5 e6be 012a 61bf 4922 1e3f
000000d0: 8697 e43e c302 9bbf a414 37bf 6252 8cbe
000000e0: 3044 a2be 70c8 8cbf 2335 cfbf 70f5 89bf
000000f0: 5153 bebe 0d4f dbbe c972 673e 8530 23be
00000100: 67d9 4d3e 251f 8d3d bd2b d63e b049 d9bf
00000110: 0d7b 90bf 1880 f1bf b139 b5bd 244b 3dbe
00000120: abb4 d6bf 2492 25bf a9e7 fabe efed cfbf
00000130: de5e 71bf 0778 46bf d19c 013f c3a3 6ebe
00000140: 357d f03e 86c7 abbf a853 f33e d483 97bf
00000150: 5c95 cbbe e481 8abf 89af f5be 3da0 49bf
00000160: aaff a6be e36e 14be 741d 2ebf 5c40 03bf
00000170: facd 0ebe d6e9 213f d52b 88be cc13 84be
00000180: 4842 783f b028 3b3f a6f7 c8bf 541c aebf

fc2.weight f4 [100, 100]
0.04577243 -0.055188764 -0.043675072 -0.11754541 -0.05094051 -0.071944475 0.5232633 -0.001767542
-0.33260927 -0.21677515 -0.2489908 0.11547309 -0.278903 0.079768576 0.14118941 -0.033044133
-0.11717051 0.18640462 -0.07928748 0.0045989496 0.22930539 -0.12726998 -0.025490286 0.058243837
0.3909906 -0.15154846 0.0492958 0.0570587 0.2979877 0.28954896 0.2637834 -0.47025362
0.0810181 -0.33009225 -0.2587923 0.012048452 -0.20008503 -0.005363474 0.7268116 -0.19163315
-0.37119624 -0.11902119 -0.10827558 -0.12788074 0.02130579 -0.09987183 -0.39125165 -0.018463502
-0.39672038 -0.11393695 0.075266436 -0.07343911 0.013193516 -0.07998187 -0.33732927 -0.47368434
-0.08723339 -0.33660597 -0.3455748 0.12076122 -0.16501309 0.79259497 0.03350507 0.064050935
0.059545647 0.017682046 0.27224168 -0.031681813 -0.062463287 -0.09478235 0.016935512 0.19572023
0.30824533 -0.014331704 -0.113440655 -0.26560348 0.0391043 0.043893322 0.057944007 -0.097840786
-0.04994225 0.048834488 0.015464696 -0.13082421 -0.056528304 0.00639734 -0.04515145 -0.22771688
-0.09608982 -0.2499883 0.10307058 -0.031546254 -0.24024865 0.18472649 -0.016777841 0.18811192
0.14644057 0.13404174 0.0908692 0.06120597 -0.11045413 0.05334915 -0.21003142 -0.21361406
-0.0056173108 -0.336698 0.5826488 -0.49066058 -0.08005904 0.01777803 -0.27015963 -0.24928683
0.01996295 0.030277915 0.06241011 -0.19762616 -0.1837787 -0.05833623 0.32374465 -0.050779402
-0.029591111 -0.06285337 0.03986733 -0.2286844 -0.044496376 0.06609476 -0.13132554 -0.12415757
0.21212885 -0.16661452 0.013757225 0.1754148 0.009068337 -0.0076989178 0.2053109 0.273072
-0.07871977 -0.1629134 -0.23162356 -0.15491296 0.48411688 1.1911016 -0.039434407 -0.09455963
-0.10063871 0.10679684 0.12841682 -0.28133243 0.30721095 0.16391735 0.076565705 0.047514845
0.15950349 0.057996083 -0.31579074 0.11299948 0.04633678 -0.1075397 -0.15475424 -0.07481769
0.010619423 -0.41519368 -0.008439874 0.21298519 0.19646338 -0.118107736 -0.18184702 -0.06241729
0.18562363 -0.01908116 -0.25473884 -0.040842507 -0.32132435 -0.006933977 -0.12895575 0.18444647
-0.102679774 0.09370853 -0.0111178 -0.104338065 0.05957638 0.06011847 -0.14475876 0.03278255
-0.5818079 -0.05470411 0.15332088 -0.25837958 0.029322822 0.019795947 0.11953571 -0.260234
0.13434264 0.5105232 0.15241294 0.14243999 -0.16232422 -0.10521583 -0.45168224 -0.20823939
-0.094010085 0.24601759 -0.24206176 0.09541993 -0.020155974 0.39906922 0.35967496 0.004307583
-0.5556898 0.38347164 0.018748173 -0.04305575 0.488189 -0.24682996 -0.09559278 -0.044966497
0.09667766 0.3311659 -0.03245362 -0.10597924 -0.08197631 0.0031383436 -0.44268876 -0.098497145
0.19275239 0.38761392 0.24222057 0.14271347 0.0021220036 -0.08395887 0.10154147 -0.112857215
-0.066548906 -0.4621441 0.579245 -0.05227558 0.02370076 0.07310596 0.065543465 -0.07050141
-0.13815588 -0.15387605 -0.018482681 -0.40520447 0.08737043 -0.35805923 -0.17389183 0.08834847
-0.2838863 0.108399786 -0.27258286 -0.5505905 -0.08617481 -0.09001979 -0.263308 -0.16887435
00000000: df7b 3b3d 9d0d 62bd a2e4 32bd a6bb f0bd
00000010: ffa6 50bd a057 93bd 95f4 053f deac e7ba
00000020: c34b aabe 4efa 5dbe 72f7 7ebe 287d ec3d
00000030: 60cc 8ebe b55d a33d f593 103e 4959 07bd
00000040: 18f7 efbd dae0 3e3e 7961 a2bd c9b2 963b
00000050: 08cf 6a3e 1053 02be 01d1 d0bc 1791 6e3d
00000060: ec2f c83e 852f 1bbe 65ea 493d 62b6 693d
00000070: d891 983e c33f 943e 9e0e 873e 15c5 f0be
00000080: d1ec a53d da01 a9be 6d80 84be df66 453c
00000090: 17e3 4cbe 15c0 afbb 5310 3a3f 7b3b 44be
000000a0: 6f0d bebe 62c1 f3bd 96bf ddbd 2bf3 02be
000000b0: 7b89 ae3c 9a89 ccbd 2352 c8be c540 97bc
000000c0: ef1e cbbe c757 e9bd 4a25 9a3d 3e67 96bd
000000d0: 9e29 583c 89cd a3bd 6cb6 acbe c186 f2be
000000e0: 6ba7 b2bd 9e57 acbe 2eef b0be a951 f73d
000000f0: 31f9 28be 81e7 4a3f 9d3c 093d 232d 833d
00000100: 23e6 733d f0d9 903c 4363 8b3e cac4 01bd
00000110: 81d9 7fbd 401d c2bd 58bc 8a3c e26a 483e
00000120: 55d2 9d3e 86cf 6abc 9353 e8bd 2efd 87be
00000130: d52b 203d 7cc9 333d b256 6d3d c060 c8bd
00000140: 3f90 4cbd ac06 483d a35f 7d3c c8f6 05be
00000150: 398a 67bd c7a0 d13b baf0 38bd 9d2e 69be
00000160: bdca c4bd effc 7fbe ab16 d33d a536 01bd
00000170: be03 76be f128 3d3e af71 89bc 69a0 403e
00000180: 84f4 153e 3d42 093e a219 ba3d 1cb3 7a3d
00000190: c635 e2bd a384 5a3d 7a12 57be a5bd 5abe
000001a0: 6b11 b8bb ae63 acbe 7928 153f dd37 fbbe
000001b0: fef5 a3bd 3ba3 913c 5d52 8abe 0c45 7fbe
000001c0: 5789 a33c 6409 f83c bea1 7f3d 835e 4abe
000001d0: 7c30 3cbe f9f1 6ebd dcc1 a53e 10fe 4fbd
000001e0: 0f69 f2bc 45b9 80bd ed4b 233d 3e2c 6abe
000001f0: d541 36bd b15c 873d 347a 06be 5346 febd
00000200: 4e38 593e ff9c 2abe fc65 613c f09f 333e
00000210: 5d93 143c 3447 fcbb 053d 523e 18d0 8b3e
00000220: d537 a1bd c5d2 26be ba2e 6dbe 81a1 1ebe
00000230: 2bde f73e 0476 983f f985 21bd 7ba8 c1bd
00000240: ab1b cebd 4db8 da3d b37f 033e ce0a 90be
00000250: c14a 9d3e f3d9 273e 7bce 9c3d ed9e 423d
00000260: e254 233e 4d8d 6d3d 53af a1be 456c e73d
00000270: a3cb 3d3d c63d dcbd e577 1ebe 043a 99bd
00000280: 17fd 2d3c 4494 d4be 6647 0abc ca18 5a3e
00000290: b22d 493e 78e2 f1bd 1b36 3abe 46a9 7fbd
000002a0: 1f14 3e3e 1850 9cbc 216d 82be 794a 27bd
000002b0: a084 a4be 6a36 e3bb fa0c 04be 89df 3c3e
000002c0: c649 d2bd 42ea bf3d 6f27 36bc 32af d5bd
000002d0: 5d06 743d c93e 763d a43b 14be ff46 063d
000002e0: 5df1 14bf 6b11 60bd 2600 1d3e 544a 84be
000002f0: 6a36 f03c 1c2b a23c 23cf f43d 643d 85be
00000300: 1e91 093e a6b1 023f 2312 1c3e cadb 113e
00000310: 5238 26be 667b d7bd e542 e7be b53c 55be
00000320: 5c88 c0bd 09ec 7b3e 0adf 77be 866b c33d
00000330: 241e a5bc cd52 cc3e 5127 b83e a026 8d3b
00000340: b041 0ebf 6556 c43e c595 993c 3a5b 30bd
00000350: e9f3 f93e fec0 7cbe 26c6 c3bd ca2e 38bd
00000360: f0fe c53d 948e a93e 16ee 04bd a50b d9bd
00000370: 32e3 a7bd abac 4d3b 1aa8 e2be dfb8 c9bd
00000380: e260 453e 5575 c63e ab08 783e 7b23 123e
00000390: 5011 0b3b a1f2 abbd f9f4 cf3d af21 e7bd
000003a0: cb4a 88bd 279e ecbe 6649 143f eb1e 56bd
000003b0: 1928 c23c 94b8 953d a73b 863d 0b63 90bd
000003c0: bc78 0dbe af91 1dbe fe68 97bc f676 cfbe
000003d0: 45ef b23d 8a53 b7be b310 32be 0bf0 b43d
000003e0: 8c59 91be b500 de3d fb8f 8bbe 80f3 0cbf
000003f0: 6b7c b0bd 4c5c b8bd 4ed0 86be 66ed 2cbe

fc2.bias f4 [100]
0.33388743 -0.36740163 -0.02188298 -0.80592656 0.0021569931 -0.086339876 0.018897489 0.057991233
0.35874596 -0.17879312 0.22761399 0.2654852 -0.36967897 -0.13699551 -0.6268018 -0.002597155
-0.22917247 -0.24308938 0.26961803 -0.32506755 -0.19790213 -0.88831466 -0.2182702 -0.43559483
0.4823469 0.2074778 0.1727533 -0.11118801 0.17565867 -0.30882567 -0.025508733 0.44412214
0.40631452 0.009791985 -0.08419261 0.7087959 0.035462778 1.024858 -0.33869892 -0.2111596
-0.45341563 -0.25417048 0.054628797 -0.48719484 0.17699327 0.020781146 0.33188078 0.13189305
-1.4948066 0.43289503 0.16853812 0.26451793 0.4260538 -0.24501064 0.11748671 -0.1953432
0.29328907 -0.32209885 0.12245143 0.124338835 -0.3271403 -0.11946893 -0.79976934 -0.09809062
-0.050021116 -0.09277591 -0.31362474 0.15446542 0.0135416845 -0.17301667 0.28391355 -0.02987585
0.36079237 -0.10683226 -0.19098149 -0.46630162 -0.18924911 0.06402028 -0.449784 -0.12946025
-0.07535721 -0.16171376 0.5812046 -0.0091101015 -0.22104575 0.17685325 -0.2022168 0.11079159
-0.068701744 -0.25761253 -0.10236031 0.023360547 -0.05966456 -0.0011998181 -0.5023736 0.1094959
-0.006652614 -0.030776676 -0.25357762 0.18284886
00000000: 4bf3 aa3e 111c bcbe ef43 b3bc 3451 4ebf
00000010: 575c 0d3b f6d2 b0bd e8ce 9a3c 3788 6d3d
00000020: 8dad b73e 8b15 37be a413 693e aded 873e
00000030: 9046 bdbe 8d48 0cbe 1576 20bf 0835 2abb
00000040: 30ac 6abe 6cec 78be 600b 8a3e 416f a6be
00000050: dba6 4abe 9768 63bf 3982 5fbe 4906 dfbe
00000060: 2cf6 f63e 0f75 543e 3ee6 303e 8ab6 e3bd
00000070: dedf 333e 661e 9ebe b1f7 d0bc fa63 e33e
00000080: 7508 d03e 906e 203c 2d6d acbd a673 353f
00000090: 6b41 113d 8c2e 833f f269 adbe 393a 58be
000000a0: 1826 e8be a222 82be 72c2 5f3d 9a71 f9be
000000b0: b93d 353e 393d aa3c 47ec a93e f90e 073e
000000c0: d355 bfbf 6ba4 dd3e 4295 2c3e e56e 873e
000000d0: b923 da3e 12e4 7abe df9c f03d 0c08 48be
000000e0: fc29 963e 24ea a4be d1c7 fa3d 5ca5 fe3d
000000f0: ef7e a7be 20ac f4bd afbd 4cbf bce3 c8bd
00000100: f1e2 4cbd 4c01 bebd 6c93 a0be 2f2c 1e3e
00000110: f1dd 5d3c 482b 31be 1e5d 913e 33be f4bc
00000120: c7b9 b83e dfca dabd a790 43be 16bf eebe
00000130: 85ca 41be 111d 833d 174a e6be 3a91 04be
00000140: e254 9abd 4b98 25be d3c9 143f 8942 15bc
00000150: d159 62be 0519 353e ec11 4fbe b3e6 e23d
00000160: 80b3 8cbd cae5 83be 48a2 d1bd 9e5e bf3c
00000170: d362 74bd 3743 9dba 8e9b 00bf 633f e03d
00000180: 2cfe d9bb 5e1f fcbc edd4 81be bb3c 3b3e

fc3.weight f4 [100, 100]
-0.06099987 0.12463279 -0.022072751 0.1354658 0.16572218 -0.27709612 -0.21623828 0.34478003
-0.10609049 0.08599165 -0.035382975 0.23185502 -0.17755482 -0.04474402 -0.18198267 -0.15518832
-0.2733603 -0.1591441 -0.03978576 -0.043384243 0.08817742 -0.06593491 -0.26128545 -0.15238836
0.26709324 -0.21953595 -0.094485894 0.16545863 0.43107814 -0.007101141 0.26995534 0.14857404
-0.1605346 -0.24966726 -0.014415904 0.12813309 -0.05059789 -0.38488692 -0.12751848 0.16270301
-0.09633357 -0.050505705 0.27036563 0.3910466 0.20196104 0.107871495 -0.09496305 0.0651474
-0.025833916 0.035467148 -0.08881447 0.19778676 -0.14013037 0.27301818 0.0052892803 -0.09572298
0.08297143 0.17692746 0.20478925 -0.33022007 -0.04443607 -0.05935199 0.22220221 -0.22138686
-0.3259004 -0.048623662 -0.013430893 0.085533455 0.16535409 0.014667395 -0.070342384 -0.039352547
0.17359605 -0.10580901 0.36903122 -0.017712908 0.18226306 0.39761966 0.10844237 0.12294477
0.08995361 -0.08236899 0.0027854335 -0.03265349 -0.3392187 -0.14356181 0.19401862 -0.18686485
-0.092105806 0.04791337 -0.11951548 -0.093725786 -0.14026956 -0.13834572 0.08352429 -0.19727288
-0.031194555 -0.14757301 -0.21086466 0.3390445 0.14304504 0.099569775 -0.0070604007 -0.14629392
-0.07109873 -0.08422313 0.030199531 -0.092821516 0.08836136 0.23323628 0.09984594 -0.29092368
0.15457734 -0.14301477 -0.097264424 0.14730489 0.364013 -0.16852319 0.06277401 -0.20800655
0.13802189 -0.25419122 -0.004956163 -0.08762273 -0.056741536 -0.108689204 -0.012446202 -0.038459577
-0.15377648 -0.049113173 0.33661935 0.1496371 -0.20409888 0.12916368 0.06257377 0.0040679607
-0.1635693 -0.21568736 0.009629913 -0.09302486 -0.23588288 -0.16100256 0.015318698 0.060973898
-0.026202828 -0.07265096 0.24895944 -0.15660617 -0.12774831 -0.14902197 0.29456952 -0.058025483
-0.035128754 0.021629684 -0.011612357 -0.13771895 0.3048654 -0.026922617 0.21984488 0.23459944
0.12795712 0.062263474 -0.061513145 -0.06783388 -0.111091614 -0.13422367 0.28896245 -0.04078698
-0.18679798 -0.13781929 0.17739815 -0.2574366 -0.1688322 -0.13056265 0.10241461 -0.09819764
-0.019743515 -0.0061670686 -0.03470783 -0.46878815 0.024130773 0.011482241 -0.28527352 -0.36127037
-0.18278724 0.23399931 0.11953335 -0.14784311 -0.30123013 -0.090846255 0.07367625 0.18001261
-0.027751256 0.06129528 0.18581712 -0.29289466 0.2930924 -0.08834882 -0.217496 -0.14063689
-0.16926654 0.038252994 0.29615968 -0.026238024 -0.008833368 -0.0019626953 -0.07449445 -0.02995813
0.09257222 -0.059181694 -0.01869702 -0.16665146 -0.022883184 0.2954402 -0.29779264 0.12879065
-0.4331686 -0.0795296 0.28590912 0.18091507 -0.17875764 0.08431135 -0.1469161 -0.121060394
0.07653183 -0.2988462 0.09197984 0.1766224 0.25358742 -0.04040727 -0.5648724 -0.085868165
0.054461896 -0.1634013 -0.3384276 0.14022754 -0.057352554 0.15302545 -0.028865566 -0.25599158
-0.060829744 0.123424456 0.14220653 0.01913222 0.11281553 -0.11835445 -0.15437213 -0.0666456
-0.084806584 -0.111398324 0.08067853 0.26206145 0.09124938 0.04979002 0.20836222 0.55050516
00000000: 00db 79bd 7a3f ff3d ead1 b4bc 8cb7 0a3e
00000010: 13b3 293e 8bdf 8dbe 916d 5dbe 0287 b03e
00000020: f945 d9bd 641c b03d bded 10bd 676b 6d3e
00000030: eed0 35be 8145 37bd aa59 3abe b0e9 1ebe
00000040: e2f5 8bbe acf6 22be 65f6 22bd adb3 31bd
00000050: 5d96 b43d e208 87bd 35c7 85be b20b 1cbe
00000060: 72c0 883e 08ce 60be d281 c1bd fd6d 293e
00000070: 46b6 dc3e b0b0 e8bb 9637 8a3e cb23 183e
00000080: 2f63 24be c6a8 7fbe af30 6cbc 5235 033e
00000090: bc3f 4fbd e60f c5be 3494 02be 9e9b 263e
000000a0: 894a c5bd 12df 4ebd 5d6d 8a3e 4337 c83e
000000b0: e0ce 4e3e bbeb dc3d fd7b c2bd 006c 853d
000000c0: a6a1 d3bc 0046 113d 5ce4 b5bd 9d88 4a3e
000000d0: 567e 0fbe 0ac9 8b3e b351 ad3b 690a c4bd
000000e0: edec a93d 792c 353e 46b4 513e 9b12 a9be
000000f0: 9902 36bd 131b 73bd fa88 633e 3db3 62be
00000100: 6bdc a6be 9b29 47bd 400d 5cbc 2a2c af3d
00000110: 9552 293e 834f 703c ab0f 90bd 2330 21bd
00000120: 2ac3 313e 65b2 d8bd a9f1 bc3e a91a 91bc
00000130: 2ba3 3a3e ce94 cb3e 0917 de3d 78ca fb3d
00000140: 9939 b83d 13b1 a8bd d28b 363b aabf 05bd
00000150: 13ae adbe de01 13be d1ac 463e 8059 3fbe
00000160: f8a1 bcbd cf40 443d 88c4 f4bd 4ef3 bfbd
00000170: d3a2 0fbe 80aa 0dbe c80e ab3d e701 4abe
00000180: b98b ffbc 611d 17be e8ec 57be 3e97 ad3e
00000190: 667a 123e 3deb cb3d ef5a e7bb 13ce 15be
000001a0: 369c 91bd 2d7d acbd 0265 f73c 3519 bebd
000001b0: cdf6 b43d 7ed5 6e3e 077c cc3d f3f3 94be
000001c0: 8649 1e3e 7772 12be 9232 c7bd 18d7 163e
000001d0: e95f ba3e 5891 2cbe a98f 803d abff 54be
000001e0: 9c55 0d3e 5a25 82be 4f67 a2bb 8c73 b3bd
000001f0: d069 68bd 7298 debd 28eb 4bbc ca87 1dbd
00000200: 9577 1dbe e52a 49bd 5f59 ac3e 783a 193e
00000210: 4cff 50be 7c43 043e ad26 803d 874c 853b
00000220: b67e 27be 26dd 5cbe c8c6 1d3c d183 bebd
00000230: 488b 71be dbdd 24be 47fb 7a3c c4bf 793d
00000240: 50a7 d6bc 07ca 94bd 39ef 7e3e 5e5d 20be
00000250: 74d0 02be 3799 18be d1d1 963e 21ac 6dbd
00000260: 2be3 0fbd bc30 b13c c141 3ebc 3206 0dbe
00000270: 5117 9c3e d28c dcbc 041f 613e d63a 703e
00000280: 3107 033e fc07 7f3d 35f5 7bbd 7dec 8abd
00000290: 0084 e3bd ee71 09be e3f2 933e 4010 27bd
000002a0: f847 3fbe 8020 0dbe dca7 353e bbce 83be
000002b0: 59e2 2cbe 37b2 05be c0be d13d d81b c9bd
000002c0: 27bd a1bc 1f15 cabb cc29 0ebd 0005 f0be
000002d0: e6ad c53c 0220 3c3c 5f0f 92be 6ef8 b8be
000002e0: 942c 3bbe 849d 6f3e e7cd f43d 2f64 17be
000002f0: d63a 9abe 9a0d babd 93e3 963d 3a55 383e
00000300: 9a56 e3bc c210 7b3d d846 3e3e 4af6 95be
00000310: 3510 963e 3af0 b4bd 45b7 5ebe 1e03 10be
00000320: 3554 2dbe 2caf 1c3d 3ea2 973e 20f1 d6bc
00000330: d5b9 10bc 90a0 00bb 8c90 98bd c16a f5bc
00000340: 8196 bd3d 8168 72bd 7e2a 99bc aea6 2abe
00000350: 8475 bbbc f043 973e 4778 98be b2e1 033e
00000360: 46c8 ddbe 6ae0 a2bd ae62 923e cd41 393e
00000370: 3e0c 37be 6eab ac3d 2d71 16be 83ee f7bd
00000380: b8bc 9c3d 5e02 99be ed5f bc3d 81dc 343e
00000390: 36d6 813e 1882 25bd 7a9b 10bf a6db afbd
000003a0: 7013 5f3d ac52 27be 6246 adbe cf97 0f3e
000003b0: 83ea 6abd b4b2 1c3e 7b77 ecbc 5411 83be
000003c0: 9c28 79bd f6c5 fc3d 979e 113e 2cbb 9c3c
000003d0: d40b e73d d163 f2bd ba13 1ebe 7d7d 88bd
000003e0: 13af adbd ce24 e4bd c93a a53d eb2c 863e
000003f0: f4e0 ba3d 9ff0 4b3d e85c 553e e8ed 0c3f

fc3.bias f4 [100]
-0.14009948 -0.0743489 0.029366048 -0.32326853 -0.14040436 -0.21354847 -0.15666647 0.19288465
-0.77811736 -0.08191996 0.46537387 -0.03162776 0.34124434 -0.13925931 0.36346275 0.04610978
0.092745006 0.26149192 0.17278515 -0.31895375 0.13943432 -0.45173088 -0.11312837 -0.22824402
-1.0227206 0.0713524 -0.5734014 -0.099756315 0.4759282 -0.11550386 -0.2723889 -0.6285613
-0.27245545 0.106658116 -0.07245895 -0.25386864 -0.2980783 -0.19085462 0.04330596 0.5365021
0.1499351 -0.30206385 -0.13164318 0.10694691 -0.18330541 -0.07792449 -0.048749723 0.28210473
0.41147998 -0.090832554 0.58672 -0.4785617 0.34573415 -0.19196792 -0.24016601 0.4109389
0.17983593 -0.2552001 -0.41370526 -0.028274817 0.101348646 -0.004835743 0.31416288 0.20370863
-0.20992471 0.21769053 0.050694432 -0.14069423 -0.030369062 -0.679553 -0.08715419 -0.12380757
-0.16760372 -0.20163175 0.60915273 0.0059144 0.5216567 -0.16120929 -0.14748965 -0.50977045
-0.40511078 0.16476573 -0.19692987 0.4240623 -0.100109026 -0.20871401 -0.029521352 0.03813985
0.28800893 -0.03860194 0.272589 0.33757737 -0.30827725 0.18691087 -0.20467745 -0.189483
-0.38064486 -0.30432 0.21933115 0.18307447
00000000: 3d76 0fbe 3c44 98bd 1191 f03c 7483 a5be
00000010: 29c6 0fbe 73ac 5abe 2d6d 20be 8e83 453e
00000020: b332 47bf a7c5 a7bd 7c45 ee3e 1c8c 01bd
00000030: 94b7 ae3e fe99 0ebe ca17 ba3e 9cdd 3c3d
00000040: 18f1 bd3d 45e2 853e 97ee 303e e84d a3be
00000050: dfc7 0e3e 4549 e7be d9af e7bd cdb8 69be
00000060: 82e8 82bf 3521 923d 6fca 12bf 0a4d ccbd
00000070: dcac f33e 4a8d ecbd 8f76 8bbe 65e9 20bf
00000080: 487f 8bbe 926f da3d 5c65 94bd 12fb 81be
00000090: b89d 98be 656f 43be 9761 313d 3458 093f
000000a0: 9688 193e 1da8 9abe 78cd 06be fb06 db3d
000000b0: 6ab4 3bbe e096 9fbd caad 47bd 0870 903e
000000c0: 81ad d23e 6b06 babd 4833 163f 0a06 f5be
000000d0: 1104 b13e 3d93 44be 14ee 75be 9566 d23e
000000e0: e926 383e 96a9 82be 2dd1 d3be 97a0 e7bc
000000f0: e18f cf3d 2775 9ebb f5d9 a03e ff98 503e
00000100: 81f6 56be 44ea 5e3e f7a4 4f3d 2612 10be
00000110: 8ac8 f8bc 2ff7 2dbf e57d b2bd d38e fdbd
00000120: 4fa0 2bbe 8e78 4ebe 6ff1 1b3f 95cd c13b
00000130: 4b8b 053f 0c14 25be 8707 17be 5180 02bf
00000140: ae6a cfbe 59b8 283e fca7 49be b21e d93e
00000150: f605 cdbd 20b9 55be c3d6 f1bc 8838 1c3d
00000160: e875 933e 111d 1ebd c990 8b3e f1d6 ac3e
00000170: 84d6 9dbe 9065 3f3e f796 51be d507 42be
00000180: e2e3 c2be d5cf 9bbe 5898 603e e077 3b3e

fc4.weight f4 [100, 100]
0.10258351 0.16900642 -0.080247186 -0.14532746 0.078629926 -0.066281095 0.00078186806 -0.0066267475
-0.01855311 0.36565992 -0.27248958 0.07275485 -0.043727394 0.060500715 -0.13633503 -0.06429766
-0.11355878 0.008524651 -0.044465166 -0.35718834 0.058721196 -0.050571013 -0.06078296 0.006402275
-0.1423635 -0.098305166 0.13620612 0.107584834 0.015910404 -0.208475 -0.1302845 0.02054361
-0.18231656 -0.16150297 -0.12830332 0.016408153 -0.047465872 -0.12368641 0.047924604 -0.07718862
-0.03328767 -0.065707445 -0.23749802 0.22827457 -0.05855332 -0.19776474 0.1153607 0.14911203
-0.054541074 0.19149725 -0.009021723 0.07114078 -0.23471718 -0.14833237 -0.0748269 -0.21924943
0.30686036 0.009745756 -0.09588132 -0.26163948 -0.113618456 0.08703537 -0.07737212 -0.051405285
-0.040867493 0.15108669 0.017264664 0.13154489 0.11685768 0.3967798 -0.01037657 0.02462821
-0.20403175 -0.18529905 -0.054045275 -0.07874002 0.01831553 -0.002943826 -0.058777448 -0.2342984
0.12828827 0.5579624 0.11498738 0.003921602 -0.076791756 0.014483854 0.040897388 0.08764363
-0.036324132 0.2938075 -0.015560656 0.111100994 -0.13194326 0.010279548 0.02291904 -0.26204938
-0.06334235 0.014086483 -0.056169 -0.2463114 0.15942769 0.17066774 -0.18233624 -0.23325191
-0.22413112 -0.036639534 -0.04699728 0.14863588 -0.118902236 -0.16557111 -0.34984636 0.05007881
-0.0930494 -0.28416333 0.27352396 -0.28763604 -0.18286489 0.24156477 0.09328523 -0.578405
-0.12841362 -0.030193586 0.12732586 -0.21086177 0.099656165 -0.17095986 0.17154023 -0.022725182
0.31341118 -0.20373219 -0.24415891 -0.09189734 0.0034838102 -0.06900993 -0.28151098 0.061010815
0.19935535 -0.10886249 -0.12144914 0.051113646 -0.15472032 -0.042579357 -0.12766546 0.09597357
-0.018214196 0.09443883 -0.09348273 -0.032308444 -0.04149082 -0.08413116 0.03079205 0.09636593
0.023239933 -0.028364431 0.13978171 0.014166561 0.00072691723 -0.04891481 0.09327455 -0.05006758
-0.048373025 -0.05600708 -0.049396433 -0.11723345 0.11857963 0.09572989 -0.38606766 -0.27949548
0.37378106 -0.17496118 -0.2119589 0.34139818 0.07405985 -0.08850121 0.059932202 -0.27236107
-0.3709254 -0.054873914 -0.13698876 0.0046444484 -0.36889416 0.123882405 -0.14338273 0.2744919
0.1355595 -0.3332724 0.31705433 -0.1278409 -0.09033239 0.14838727 -0.15850346 0.18077189
-0.10069928 0.035146423 -0.119355686 -0.42948222 -0.18409275 -0.061726682 -0.0051895063 -0.14302789
-0.08619762 0.2158303 -0.29557648 -0.010894568 -0.19809282 0.06869516 0.18142703 0.009831887
0.17574634 -0.15660404 -0.011446667 -0.05300092 0.21406104 0.21483971 -0.28841674 -0.1643078
0.030768408 -9.7607495e-05 0.08274474 -0.031585168 0.20261998 -0.13959652 0.30617237 0.06504932
0.19789796 -0.044846885 -0.38504672 0.21639653 -0.074858494 0.17249142 -0.21988517 -0.21408825
0.04185231 0.089582965 0.2290204 -0.11918757 -0.5024814 0.049402993 -0.044909194 -0.34860232
0.07713717 -0.17230481 -0.03770599 0.035081968 -0.101406455 -0.24471687 0.0064507066 -0.051077023
0.08055362 -0.0479255 0.04945635 0.050010923 -0.32754183 0.22157118 -0.20729308 -0.26046282
00000000: 4e17 d23d 0510 2d3e a358 a4bd b9d0 14be
00000010: ba08 a13d 62be 87bd 47f6 4c3a 3025 d9bb
00000020: b1fc 97bc c737 bb3e c183 8bbe 7f00 953d
00000030: 7f1b 33bd 99cf 773d 699b 0bbe 7eae 83bd
00000040: 8191 e8bd faaa 0b3c 1b21 36bd 64e1 b6be
00000050: a385 703d 8d23 4fbd 8ef7 78bd 2dca d13b
00000060: bdc7 11be 3854 c9bd 9e79 0b3e 7055 dc3d
00000070: 8956 823c 787a 55be 4d69 05be 134b a83c
00000080: 31b1 3abe 0961 25be f261 03be 646a 863c
00000090: 936b 42bd 4d4f fdbd 974c 443d 1115 9ebd
000000a0: a758 08bd a091 86bd ae32 73be cfc0 693e
000000b0: 9bd5 6fbd d782 4abe 3b42 ec3d d3b0 183e
000000c0: 7666 5fbd db17 443e d9cf 13bc 42b2 913d
000000d0: b359 70be 71e4 17be d93e 99bd ec82 60be
000000e0: cd1c 9d3e aaac 1f3c 6d5d c4bd 9cf5 85be
000000f0: cbb0 e8bd 9a3f b23d 4675 9ebd 598e 52bd
00000100: ac64 27bd 78b6 1a3e a06e 8d3c b4b3 063e
00000110: 1453 ef3d b926 cb3e 7d02 2abc 1ac1 c93c
00000120: b3ed 50be 09bf 3dbe 945e 5dbd 7342 a1bd
00000130: 730a 963c 34ed 40bb 9fc0 70bd ebeb 6fbe
00000140: 005e 033e a0d6 0e3f 817e eb3d c880 803b
00000150: ff44 9dbd b04d 6d3c 0584 273d 817e b33d
00000160: 9dc8 14bd f06d 963e 1ff2 7ebc eb88 e33d
00000170: 221c 07be 8d6b 283c b6c0 bb3c 562b 86be
00000180: a2b9 81bd feca 663c 7711 66bd 0e39 7cbe
00000190: 0341 233e 86c3 2e3e 5ab6 3abe 97d9 6ebe
000001a0: a182 65be 5613 16bd 3880 40bd 0134 183e
000001b0: 0483 f3bd 798b 29be 101f b3be 701f 4d3d
000001c0: af90 bebd db7d 91be 550b 8c3e 0845 93be
000001d0: ef40 3bbe c15c 773e 540c bf3d 5a12 14bf
000001e0: dc7e 03be 8a58 f7bc b661 023e 26ec 57be
000001f0: 8818 cc3d 1a10 2fbe 3ea8 2f3e 292a babc
00000200: 6e77 a03e 2c9f 50be cb04 7abe ac34 bcbd
00000210: a350 643b 1455 8dbd 3522 90be 7ae6 793d
00000220: cf23 4c3e 4cf3 debd 54ba f8bd 8b5c 513d
00000230: 016f 1ebe b167 2ebd bcba 02be cb8d c43d
00000240: f035 95bc 2569 c13d e073 bfbd dc55 04bd
00000250: 47f2 29bd f54c acbd 9c3f fc3c 805b c53d
00000260: ac61 be3c 865c e8bc f022 0f3e dd1a 683c
00000270: 978e 3e3a e55a 48bd ba06 bf3d aa13 4dbd
00000280: cb22 46bd ae67 65bd ea53 4abd 1718 f0bd
00000290: e1d9 f23d 080e c43d a9aa c5be 081a 8fbe
000002a0: 3b60 bf3e 0629 33be c10b 59be becb ae3e
000002b0: b1ac 973d 1f40 b5bd 787b 753d e972 8bbe
000002c0: efe9 bdbe 78c3 60bd c846 0cbe 7530 983b
000002d0: b2df bcbe 0fb6 fd3d ecd2 12be 348a 8c3e
000002e0: 1cd0 0a3e aea2 aabe f254 a23e bae8 02be
000002f0: 3000 b9bd d5f2 173e bb4e 22be 441c 393e
00000300: 6d3b cebd b2f5 0f3d c170 f4bd 18e5 dbbe
00000310: cf82 3cbe 1ed5 7cbd bc0c aabb e775 12be
00000320: 6188 b0bd 9e02 5d3e cd55 97be 217f 32bc
00000330: d8d8 4abe 0cb0 8c3d 02c8 393e ec15 213c
00000340: d9f6 333e cf5c 20be cd8a 3bbc 7e17 59bd
00000350: d132 5b3e f1fe 5b3e 5cab 93be 4e40 28be
00000360: 070e fc3c a0b2 ccb8 1376 a93d 735f 01bd
00000370: 9d7b 4f3e 64f2 0ebe a0c2 9c3e 9438 853d
00000380: c3a5 4a3e 5eb1 37bd d824 c5be 0d97 5d3e
00000390: 694f 99bd 97a1 303e 9429 61be f339 5bbe
000003a0: 546d 2b3d 4677 b73d 5384 6a3e 9d18 f4bd
000003b0: 9fa2 00bf cb5a 4a3d b4f2 37bd 017c b2be
000003c0: 18fa 9d3d ac70 30be 9971 1abd 1cb2 0f3d
000003d0: 30ae cfbd 0f97 7abe 7360 d33b 2436 51bd
000003e0: 4cf9 a43d 874d 44bd be92 4a3d 41d8 4c3d
000003f0: 90b3 a7be 8ee3 623e a344 54be 625b 85be

fc4.bias f4 [100]
0.40818965 0.07302874 0.11562087 -0.11060571 0.06300556 -0.95656556 -0.22575147 0.26633453
0.05381809 -0.20048863 0.2656824 -0.1091882 0.036827013 0.09062305 0.0024120505 -0.15264022
0.1500513 -0.28316274 0.22802082 0.0036631823 0.084266104 0.13108645 -0.123261854 -0.12401137
-0.38641903 -0.030666407 -0.115630195 0.1526934 -0.24379411 -0.40936834 0.087906055 -0.14436713
0.13053377 0.23601401 0.5739035 0.26736182 0.13293111 0.06251562 0.18743686 0.28329453
-0.07841275 0.21768917 -0.31734815 0.22418097 0.025929838 -0.15903448 -0.016978258 -0.92642474
-0.32941657 0.064762294 0.45469356 -0.11294758 -0.045761257 0.046355553 -0.14229544 0.14180101
-0.38363668 -0.16335392 0.32798582 -0.67192644 0.019903505 0.357438 0.26377323 0.22764114
0.028859856 -0.24077578 0.34948653 0.318989 0.17884454 -0.24511679 -0.11354055 0.24324359
0.18813877 0.41570985 -0.689757 0.3866396 -0.26607975 -0.16884565 -0.2226021 0.3922936
-0.18230823 -0.041892007 -0.8001146 0.4249935 -0.110448085 -0.09632731 -0.3648767 0.03424103
0.0991374 0.19076481 -0.08771638 0.10574718 -0.057554197 0.17128716 0.67563343 0.23585409
0.2667436 0.23776239 -0.6648705 -0.11832276
00000000: 3cfe d03e 1890 953d a2ca ec3d 3f85 e2bd
00000010: 0f09 813d 7be1 74bf 652b 67be 005d 883e
00000020: 5c70 5c3d e44c 4dbe 8607 883e 109e dfbd
00000030: ecd7 163d 9498 b93d 7e13 1e3b b84d 1cbe
00000040: 0ca7 193e b5fa 90be 4a7e 693e 0012 703b
00000050: b593 ac3d 873b 063e b670 fcbd acf9 fdbd
00000060: b7d8 c5be 1e38 fbbc 86cf ecbd a95b 1c3e
00000070: 2aa5 79be ba98 d1be 1708 b43d fad4 13be
00000080: a5aa 053e a8ad 713e 57eb 123f a6e3 883e
00000090: 181f 083e 3008 803d 73ef 3f3e fb0b 913e
000000a0: dd96 a0bd e9e9 5e3e 757b a2be b28f 653e
000000b0: d06a d43c efd9 22be fd15 8bbc 2c2a 6dbf
000000c0: 4aa9 a8be 18a2 843d 98cd e83e 1051 e7bd
000000d0: 2870 3bbd 52df 3d3d e5b5 11be 4934 113e
000000e0: 076c c4be 4046 27be c2ed a73e 5f03 2cbf
000000f0: ad0c a33c 1d02 b73e 490d 873e c21a 693e
00000100: 816b ec3c ed8d 76be e6ef b23e 8752 a33e
00000110: 0623 373e e5ff 7abe f387 e8bd d914 793e
00000120: 73a7 403e ecd7 d43e ea93 30bf a0f5 c53e
00000130: 9b3b 88be e0e5 2cbe cef1 63be b5da c83e
00000140: 02af 3abe f496 2bbd 4fd4 4cbf bf98 d93e
00000150: 9b32 e2bd 4147 c5bd 1ed1 babe 5340 0c3d
00000160: 8d08 cb3d da57 433e a5a4 b3bd fa91 d83d
00000170: f3bd 6bbd e765 2f3e 50f6 2c3f bc83 713e
00000180: 9e92 883e fc77 733e f434 2abf 3453 f2bd

fc5.weight f4 [100, 100]
-0.12654866 -0.38091272 0.0061478233 -0.08184759 0.10282626 -0.12493086 -0.14499965 -0.14518477
-0.1481241 -0.2655442 -0.15444028 0.080359265 0.07390052 -0.25788486 0.08216301 -0.22940823
-0.14068645 0.1165921 -0.10225476 0.0024914055 -0.17186345 -0.026397705 -0.002730993 -0.3550003
0.081502 0.004275901 -0.16900702 0.041084763 -0.0021801826 -0.26530623 -0.3302721 0.03072512
0.1677948 -0.017137194 0.0056173997 -0.21151593 -0.058392 0.07730046 -0.33187774 -0.10312953
-0.07756199 0.059066094 0.011553366 0.015100728 -0.4125194 -0.19008523 -0.15944818 -0.16390908
-0.116451964 -0.2973303 0.05122134 -0.1647555 -0.005822212 -0.15433845 -0.015766649 0.034227166
0.014997335 -0.14346647 -0.031533137 0.24180834 0.08623735 0.093540534 0.111293375 -0.29063404
0.11433296 0.19288278 0.15704869 -0.34371862 0.12756467 -0.12835349 -0.3867159 0.13945712
-0.10331036 0.0019606284 0.068436176 0.1909722 -0.10886607 0.44149697 -0.038715433 0.22763954
0.09581802 0.14703692 0.0146173 0.27514157 -0.037844446 -0.103754506 0.0036993104 0.01864458
-0.06792805 0.16193704 0.050869994 0.1464421 -0.31432554 -0.07262524 0.09047105 -0.044717576
-0.16016668 0.07089995 -0.2579032 0.114735626 0.16427203 -0.07711422 -0.06410875 -0.041237026
0.157732 -0.09506236 -0.18348397 -0.007566562 0.092681736 0.08144008 -0.05169183 -0.19926709
0.050358 0.11325393 -0.20761788 0.0097389 -0.16899687 -0.062041096 -0.00555117 -0.07031604
0.07844783 0.03986858 0.04171174 -0.054013252 0.0016454835 0.10860859 0.23395205 0.34542152
-0.085250266 -0.113134764 0.1896128 0.07439909 -0.060446672 -0.18978727 -0.25333035 -0.18581621
-0.104299925 0.23492378 -0.14585483 -0.1621947 -0.113126874 0.080385625 -0.03564253 -0.13949001
0.11051332 -0.07206242 -0.08778441 0.04042564 0.10943235 -0.19965419 -0.13022625 -0.030691825
0.27480918 -0.035060775 -0.07438101 0.27559385 -0.0690853 -0.011314391 0.094334535 0.033426557
-0.22207156 -0.25803736 -0.08905582 0.102336444 -0.055171724 0.049757067 -0.06356315 0.12968142
0.21725416 -0.07371715 0.097567506 -0.032081697 -0.20690942 -0.12936172 0.34896794 -0.17151979
0.003110135 -0.039513867 0.1347981 -0.06748814 0.22343494 0.16441818 0.03117235 -0.016268421
-0.10846577 0.04397515 0.006453416 0.11523584 0.02641273 -0.023827994 0.09477574 0.07049063
-0.08424269 -0.11101039 -0.18383455 -0.026657406 -0.056898262 -0.13207129 0.0979854 -0.07944485
0.075499706 -0.31425372 -0.07257946 -0.05939939 -0.2300143 0.21102427 -0.08248566 -0.29012856
-0.30035603 0.012803851 -0.10809865 -0.13290085 -0.08020225 -0.09486009 0.044975914 -0.07106771
-0.10223252 -0.2520517 0.028973114 0.07884694 -0.00454093 0.64115345 0.12043376 0.07264342
0.081062995 -0.08434512 0.08181524 -0.21523423 0.047980677 0.3245014 -0.21654262 0.07569734
-0.013606026 -0.1258951 -0.1298937 -0.03776026 0.06607982 -0.13868472 -0.24633962 0.07154692
-0.17392062 -0.10501534 -0.14642638 -0.019872522 -0.44173625 0.05689072 0.15267324 -0.11798052
-0.05406063 0.088444956 -0.03387654 -0.032570586 -0.21679361 -0.037093014 -0.1844694 0.021243438
00000000: f995 01be fe06 c3be ae73 c93b b69f a7bd
00000010: 9396 d23d c0db ffbd ca7a 14be 51ab 14be
00000020: d8ad 17be 69f5 87be 9825 1ebe 6693 a43d
00000030: 2859 973d 7c09 84be 1545 a83d fee9 6abe
00000040: 1c10 10be d7c7 ee3d f26a d1bd d946 233b
00000050: f9fc 2fbe 0040 d8bc 76fa 32bb 99c2 b5be
00000060: 85ea a63d db1c 8c3b 2d10 2dbe 7f48 283d
00000070: 65e1 0ebb 38d6 87be 6d19 a9be 3fb3 fb3c
00000080: 66d2 2b3e 4d63 8cbc 2a12 b83b a297 58be
00000090: 732c 6fbd b44f 9e3d e1eb a9be 9335 d3bd
000000a0: d2d8 9ebd 4aef 713d 544a 3d3c 0b69 773c
000000b0: be35 d3be b4a5 42be 6246 23be c8d7 27be
000000c0: 5e7e eebd ad3b 98be 78cd 513d aab5 28be
000000d0: 41c8 bebb e60a 1ebe 0f29 81bc c931 0c3d
000000e0: 62b7 753c e0e8 12be e428 01bd 9b9c 773e
000000f0: 359d b03d 2e92 bf3d c8ed e33d fccd 94be
00000100: 6627 ea3d 1083 453e 5fd1 203e e3fb afbe
00000110: 50a0 023e 196f 03be a0ff c5be d9cd 0e3e
00000120: 6294 d3bd e37d 003b 4428 8c3d 378e 433e
00000130: 2df5 debd e40b e23e 1394 1ebd 571a 693e
00000140: 3d3c c43d d990 163e 667d 6f3c 5bdf 8c3e
00000150: c702 1bbd 3e7d d4bd 2170 723b 85bc 983c
00000160: dd1d 8bbd d3d2 253e 0e5d 503d ebf4 153e
00000170: 47ef a0be 8bbc 94bd e348 b93d c729 37bd
00000180: bc02 24be fe33 913d e30b 84be 83fa ea3d
00000190: ed36 283e 0fee 9dbd 734b 83bd 28e8 28bd
000001a0: 7f84 213e 0eb0 c2bd 39e3 3bbe ecf0 f7bb
000001b0: eccf bd3d 0fca a63d d0ba 53bd ac0c 4cbe
000001c0: 3144 4e3d adf1 e73d c899 54be e88f 1f3c
000001d0: 840d 2dbe ce1e 7ebd 97e6 b5bb db01 90bd
000001e0: 42a9 a03d 3c4d 233d eed9 2a3d 003d 5dbd
000001f0: 44ad d73a 2e6e de3d 2091 6f3e 17db b03e
00000200: b197 aebd 33b3 e7bd dc29 423e 8d5e 983d
00000210: ee96 77bd 9857 42be 84b4 81be 9b46 3ebe
00000220: 339b d5bd dc8f 703e f85a 15be 5e16 26be
00000230: 10af e7bd 38a1 a43d e7fd 11bd 78d6 0ebe
00000240: cf54 e23d 7695 93bd 50c8 b3bd 5b95 253d
00000250: 111e e03d 2672 4cbe 085a 05be 6c6d fbbc
00000260: cab3 8c3e e39b 0fbd 1255 98bd a31a 8d3e
00000270: 987c 8dbd ff5f 39bc 7732 c13d 49ea 083d
00000280: ba66 63be 791d 84be e662 b6bd c595 d13d
00000290: bffb 61bd 11ce 4b3d 662d 82bd 35cb 043e
000002a0: e077 5e3e 04f9 96bd 79d1 c73d 1968 03bd
000002b0: 10e0 53be 6677 04be edab b23e e2a2 2fbe
000002c0: 68d3 4b3b 4bd9 21bd 8308 0a3e 3937 8abd
000002d0: 21cc 643e 3d5d 283e 285d ff3c 5a45 85bc
000002e0: 4d23 debd 491f 343d 2d77 d33b c500 ec3d
000002f0: 825f d83c ed32 c3bc c819 c23d 645d 903d
00000300: 6e87 acbd 6a59 e3bd 203f 3cbe a260 dabc
00000310: 270e 69bd b23d 07be 92ac c83d fbb3 a2bd
00000320: 979f 9a3d dde5 a0be 8aa4 94bd c64c 73bd
00000330: de88 6bbe bf16 583e 3eee a8bd bb8b 94be
00000340: 44c8 99be 3ec7 513c d362 ddbd 2917 08be
00000350: 1441 a4bd 0246 c2bd aa38 383d f38b 91bd
00000360: 495f d1bd ec0c 81be 0659 ed3c 817a a13d
00000370: 15cc 94bb a222 243f faa5 f63d 13c6 943d
00000380: 5b04 a63d 22bd acbd c08e a73d 5d66 5cbe
00000390: 6387 443d 0c25 a63e 59bd 5dbe 3507 9b3d
000003a0: cfeb 5ebc a5ea 00be db02 05be 81aa 1abd
000003b0: db54 873d 5e03 0ebe 7440 7cbe 3187 923d
000003c0: 3f18 32be 4812 d7bd ccf0 15be b3cb a2bc
000003d0: 412b e2be 3e06 693d 6056 1c3e c59f f1bd
000003e0: ae6e 5dbd a122 b53d 20c2 0abd bc68 05bd
000003f0: 25ff 5dbe d8ee 17bd 8ce5 3cbe b806 ae3c

fc5.bias f4 [100]
0.35398877 -0.057329793 0.5366662 0.25666994 0.24488653 0.43091863 -0.11073942 0.12723616
-0.076000616 -0.30645707 0.23707779 0.30552426 0.093005896 0.07480339 0.005510135 0.079029016
0.12425344 0.060748678 0.4678079 0.52770245 0.49248797 0.42493194 0.3221923 0.30192855
0.3041909 0.38665903 -0.0939703 0.24079713 0.2586793 0.44583198 -0.10370721 0.2312199
0.06254824 -0.11279282 -0.23019974 0.23080155 0.03151692 0.19441816 0.21422787 0.12697801
-0.0790023 0.2817154 0.49646538 0.047665093 0.14176309 0.08216493 -0.44308695 0.52105576
0.17617796 0.0040438515 0.2824846 0.4262233 0.4561741 0.030230362 -0.06846698 0.3435022
0.21323317 0.0037801834 0.036032762 0.08473861 0.23896964 -0.26573187 0.07045053 -0.052064244
0.31749898 0.0542499 -0.2180223 0.50146145 0.08196658 0.29403633 -0.20807822 0.07958561
0.0047340794 -0.12711102 0.31269395 0.097865775 -0.38023844 0.6435165 0.081426464 0.11576662
-0.2893609 0.23456037 0.37670827 0.08942266 -0.19295569 0.6964852 0.26064444 0.3863165
0.16299637 -0.206194 0.16438855 0.24458933 0.00425169 0.2870705 -0.10915103 0.29825968
0.07631769 0.0755045 0.29294726 0.2853233
00000000: 043e b53e a5d2 6abd f562 093f 3e6a 833e
00000010: 89c3 7a3e 5ea1 dc3e 59cb e2bd 324a 023e
00000020: 36a6 9bbd f1e7 9cbe 85c4 723e ad6d 9c3e
00000030: e079 be3d 8532 993d 5d8e b43b f7d9 a13d
00000040: 9678 fe3d 9bd3 783d 8484 ef3e 8217 073f
00000050: 6227 fc3e ae90 d93e 64f6 a43e 6196 9a3e
00000060: e9be 9b3e 2cf8 c53e 8073 c0bd 8693 763e
00000070: 9d71 843e 1744 e43e 7264 d4bd e9c4 6c3e
00000080: 4b19 803d ecff e6bd 7bb9 6bbe 3e57 6c3e
00000090: e317 013d 8e15 473e 8d5e 5b3e 8606 023e
000000a0: f5cb a1bd 003d 903e b630 fe3e 793c 433d
000000b0: 582a 113e 1646 a83d 4bdc e2be e963 053f
000000c0: ff67 343e 4982 843b d2a1 903e f139 da3e
000000d0: a78f e93e aaa5 f73c 6a38 8cbd 85df af3e
000000e0: cc59 5a3e f4bc 773b 1797 133d 708b ad3d
000000f0: 75b4 743e 020e 88be 5e48 903d 5141 55bd
00000100: 3a8f a23e 2535 5e3d 3d41 5fbe c75f 003f
00000110: 18de a73d ee8b 963e 7512 55be c8fd a23d
00000120: 5620 9b3b 6429 02be 6c19 a03e da6d c83d
00000130: 9dae c2be 7fbd 243f ebc2 a63d 0d17 ed3d
00000140: 1d27 94be 9830 703e e8df c03e 3a23 b73d
00000150: 2d96 45be db4c 323f 3073 853e 47cb c53e
00000160: 85e8 263e 8524 53be 7955 283e a075 7a3e
00000170: c351 8b3b e8fa 923e 938a dfbd 7eb5 983e
00000180: 734c 9c3d 1aa2 9a3d 2ffd 953e e515 923e

fc6.weight f4 [36, 100]
-0.10615682 0.3098033 -0.0566575 0.07378098 0.25480178 0.31250042 0.22499977 0.1595437
0.3332402 0.15475751 -0.027117193 0.35774922 -0.03267919 0.03757853 -0.42266256 -0.20503016
0.12662159 0.05905718 -0.052720215 -0.53940254 0.042969197 -0.034752835 -0.060424417 -0.3230013
-0.08610008 0.5779249 0.31810778 0.067212604 0.36885092 -0.581904 0.28632274 0.09762902
0.073639706 0.24818113 0.11048484 0.038794637 0.014180842 0.06948609 0.31927872 -0.0316304
0.17909136 0.37882376 0.42002302 0.11224134 0.17303896 0.008535561 0.26081347 0.5635066
0.28644484 -0.03575179 -0.5544441 0.27177826 0.5385549 0.018172735 0.10149168 -0.23767647
-0.19146566 -0.0873009 0.039611463 0.32956073 0.45599294 -0.14088054 0.1196718 -0.18862234
0.59000385 0.42398298 0.5071875 0.1825117 -0.4565157 -0.057188958 0.44661278 0.21758759
-0.14381671 -0.021093331 -0.10927128 0.03184812 0.15508716 -0.41705978 -0.1002182 0.13789035
0.024088582 -0.08401778 -0.10226947 -0.37912795 -0.09723903 0.59214085 -0.02415605 0.18240462
-0.27464145 -0.030174524 0.19866534 0.17381163 -0.22039849 0.102193885 0.065733306 0.44253057
-0.3405106 -0.2578272 0.52989674 0.06491788 -0.100057885 0.19240014 0.029925203 0.12233957
0.15910739 -0.5858334 0.0015062883 0.07171931 0.09519072 0.18664832 0.12276858 -0.41912115
0.011552177 -0.08226174 -0.26841626 0.18007714 0.1086471 0.11710254 0.19037086 0.1358191
-0.052466244 -0.329304 -0.13445534 -0.2180434 -0.06848408 0.6264754 0.33635852 0.093316235
0.39579138 -0.21482335 -0.26880595 0.01350926 0.06870219 0.16747145 0.20492846 -0.033071965
-0.29707673 -0.14913362 0.21461628 -0.14331098 -0.30677715 0.42306387 0.0004208429 0.085511364
0.04926345 -0.050542846 0.03170637 -0.079718284 0.116487615 0.038103543 0.3065192 0.07855009
0.32791042 0.17940636 0.02899928 0.12029791 0.20747326 0.10566426 0.21548724 0.5357089
0.27660048 0.03699676 0.054792233 -0.01785873 -0.20480704 0.087110765 0.3877147 0.16167389
-0.21122263 -0.057412338 0.34363943 0.053085603 -0.11072602 0.38089988 -0.15035862 0.23718272
0.0026235504 0.22164014 -0.18033035 0.24976785 -0.025679596 0.045942903 -0.025088795 -0.19417974
0.51402766 0.30918333 -0.36396566 -0.15563318 0.47154084 0.41876143 -0.36572868 -0.072007105
-0.2729721 0.11652207 0.24405676 0.10314419 0.225713 -0.13470736 -0.5364864 0.08685489
-0.0901382 0.061574217 0.35786566 -0.12300671 0.54686123 -0.22841659 0.01274701 -0.17284292
-0.18266459 -0.12087672 0.09372644 0.17680256 -0.050425693 -0.23546731 -0.112688735 -0.15793206
-0.08195461 -0.06833149 0.2812527 0.21967795 -0.13259429 -0.18474871 -0.07454915 -0.12227014
0.16047803 0.6359666 0.22266236 -0.19218068 0.34526762 -0.07580963 -0.17745647 0.090054214
0.17411964 0.17032951 0.12412299 0.083247736 -0.06316827 -0.12384705 0.1892262 0.021510413
-0.014947397 -0.13103922 -0.1946272 0.01819161 -0.2993936 -0.058664043 0.09607422 -0.30304167
-0.32220927 0.21766791 -0.027692277 -0.038932715 0.2292353 0.12263509 -0.007444174 0.25217915
00000000: bf68 d9bd 8a9e 9e3e b211 68bd 7c1a 973d
00000010: 6175 823e 0e00 a03e 5766 663e 6c5f 233e
00000020: 769e aa3e c178 1e3e e024 debc e82a b73e
00000030: 9dda 05bd f2eb 193d 3a67 d8be 6df3 51be
00000040: 17a9 013e f1e5 713d 27f1 57bd 4916 0abf
00000050: 7800 303d fd58 0ebd 987f 77bd 6d60 a5be
00000060: 3d55 b0bd e3f2 133f 06df a23e c3a6 893d
00000070: 07da bc3e a9f7 14bf e598 923e b9f1 c73d
00000080: 6ad0 963d 3223 7e3e e045 e23d 20e7 1e3d
00000090: c356 683c b94e 8e3d 8078 a33e e18e 01bd
000000a0: ba63 373e 30f5 c13e 420d d73e cade e53d
000000b0: 2031 313e bdd8 0b3c 5889 853e f841 103f
000000c0: e6a8 923e 7870 12bd 0cf0 0dbf 8526 8b3e
000000d0: bcde 093f fdde 943c dfda cf3d 7661 73be
000000e0: 930f 44be d0ca b2bd a13f 223d 2fbc a83e
000000f0: e877 e93e fd42 10be 7d16 f53d 3726 41be
00000100: 7e0a 173f 4c14 d93e 0ad7 013f 59e4 3a3e
00000110: 6dbc e9be f83e 6abd 6eaa e43e 48cf 5e3e
00000120: b044 13be eccb acbc 9fc9 dfbd 2d73 023d
00000130: 2bcf 1e3e dc88 d5be 333f cdbd 2133 0d3e
00000140: 6b55 c53c 8411 acbd a872 d1bd 0f1d c2be
00000150: 4225 c7bd 8b96 173f e9e2 c5bc 47c8 3a3e
00000160: ce9d 8cbe 9030 f7bc ed6e 4b3e adfb 313e
00000170: 24b0 61be 074b d13d 2f9f 863d 5e93 e23e
00000180: 6857 aebe ed01 84be 50a7 073f aaf3 843d
00000190: 26eb ccbd 8b04 453e b325 f53c 2b8d fa3d
000001a0: 0ced 223e 2df9 15bf a66e c53a 93e1 923d
000001b0: 5af3 c23d bd20 3f3e 186e fb3d 0c97 d6be
000001c0: 5845 3d3c d878 a8bd db6d 89be 2466 383e
000001d0: 5f82 de3d 75d3 ef3d 94f0 423e 2a14 0b3e
000001e0: d8e6 56bd 899a a8be a9ae 09be c546 5fbe
000001f0: 6241 8cbd b160 203f 2f37 ac3e 951c bf3d
00000200: 2ba5 ca3e a7fa 5bbe efa0 89be f155 5d3c
00000210: bcb3 8c3d a37d 2b3e c4d8 513e 7876 07bd
00000220: 711a 98be 7cb6 18be 5fc4 5b3e 1dc0 12be
00000230: e511 9dbe d49b d83e 94a4 dc39 9520 af3d
00000240: 79c8 493d 0406 4fbd 8ade 013d 5743 a3bd
00000250: 0f91 ee3d 7612 1c3d 16f0 9c3e dfde a03d
00000260: e0e3 a73e 4db6 373e e68f ed3c c05e f63d
00000270: df73 543e 8166 d83d b0a8 5c3e 3824 093f
00000280: 949e 8d3e ea89 173d d26d 603d 794c 92bc
00000290: f0b8 51be 2167 b23d 8b82 c63e d78d 253e
000002a0: bf4a 58be 3329 6bbd 82f1 af3e 4a70 593d
000002b0: 53c4 e2bd 4f05 c33e 9cf7 19be 07e0 723e
000002c0: dfef 2b3b a2f5 623e 85a8 38be 25c3 7f3e
000002d0: 045e d2bc a02e 3c3d 0487 cdbc 0ed7 46be
000002e0: 5197 033f 474d 9e3e b559 babe 4e5e 1fbe
000002f0: cd6d f13e e667 d63e ca40 bbbe 7678 93bd
00000300: 00c3 8bbe 1fa3 ee3d 04ea 793e 433d d33d
00000310: 4f21 673e baf0 09be 2c57 09bf fae0 b13d
00000320: 609a b8bd 3f35 7c3d 2b3a b73e f1ea fbbd
00000330: 19ff 0b3f 0ae6 69be d6d8 503c bcfd 30be
00000340: 6d0c 3bbe 378e f7bd a6f3 bf3d bb0b 353e
00000350: 2c8b 4ebd 581e 71be 5ac9 e6bd f1b8 21be
00000360: d2d7 a7bd 61f1 8bbd 5b00 903e 42f3 603e
00000370: ccc6 07be c42e 3dbe 3aad 98bd c468 fabd
00000380: 5a54 243e b5ce 223f 9a01 643e 03cb 44be
00000390: ebc6 b03e 1442 9bbd 26b7 35be 586e b83d
000003a0: 6b4c 323e dc6a 2e3e 3234 fe3d ca7d aa3d
000003b0: 5e5e 81bd 86a3 fdbd 83c4 413e 9b36 b03c
000003c0: ede5 74bc 252f 06be 5a4c 47be 9206 953c
000003d0: 1e4a 99be b549 70bd 90c2 c43d 4728 9bbe
000003e0: 9df8 a4be 56e4 5e3e eada e2bc e977 1fbd
000003f0: a9bc 6a3e 1b28 fb3d 42ee f3bb a01d 813e

fc6.bias f4 [36]
0.36174935 0.01871664 -0.15665686 0.17645136 0.008413544 0.62973005 0.52236515 0.19567516
0.42846218 1.1307393 0.964313 0.6445461 1.0910703 1.8982857 1.5271915 1.1071432
1.0859126 1.8685025 1.7071527 1.0044788 0.8414772 1.7108554 1.6759949 0.81614375
0.71008056 1.1642705 1.0556242 0.64138556 0.17575729 0.7633622 0.839774 0.075515874
0.091502294 0.033823635 0.12453074 -0.18464258
00000000: 3637 b93e a453 993c a86a 20be aaaf 343e
00000010: f6d8 093c fd35 213f b9b9 053f 125f 483e
00000020: 655f db3e 11bc 903f 37dd 763f f900 253f
00000030: 31a8 8b3f 07fb f23f 037b c33f deb6 8d3f
00000040: 2fff 8a3f 172b ef3f fb83 da3f c392 803f
00000050: 0d6b 573f 4ffd da3f 0087 d63f ccee 503f
00000060: d7c7 353f d106 953f b21e 873f d831 243f
00000070: b8f9 333e b56b 433f 6efb 563f 11a8 9a3d
00000080: 8e65 bb3d a78a 0a3d f909 ff3d f212 3dbe
