saved_checkpoints/DeepLinear4_150.pth (torch_old, 248026 bytes, 8 tensors)

fc1.weight f4 [150, 72]
0.024585733 0.06966263 0.2934702 -0.29851678 -0.05963216 0.10310198 -0.16202003 0.08849545
0.0066267904 -0.08693193 0.09277411 0.028615884 -1.1579051 -1.0830964 -1.0514752 -0.80763304
-0.1448817 0.057355672 -0.030824758 0.09858606 0.14481671 0.119213104 0.16326676 0.09326674
-0.057756323 0.33617097 0.11452203 0.2410046 0.051474735 0.19296639 0.015164745 0.049468763
0.27212608 0.276475 0.29837054 0.17152825 -0.26281974 -0.10162327 -0.15766887 -0.056675445
-0.22602318 -0.35800457 -0.056934956 -0.1931146 -0.22267109 -0.2256595 -0.5510996 -0.21583751
0.9699143 0.7474423 0.7711821 1.0491964 -0.09270629 0.1255733 -0.042824127 -0.32957986
-0.27414536 -0.23355715 -0.23688695 -0.27561346 -0.06771617 -0.06767695 0.004737341 -0.15566172
-0.14980419 0.038576394 -0.018480958 -0.21994111 -0.06994885 -0.03907213 -0.100295044 0.019384438
-0.6098724 -0.30230936 -0.46599877 -0.3075596 -0.5153916 -0.36455888 -0.5501623 -0.37063205
-0.5170944 -0.39926493 -0.11056832 -0.3389816 -0.79028594 -0.17849433 -0.18954082 -0.08594225
0.5517716 -0.008209367 -0.15709715 -0.23944345 0.33018163 0.27722585 -0.39390245 -0.32367307
0.91351235 0.12100469 0.17466792 -0.202222 0.73702633 0.080556944 -0.038284905 0.28672716
0.19820721 -0.00093482947 -0.23033889 -0.3522077 -0.110994674 -0.36266527 -0.16690727 -0.23204157
-0.45404467 -0.14227231 -0.27046183 -0.21511734 0.061144274 0.008650026 -0.22234371 -0.13801782
0.044986133 -0.04424011 -0.17144553 -0.2032014 -0.030135274 -0.10210812 -0.07761745 -0.19915934
-0.3799694 -0.059344843 -0.21342352 -0.09826863 -0.20281102 0.006092646 -0.04197821 -0.27331498
-0.47236356 -0.16026966 -0.08045355 -0.35626012 0.10462075 0.16917144 0.0737099 0.08656699
-0.04792625 0.09775909 -0.07909526 0.11753483 0.08011369 -0.03374469 0.13106461 -0.044252183
0.11808749 -0.24636823 0.047752332 0.0878735 0.06127331 -0.062184446 0.16431236 0.16971941
-0.122131705 0.19869503 -0.16604608 0.1014198 0.12345903 -0.29605055 0.4209883 0.09419695
0.025538733 -0.23302881 0.49532643 -0.1284985 -0.20267755 -0.5133662 0.12004413 0.031236565
0.06272033 -0.28304303 -0.22637756 0.071912624 -0.26537636 -0.36136314 0.0947888 -0.101773284
0.09427301 0.05584592 0.2518253 0.15381242 0.344186 -0.04459223 -0.07869191 -0.017581435
0.12032203 -0.30946162 -0.21962644 0.13232589 0.06401166 -0.3785898 0.2745162 0.015158814
-0.19855018 0.19168194 -0.019767461 -0.031149926 -0.04940632 0.4802342 -0.3439071 -0.20288108
0.17099923 0.5788946 -0.05041318 0.05485759 0.112075195 0.55310476 -0.44238785 0.0036360107
-0.23496711 -0.05049263 -0.107703015 0.15759917 -0.44387734 -0.2722294 -0.2694124 -0.30136544
-0.2637095 -0.10643482 -0.20953639 -0.41590625 -0.41153705 -0.2897345 -0.3097533 -0.28189987
-0.36482024 -0.43259507 -0.0379594 -0.22076693 0.81706953 -0.09210071 -0.32743883 -0.26040116
0.3473268 0.90620077 -0.22643693 -0.26188537 0.4530154 0.209596 0.63170666 -0.051154412
0.20505176 0.54402244 0.39146098 0.4459424 0.15568922 0.098126985 -0.078934714 0.11196473
00000000: 0568 c93c 48ab 8e3d ba41 963e 31d7 98be
00000010: da40 74bd 2227 d33d 94e8 25be 1a3d b53d
00000020: 8c25 d93b 5e09 b2bd 5a00 be3d dc6b ea3c
00000030: 3c36 94bf e7a2 8abf bd96 86bf 0ac1 4ebf
00000040: de5b 14be c8ed 6a3d 3484 fcbc 7de7 c93d
00000050: d54a 143e 0026 f43d 672f 273e a202 bf3d
00000060: e591 6cbd 9a1e ac3e 878a ea3d e9c9 763e
00000070: 2cd7 523d fb98 453e 8d75 783c c29f 4a3d
00000080: 1c54 8b3e 228e 8d3e 06c4 983e 1aa5 2f3e
00000090: 4f90 86be dc1f d0bd f373 21be 8324 68bd
000000a0: 9f72 67be 604c b7be a134 69bd d5bf 45be
000000b0: e403 64be 4913 67be dd14 0dbf 8204 5dbe
000000c0: 4e4c 783f 6158 3f3f 316c 453f 114c 863f
000000d0: ccdc bdbd 4a96 003e 5a68 2fbd b1be a8be
000000e0: c85c 8cbe 9b29 6fbe 7e92 72be 351d 8dbe
000000f0: c6ae 8abd 369a 8abd b23b 9b3b c965 1fbe
00000100: 4566 19be 4802 1e3d 6165 97bc 3e38 61be
00000110: 5841 8fbd 190a 20bd 7d67 cdbd 1dcc 9e3c
00000120: 9920 1cbf 4bc8 9abe 6497 eebe 7478 9dbe
00000130: b4f0 03bf 76a7 babe 70d7 0cbf 7cc3 bdbe
00000140: 4c60 04bf 746c ccbe a571 e2bd ff8e adbe
00000150: 2e50 4abf 38c7 36be fd16 42be 7e02 b0bd
00000160: e740 0d3f 9580 06bc 13de 20be aa30 75be
00000170: 910d a93e 8cf0 8d3e 95ad c9be 7ab8 a5be
00000180: f2db 693f 4fd1 f73d 26dc 323e 4913 4fbe
00000190: c2ad 3c3f 0afb a43d a2d0 1cbd e7cd 923e
000001a0: d5f6 4a3e 580f 75ba f5dd 6bbe 9154 b4be
000001b0: 2d51 e3bd 43af b9be bde9 2abe 4e9c 6dbe
000001c0: 8b78 e8be d5af 11be f979 8abe b847 5cbe
000001d0: 6b72 7a3d d7b8 0d3c 12ae 63be 8b54 0dbe
000001e0: 6143 383d 1e35 35bd 6b8f 2fbe 0714 50be
000001f0: 40de f6bc 101e d1bd e6f5 9ebd 6df0 4bbe
00000200: 598b c2be 9413 73bd b28b 5abe 1041 c9bd
00000210: b1ad 4fbe d2a4 c73b 58f1 2bbd f1ef 8bbe
00000220: a3d9 f1be bb1d 24be d5c4 a4bd ba67 b6be
00000230: 6743 d63d 473b 2d3e 37f5 963d 094a b13d
00000240: 514e 44bd eb35 c83d b2fc a1bd 1ab6 f03d
00000250: a512 a43d df37 0abd cd35 063e c741 35bd
00000260: dbd7 f13d f447 7cbe f397 433d 06f7 b33d
00000270: b9f9 7a3d 1eb5 7ebd 8041 283e edca 2d3e
00000280: 3020 fabd b676 4b3e fc07 2abe 2fb5 cf3d
00000290: 17d8 fc3d f093 97be c78b d73e 55ea c03d
000002a0: 9b36 d13c 1b9f 6ebe 6d9b fd3e 1c95 03be
000002b0: b48a 4fbe f86b 03bf b2d9 f53d d3e3 ff3c
000002c0: 8473 803d 04eb 90be 85cf 67be ed46 933d
000002d0: 69df 87be 9704 b9be a120 c23d 836e d0bd
000002e0: 3512 c13d b1be 643d 3fef 803e 0181 1d3e
000002f0: 2639 b03e 58a6 36bd 3929 a1bd f106 90bc
00000300: 656b f63d c171 9ebe c1e5 60be 7080 073e
00000310: 8c18 833d 86d6 c1be 638d 8c3e ad5c 783c
00000320: bd50 4bbe 4548 443e 5fef a1bc 212e ffbc
00000330: 485e 4abd 42e1 f53e 9714 b0be 0fc0 4fbe
00000340: 6c1a 2f3e 7032 143f 0d7e 4ebd 5ab2 603d
00000350: ae87 e53d 4698 0d3f a980 e2be 234a 6e3b
00000360: 389b 70be 5cd1 4ebd 6693 dcbd ad61 213e
00000370: e443 e3be a761 8bbe 6cf0 89be 924c 9abe
00000380: ee04 87be 80fa d9bd b590 56be aaf1 d4be
00000390: fcb4 d2be 1558 94be fc97 9ebe 2e55 90be
000003a0: b8c9 babe 1a7d ddbe 517b 1bbd ba10 62be
000003b0: 782b 513f 4c9f bcbd 10a6 a7be 4d53 85be
000003c0: d1d4 b13e c6fc 673f 15df 67be d715 86be
000003d0: a2f1 e73e 55a0 563e 87b7 213f 4a87 51bd
000003e0: 17f9 513e 0e45 0b3f 936d c83e 9052 e43e
000003f0: ff6c 1f3e cdf6 c83d 86a8 a1bd c44d e53d

fc1.bias f4 [150]
-0.668273 0.39568055 -0.6185545 0.12031712 0.31353623 -0.5333568 -0.8809184 -0.8079929
0.0776406 0.0408957 -0.18114637 -0.59914505 0.09101267 -0.2913263 -0.034999795 -1.4013239
-1.1220586 -0.14299805 0.4641387 -0.022083549 0.09092684 -0.92119354 -0.75676113 -1.2351567
0.21891268 0.61704665 -0.20910898 -0.6721689 -0.29025394 0.040479526 -0.60290825 0.43446854
-0.7992468 -0.15487893 -0.5344446 0.026693508 -0.4447267 0.73996556 -0.5352596 -0.6127612
-0.7439477 -0.9237378 -0.22075963 -0.37352666 -0.44685394 0.095795594 -0.51603454 -0.22157985
-0.98276997 0.2007169 0.40705565 -0.31853917 -1.3964934 0.5376998 -0.06167421 -1.0499122
-1.4602824 -1.284533 -1.31316 0.069762535 -0.02703204 -0.58368975 -0.75599366 -0.14430764
-0.93401945 0.05717054 -0.15694715 -0.004805109 -0.14789477 -1.4149126 -1.093419 0.1378062
-1.3419112 0.046782017 -0.43217644 -1.3194563 -1.0314904 -0.39738566 -1.1673715 -0.12695555
-0.68913215 -0.5900624 -0.5577598 -0.22195044 -0.5637224 -0.46741506 -1.4188775 -1.389106
-1.182725 -0.14475873 -0.023810202 -0.0086682355 -0.31303096 -0.83155745 -0.64735806 -1.2772987
-0.30549702 0.11942737 -1.4545156 -0.8184068 0.22421475 0.5686377 0.52287704 0.09025132
0.73697114 -0.9220741 -0.16119838 0.14052653 -0.47272393 -0.18280847 -0.28453696 -0.8896802
0.20572965 -0.81758904 -1.1259102 -0.35673988 -0.8998249 -0.14147893 -0.041252714 0.3394904
-0.28379157 -1.1940459 0.37957984 -0.21593697 -0.25034314 -0.029218737 -0.47957674 -1.2323521
-0.0829013 -0.07943995 -0.5854345 0.3079239 -0.35245255 0.7152604 0.19986069 -0.27859688
-0.8304945 0.0024908625 -0.029207809 0.068892 -0.4578802 -1.313201 0.58343977 0.73544514
-0.51482517 -1.0248072 -0.42192268 -0.51385087 0.43381757 0.040466942
00000000: f013 2bbf a496 ca3e 9659 1ebf d268 f63d
00000010: d287 a03e 128a 08bf de83 61bf 9fd8 4ebf
00000020: 0902 9f3d 4082 273d 6f7e 39be 9261 19bf
00000030: da64 ba3d b928 95be f25b 0fbd 955e b3bf
00000040: 9e9f 8fbf 156e 12be 96a3 ed3e 8fe8 b4bc
00000050: da37 ba3d 57d3 6bbf 19bb 41bf 9d19 9ebf
00000060: a52a 603e c5f6 1d3f aa20 56be 4313 2cbf
00000070: 2a9c 94be dccd 253d 3258 1abf a972 de3e
00000080: 709b 4cbf 9598 1ebe 5cd1 08bf 58ac da3c
00000090: 38b3 e3be 626e 3d3f c606 09bf ebdd 1cbf
000000a0: 5b73 3ebf 157a 6cbf d00e 62be e33e bfbe
000000b0: 0aca e4be 7b30 c43d d71a 04bf d4e5 62be
000000c0: d096 7bbf bb88 4d3e 9969 d03e 9117 a3be
000000d0: 4cc0 b2bf b2a6 093f 199e 7cbd 8663 86bf
000000e0: 89ea babf 946b a4bf a015 a8bf a9df 8e3d
000000f0: 4c72 ddbc b16c 15bf cd88 41bf 62c5 13be
00000100: e61b 6fbf a82b 6a3d c1b6 20be 2d74 9dbb
00000110: ba71 17be db1b b5bf 27f5 8bbf 121d 0d3e
00000120: bfc3 abbf 809e 3f3d 3b46 ddbe f2e3 a8bf
00000130: e107 84bf 2276 cbbe 6e6c 95bf a300 02be
00000140: f76a 30bf 540e 17bf 59c9 0ebf fa46 63be
00000150: 1c50 10bf 0751 efbe c79d b5bf 3ace b1bf
00000160: 8863 97bf a23b 14be 9d0d c3bc 3705 0ebc
00000170: 9845 a0be f3e0 54bf 42b9 25bf 867e a3bf
00000180: 1b6a 9cbe 5696 f43d 912d babf 1c83 51bf
00000190: 8d98 653e 3e92 113f 45db 053f afd5 b83d
000001a0: 24aa 3c3f 0c0d 6cbf 3011 25be 30e6 0f3e
000001b0: df08 f2be 2532 3bbe d4ae 91be 15c2 63bf
000001c0: cbaa 523e 844d 51bf d31d 90bf 9ca6 b6be
000001d0: ed5a 66bf dadf 10be 9bf8 28bd b0d1 ad3e
000001e0: 214d 91be 7fd6 98bf 4a58 c23e 951e 5dbe
000001f0: fa2c 80be 225c efbc 158b f5be b7bd 9dbf
00000200: 28c8 a9bd 6ab1 a2bd 09df 15bf 34a8 9d3e
00000210: a974 b4be 4e1b 373f 48a8 4c3e 40a4 8ebe
00000220: 4a9b 54bf bd3d 233b 3745 efbc 4017 8d3d
00000230: 466f eabe f816 a8bf 4f5c 153f 2246 3c3f
00000240: 95cb 03bf e22c 83bf 4006 d8be bb8b 03bf
00000250: 561d de3e aac0 253d

fc2.weight f4 [150, 150]
-0.07111437 0.18129319 0.0029271245 -0.12619345 -0.33249506 -0.001784333 -0.25954548 0.055199865
0.14012846 -0.31257224 -0.17103761 0.26636383 -0.1513072 0.022078887 0.1318844 -0.026379203
-0.2731826 -0.17692126 0.058118336 -0.10911528 0.17412777 0.09499128 0.44779563 -0.0016711905
0.1501885 -0.24381265 -0.016792363 0.14246064 -0.080772854 0.082715265 0.061912652 -0.044292815
-0.008381419 -0.016239967 -0.09839781 0.14271402 -0.0021407192 -0.17358115 -0.16702646 0.27743554
0.054303262 -0.01946549 0.043882634 -0.20143248 -0.059278145 -0.16850655 0.08290118 -0.28083858
-0.15837766 0.042005844 0.11787077 -0.0889904 0.33456963 -0.046588164 -0.18711731 -0.10540699
-0.24031526 -0.18528052 -0.116502136 -0.03615596 -0.093809456 0.10779747 0.09659369 -0.18336734
0.12072221 0.15029062 0.039956775 0.03221793 0.82370996 0.10339775 0.0038544005 -0.038579587
-0.0010046099 -0.091919795 -0.10833466 -0.11408958 0.053703733 0.06330296 0.21011035 -0.058199625
0.042374488 0.25148025 0.1449317 -0.10176762 0.15750104 0.28364733 -0.021618305 0.028549634
0.06603842 -0.052274987 0.14259638 0.07894978 -0.14249536 0.12908912 0.2974198 -0.24195892
0.071647584 -0.058460303 0.2373936 0.5766759 -0.356746 -0.20116201 -0.031484887 -0.14118661
-0.10643943 0.11319759 -0.23197709 -0.1292001 0.13078444 -0.07327976 -0.090452276 0.06367507
-0.102470845 0.41864786 0.047572516 0.015409165 -0.027528018 0.020961698 0.20668554 -0.049868863
0.10506012 0.014488819 -0.112834565 -0.010493155 0.13323897 -0.13703276 -0.13736351 0.013478264
0.07431698 0.058113948 -0.07503843 0.063883744 0.01867999 -0.22997954 0.057342228 -0.10394655
-0.1399309 0.3100543 -0.049469292 0.17965886 -0.100177616 0.07302161 -0.2536257 -0.18147796
0.02794014 0.13892153 -0.045264035 0.03826534 0.022093218 0.15967001 -0.1103933 0.15989967
0.41970512 0.2221512 0.2919829 -0.1742693 -0.07962958 -0.40638813 -0.09412035 -0.06135409
0.3677189 0.025403196 0.100033514 0.06740894 0.005380433 -0.08625219 -0.022252114 -0.15815131
-0.2927855 -0.18383114 -0.11991516 -0.20487222 -0.054301627 0.0497765 0.19971594 -0.44706318
-0.3065397 -0.30488333 -0.06017238 0.013071675 0.06816403 -0.23118673 -0.3016331 0.12734069
0.036011193 -0.00955202 0.5528412 -0.10747182 0.013789363 0.0755168 0.07633061 -0.050076045
-0.12599592 -0.3278681 0.015244192 0.041900493 -0.26052865 -0.15204695 -0.1593779 -0.029309614
0.08662073 -0.121939644 0.11289701 -0.026054172 0.36084992 0.06875477 -0.013019654 -0.098419435
0.016784688 0.21191306 -0.22901557 -0.15117034 -0.00014230981 0.09434886 0.09413913 -0.20656164
0.037193548 -0.11714764 0.12599336 0.54266804 0.47760746 -0.1539835 -0.14725399 -0.08613084
0.19538677 -0.27879092 -0.2233014 -0.19723518 -0.17715813 0.21310382 -0.21027587 0.2608926
0.038513444 -0.017755844 0.1893468 0.058622565 0.10732619 -0.061195903 -0.31606075 -0.017013676
0.0094607845 0.37716177 0.023171004 0.052987467 0.033521347 -0.052443225 -0.12660673 -0.24606748
-0.11701835 0.19748178 0.012515785 0.2631948 0.120834045 0.11883057 -0.055832114 -0.0253758
00000000: 69a4 91bd eca4 393e 00d5 3f3b db38 01be
00000010: cb3c aabe 48e0 e9ba 25e3 84be 4119 623d
00000020: d67d 0f3e 7809 a0be 7c24 2fbe d760 883e
00000030: 46f0 1abe c8de b43c b40c 073e 3319 d8bc
00000040: 97de 8bbe d92a 35be 7e0d 6e3d d577 dfbd
00000050: 8d4e 323e ca8a c23d 7845 e53e d90b dbba
00000060: 04cb 193e 06aa 79be 2390 89bc 34e1 113e
00000070: 3d6c a5bd 9f66 a93d 1f98 7d3d 626c 35bd
00000080: 3852 09bc ae09 85bc ca84 c9bd a023 123e
00000090: 4f4b 0cbb 42bf 31be fc08 2bbe 080c 8e3e
000000a0: 196d 5e3d 1776 9fbc 47be 333d 5144 4ebe
000000b0: a4cd 72bd fb8c 2cbe 18c8 a93d 13ca 8fbe
000000c0: c12d 22be 520e 2c3d 3b66 f13d 9940 b6bd
000000d0: b64c ab3e 3bd3 3ebd ae9b 3fbe 9fdf d7bd
000000e0: 3415 76be 2dba 3dbe ac98 eebd 4618 14bd
000000f0: 2c1f c0bd ecc4 dc3d ead2 c53d a6c4 3bbe
00000100: 353d f73d c9e5 193e b7a9 233d f3f6 033d
00000110: a8de 523f 33c2 d33d 1c9a 7c3b a105 1ebd
00000120: 1dad 83ba 7240 bcbd 90de ddbd cca7 e9bd
00000130: 72f8 5b3d fba4 813d 2b27 573e bb62 6ebd
00000140: df90 2d3d 05c2 803e fa68 143e 8b6b d0bd
00000150: f447 213e 393a 913e df18 b1bc ece0 e93c
00000160: 273f 873d 4c1e 56bd c904 123e 6cb0 a13d
00000170: 4eea 11be f02f 043e 6847 983e 14c4 77be
00000180: f8bb 923d 1274 6fbd 4f17 733e 08a1 133f
00000190: 69a7 b6be 6afd 4dbe 4cf6 00bd 3993 10be
000001a0: eafc d9bd 23d4 e73d 678b 6dbe 084d 04be
000001b0: 5bec 053e b313 96bd 0b3f b9bd 1368 823d
000001c0: 3cdc d1bd 0359 d63e 66db 423d b976 7c3c
000001d0: 7082 e1bc deb7 ab3c 60a5 533e 4b43 4cbd
000001e0: c329 d73d 8362 6d3c cf15 e7bd 7beb 2bbc
000001f0: cc6f 083e 5152 0cbe 05a9 0cbe f0d3 5c3c
00000200: 8033 983d e408 6e3d c0ad 99bd 7bd5 823d
00000210: c706 993c c27f 6bbe afdf 6a3d eee1 d4bd
00000220: 0c4a 0fbe 70bf 9e3e 50a0 4abd 7ef8 373e
00000230: ec29 cdbd 5b8c 953d 3adb 81be 5cd5 39be
00000240: b8e2 e43c 7241 0e3e c866 39bd 1ebc 1c3d
00000250: d6fc b43c 8980 233e e215 e2bd bdbc 233e
00000260: 97e3 d63e 9b7b 633e c87e 953e a773 32be
00000270: d514 a3bd 1b12 d0be 2cc2 c0bd 6d4e 7bbd
00000280: a745 bc3e 5d1a d03c 5fde cc3d b30d 8a3d
00000290: 584e b03b fda4 b0bd 114a b6bc 6bf2 21be
000002a0: fbe7 95be 3b3e 3cbe 1496 f5bd 06ca 51be
000002b0: 626b 5ebd 71e2 4b3d 5682 4c3e 77e5 e4be
000002c0: c6f2 9cbe ab19 9cbe 5077 76bd 942a 563c
000002d0: 9599 8b3d 37bc 6cbe a76f 9abe 9965 023e
000002e0: 7980 133d 1380 1cbc 0087 0d3f 301a dcbd
000002f0: c8ec 613c 8da8 9a3d 3953 9c3d 8a1c 4dbd
00000300: 1305 01be 54de a7be c7c2 793c da9f 2b3d
00000310: 0364 85be 32b2 1bbe f633 23be b71a f0bc
00000320: 3666 b13d 7ebb f9bd 8c36 e73d 8f6f d5bc
00000330: 52c1 b83e 4dcf 8c3d 6350 55bc 2190 c9bd
00000340: 0b80 893c bdff 583e 0f83 6abe 66cc 1abe
00000350: 0039 15b9 fa39 c13d 04cc c03d e584 53be
00000360: 4358 183d 1aeb efbd 6704 013e 4bec 0a3f
00000370: f788 f43e daad 1dbe c0c9 16be 5e65 b0bd
00000380: 7813 483e afbd 8ebe 1fa9 64be 05f8 49be
00000390: f168 35be e337 5a3e 8f52 57be b793 853e
000003a0: 46c0 1d3d b474 91bc 21e4 413e 371e 703d
000003b0: d5cd db3d 8ea8 7abd b7d2 a1be 4460 8bbc
000003c0: 6801 1b3c 591b c13e 1ed1 bd3c 6309 593d
000003d0: ae4d 093d b5ce 56bd 32a5 01be 1df9 7bbe
000003e0: 51a7 efbd aa38 4a3e 020f 4d3c 78c1 863e
000003f0: d777 f73d 715d f33d 37b0 64bd e9e0 cfbc

fc2.bias f4 [150]
-0.39886603 0.09685889 -0.17476934 0.28219607 -0.1093759 -0.26667902 -0.26336145 -0.23280115
0.069860995 -0.41561863 -0.42904857 -0.12366619 0.019128783 0.055664603 -0.23266271 -0.0661418
0.039438628 0.12639378 0.005187507 -0.1687307 -0.3805221 -0.20162106 -0.16764386 0.139373
0.14502157 0.048281062 -0.06518863 -0.28069144 0.094512254 0.09952666 -0.032052122 0.07097063
0.22554727 0.05001492 0.25733134 0.11078803 -0.12037557 0.036231037 -0.48902434 0.17324866
0.0734359 0.319961 0.32331705 0.21300344 -0.030157486 0.14552167 -0.10494559 0.36876896
-0.39289328 -0.29330805 0.21966627 0.23415479 0.07561122 -0.2721174 0.22788003 -0.052146524
0.16517273 0.02372148 -0.13862196 -0.33828184 0.37686673 0.0109537365 0.22754684 -0.2042393
-0.08409969 -0.009756907 -0.31264874 0.3696828 -0.1986915 -0.1034761 0.11748606 -0.104336984
0.15192194 0.2245586 0.158703 0.16494514 0.029572785 0.0360901 0.0944559 -0.07680188
0.16277657 0.011752083 -0.011121507 0.117583215 0.018224293 0.097223714 -0.2019602 0.009823985
-0.22451663 0.22271644 0.07854707 -0.08991473 -0.6025457 -0.30033356 0.037932433 -0.013740777
-0.17834193 0.7661113 0.08922355 0.012278528 -0.015394254 -0.056386396 0.3009761 0.2803322
0.17635654 -0.13501342 -0.043822847 -0.08279137 0.10514604 0.20455089 0.045408554 -0.33993426
-0.083100885 -0.14748181 0.055216704 0.10179323 -0.02887474 0.038185086 -0.23746967 0.104028866
-0.18738313 0.00930661 0.055787146 0.31808385 0.2266363 0.16634554 0.14399345 -0.123198
0.11804231 -0.15565322 -0.40562397 -0.12131516 -0.059333913 0.39442584 0.23601927 -0.08230812
-0.025403608 0.2608808 -0.027607143 0.22335988 0.010193173 0.30562016 0.034904428 0.0065131867
-0.12428294 0.0683555 -0.17936526 0.06466645 0.0023698402 -0.165333
00000000: 2b38 ccbe f45d c63d bcf6 32be 017c 903e
00000010: 7900 e0bd 278a 88be 50d7 86be 6d63 6ebe
00000020: 4813 8f3d f7cb d4be 41ac dbbe b344 fdbd
00000030: f7b3 9c3c 9100 643d 223f 6ebe 5a75 87bd
00000040: 668a 213d 5f6d 013e f6fb a93b bec7 2cbe
00000050: cbd3 c2be c075 4ebe d5aa 2bbe ccb7 0e3e
00000060: 8980 143e 5dc2 453d 9e81 85bd cab6 8fbe
00000070: a48f c13d a2d4 cb3d 1649 03bd 0d59 913d
00000080: ddf5 663e 72dc 4c3d efc0 833e d6e4 e23d
00000090: 7887 f6bd ff66 143d 6661 fabe 1968 313e
000000a0: 9065 963d eed1 a33e d089 a53e 931d 5a3e
000000b0: d50c f7bc a203 153e b7ed d6bd 49cf bc3e
000000c0: 4f29 c9be 792c 96be 32f0 603e 46c6 6f3e
000000d0: 0eda 9a3d f952 8bbe 6259 693e 9897 55bd
000000e0: 0a23 293e 8d53 c23c eaf2 0dbe 4733 adbe
000000f0: adf4 c03e 4d77 333c 0a02 693e 1b24 51be
00000100: 753c acbd 6fdb 1fbc 7f13 a0be 1047 bd3e
00000110: c975 4bbe 47eb d3bd 889c f03d a1ae d5bd
00000120: 6d91 1b3e b1f2 653e 0a83 223e 61e7 283e
00000130: a042 f23c 36d3 133d 1872 c13d 4e4a 9dbd
00000140: e7ae 263e cf8b 403c fb36 36bc 78cf f03d
00000150: 1d4b 953c 3a1d c73d a8ce 4ebe c8f4 203c
00000160: b0e7 65be c70f 643e 49dd a03d 3725 b8bd
00000170: 6f40 1abf 52c5 99be 0a5f 1b3d ff20 61bc
00000180: 449f 36be df1f 443f d6ba b63d e12b 493c
00000190: 2e38 7cbc 6cf5 66bd 8a19 9a3e b487 8f3e
000001a0: cf96 343e f540 0abe 967f 33bd 868e a9bd
000001b0: cf56 d73d ca75 513e 52fe 393d dd0b aebe
000001c0: cc30 aabd 7905 17be e92a 623d f878 d03d
000001d0: b88a ecbc f767 1c3d 402b 73be 160d d53d
000001e0: 5de1 3fbe c07a 183c 1081 643d e3db a23e
000001f0: 5913 683e 7c56 2a3e 0573 133e 3c4f fcbd
00000200: 2bc0 f13d 8f63 1fbe f2ad cfbe 1574 f8bd
00000210: 1e08 73bd 2ff2 c93e 09af 713e 2991 a8bd
00000220: 3a1b d0bc 2b92 853e 6028 e2bc 74b8 643e
00000230: 4401 273c 3f7a 9c3e f2f7 0e3d 926c d53b
00000240: 0e88 febd f8fd 8b3d 87ab 37be d86f 843d
00000250: 524f 1b3b 0e4d 29be

fc3.weight f4 [150, 150]
-0.018496603 -0.041351616 0.026950305 -0.154846 -0.10033671 -0.10118508 -0.030245917 0.22937492
0.022332588 -0.17589551 0.10498918 0.045164365 0.2103577 -0.25892323 -0.21749276 0.067853965
0.019401416 -0.039973732 -0.057944987 0.042686574 -0.015404697 -0.21352366 -0.058401704 0.12916124
0.16523845 -0.10309101 -0.107847616 -0.0087005645 -0.16121617 0.05469816 0.03070924 0.08599249
-0.39221787 -0.08878218 -0.2859593 0.082166076 0.046974495 -0.17223652 -0.18561754 -0.15452895
0.27478528 -0.2879106 0.15420762 -0.070799686 -0.12177017 -0.09472889 0.14829445 -0.04932159
-0.016798088 -0.08233779 -0.06656011 0.13336942 -0.056684826 -0.0061552837 0.14290233 0.20509918
-0.09160215 -0.04487109 0.18727185 -0.17940024 0.061124023 -0.19789518 0.18902117 0.007180195
-0.120077625 0.090400115 -0.09805265 -0.062456906 -0.100770846 -0.27377805 -0.13457416 0.07319929
0.13330208 -0.09642629 -0.15927136 -0.009087161 0.1751465 -0.28212216 -0.05186342 0.06816352
0.5841526 0.006254995 -0.3000379 0.17206976 0.23709325 0.1841526 0.1032345 -0.19781578
0.090529315 0.10174581 0.057245836 -0.02286836 0.041771922 -0.071383536 0.05655392 -0.08097901
-0.073265076 0.0098448 0.06388106 0.04139771 0.27186844 -0.0826649 -0.0473201 -0.108544014
-0.06638515 -0.29291207 0.0036022617 0.5139716 -0.17137292 0.020971453 -0.23909067 0.100220725
0.14969802 -0.15303136 -0.03917628 -0.27132976 -0.17585503 0.102437325 0.04243808 -0.14790288
-0.1876094 -0.47550997 -0.25217175 0.022418676 0.07595779 -0.08577943 -0.07389397 0.07015581
0.1270707 0.050920404 -0.11637129 -0.13404995 0.21010649 -0.18900387 -0.027386548 0.047641687
-0.28361115 -0.15220813 -0.0950229 0.08189845 0.047710396 -0.013754942 0.16152242 0.0681051
-0.1331488 -0.24180603 -0.11976277 0.16029072 -0.059335526 0.044991277 -0.04351546 0.0007328365
-0.2291743 0.1632657 -0.20176084 -0.06159914 -0.00867837 -0.14327338 -0.1364217 -0.03849987
0.267064 0.12686269 -0.061994016 -0.30245262 0.07954425 0.17571427 0.04431516 -0.06272622
-0.23160362 0.2034021 -0.11515401 0.05387592 0.25468194 -0.4148906 0.043926552 -0.024745684
-0.07655952 -0.10519895 -0.0052953 0.039143406 0.05743911 -0.11633373 -0.16630483 0.14059955
-0.0090097785 -0.3134973 0.053414676 0.1382211 0.17715673 0.2790272 0.024345625 0.16372441
-0.18816772 -0.06945782 -0.13370135 -0.13016382 -0.24318549 0.06257725 0.076802365 -0.09011932
0.078778826 0.12472427 0.13425557 -0.0011824633 -0.13038461 -0.09736625 -0.26122454 0.087141685
-0.009114403 0.1160371 -0.030412603 -0.061415296 -0.10449792 -0.04183045 0.12950215 0.06102829
0.17760707 -0.19061197 -0.289624 -0.23848557 -0.009251312 -0.020635583 0.053739738 0.124388516
-0.22953977 -0.10043941 0.1295012 -0.08784148 0.046354618 0.010775427 0.22804178 0.037336133
0.028526163 -0.103682496 0.08371031 -0.08791452 -0.3653277 -0.1362653 0.12243227 -0.077102855
0.1806935 0.20542657 0.040824197 -0.061486173 0.058286577 0.009228537 0.12950385 -0.09705202
-0.05812737 -0.093623176 -0.06055257 -0.09029162 -0.034091957 -0.087167345 0.18121995 0.03363741
00000000: 3086 97bc 5060 29bd e3c6 dc3c f38f 1ebe
00000010: 557d cdbd 203a cfbd 49c6 f7bc 42e1 6a3e
00000020: d5f2 b63c f41d 34be 9104 d73d 45fe 383d
00000030: 0268 573e 9691 84be 6cb6 5ebe 05f7 8a3d
00000040: b8ef 9e3c 7fbb 23bd b957 6dbd 1ed8 2e3d
00000050: fb63 7cbc f2a5 5abe a036 6fbd d842 043e
00000060: 4534 293e 6121 d3bd 36df dcbd d08c 0ebc
00000070: da15 25be 2e0b 603d f291 fb3c d51c b03d
00000080: c8d0 c8be 6ed3 b5bd 4269 92be b046 a83d
00000090: 5468 403d c55e 30be 8612 3ebe d63c 1ebe
000000a0: a8b0 8c3e 0569 93be 9ae8 1d3e 6dff 90bd
000000b0: a462 f9bd 3801 c2bd 80da 173e 7005 4abd
000000c0: 259c 89bc b7a0 a8bd ab50 88bd fe91 083e
000000d0: 592e 68bd 43b2 c9bb fd54 123e 8505 523e
000000e0: e899 bbbd c0ca 37bd 31c4 3f3e b2b4 37be
000000f0: 2f5d 7a3d 09a5 4abe c48e 413e d747 eb3b
00000100: 42eb f5bd b223 b93d d4cf c8bd d0d2 7fbd
00000110: f260 cebd a32c 8cbe cfcd 09be 82e9 953d
00000120: 5780 083e 267b c5bd 0818 23be 51e2 14bc
00000130: 9b59 333e 5172 90be bd6e 54bd 5199 8b3d
00000140: 068b 153f b3f6 cc3b 919e 99be 0e33 303e
00000150: 93c8 723e 8092 3c3e 9c6c d33d 3890 4abe
00000160: 6f67 b93d 1b60 d03d 9c7a 6a3d 6d56 bbbc
00000170: 0919 2b3d 8831 92bd 15a5 673d 53d8 a5bd
00000180: 000c 96bd 164c 213c 13d4 823d a590 293d
00000190: 5732 8b3e 374c a9bd b9d2 41bd 534c debd
000001a0: f0f4 87bd 92f8 95be ec13 6c3b a593 033f
000001b0: 627c 2fbe 53cc ab3c 2fd4 74be 8640 cd3d
000001c0: 704a 193e 41b4 1cbe 4f77 20bd bceb 8abe
000001d0: 5713 34be a9ca d13d 8dd3 2d3d da73 17be
000001e0: ae1c 40be 0b76 f3be a81c 81be 5fa7 b73c
000001f0: c28f 9b3d 20ad afbd b955 97bd d9ad 8f3d
00000200: d21e 023e ea91 503d 1254 eebd 6444 09be
00000210: 2826 573e 3b8a 41be c159 e0bc ee23 433d
00000220: 7b35 91be 73dc 1bbe 5e9b c2bd 60ba a73d
00000230: fa6b 433d 695c 61bc 2266 253e b07a 8b3d
00000240: 2958 08be 009c 77be 2f46 f5bd 4023 243e
00000250: cf09 73bd c648 383d 443d 32bd d31b 403a
00000260: abac 6abe 202f 273e 659a 4ebe 614f 7cbd
00000270: b92f 0ebc 42b6 12be 21b2 0bbe 0ab2 1dbd
00000280: 9dbc 883e 4be8 013e 70ed 7dbd 12db 9abe
00000290: 19e8 a23d 71ee 333e d083 353d 9b76 80bd
000002a0: 8029 6dbe a448 503e ded5 ebbd ffac 5c3d
000002b0: ac65 823e 8a6c d4be 54ec 333d 76b7 cabc
000002c0: 3dcb 9cbd 8c72 d7bd 3284 adbb d654 203d
000002d0: 4645 6b3d 6140 eebd d04b 2abe 54f9 0f3e
000002e0: c09d 13bc b882 a0be 59c9 5a3d d589 0d3e
000002f0: 9368 353e a7dc 8e3e 7a70 c73c 5fa7 273e
00000300: 0aaf 40be e73f 8ebd 02e9 08be aa49 05be
00000310: 9e05 79be 8028 803d 8f4a 9d3d 7a90 b8bd
00000320: cb56 a13d 706f ff3d 4b7a 093e e2fc 9aba
00000330: 8b83 05be f567 c7bd 39bf 85be 5777 b23d
00000340: 9454 15bc dca4 ed3d da23 f9bc 9b8e 7bbd
00000350: 0103 d6bd 6856 2bbd 369c 043e cdf8 793d
00000360: a1de 353e c92f 43be 9949 94be 9035 74be
00000370: d192 17bc f40b a9bc 331e 5c3d 68bf fe3d
00000380: 790c 6bbe 2db3 cdbd f69b 043e 3ce6 b3bd
00000390: 57de 3d3d 6b8b 303c c983 693e c6ed 183d
000003a0: b3af e93c 7d57 d4bd 5070 ab3d 870c b4bd
000003b0: 3b0c bbbe 2189 0bbe c5bd fa3d 1ae8 9dbd
000003c0: b807 393e 585b 523e 4637 273d edd8 7bbd
000003d0: e8bd 6e3d 4a33 173c a89c 043e 36c3 c6bd
000003e0: f716 6ebd 82bd bfbd f905 78bd d0ea b8bd
000003f0: 02a4 0bbd cb84 b2bd b991 393e 61c7 093d

fc3.bias f4 [150]
0.3110765 0.11973131 0.046680093 0.7237897 -0.31384167 0.09912319 -0.0006186291 -0.007523871
0.52086353 0.42874154 -0.1561526 -0.031131133 0.1685826 0.26038194 0.2666238 0.24797335
0.07950059 -0.15922108 0.34657952 0.018674603 0.40825102 0.18448806 -0.2791015 0.16556828
0.23137778 -0.015334939 0.1603455 0.23973002 0.48033097 -0.49479854 0.20461702 0.06745348
-0.0048737633 4.730791e-05 0.25455743 0.32410315 0.13313544 0.36341953 0.3273432 0.20142318
0.2026555 0.35003448 -0.100295134 0.21044926 0.38896054 0.23813756 -0.14486864 -0.19758473
-0.180492 -0.03342744 0.08701358 0.18108849 0.50122213 0.039264407 0.21100992 0.14910011
-0.09819816 0.27542797 -0.13967587 -0.08827254 0.06692706 -0.019695885 0.036802072 -0.062750116
-0.092583716 0.22655028 0.101539806 -0.26721504 0.11009028 0.25047836 0.119687475 -0.31467646
0.17384182 0.48732263 0.034501523 -0.12512857 0.39573684 0.14601758 -0.18839361 -0.16890024
-0.00893894 0.12456953 -0.14151333 0.19541374 0.47355062 -0.53782 -0.059229806 0.5281354
-0.15191896 0.1652915 -0.13574167 0.25141004 0.30825981 -0.12181141 -0.08817408 0.18049203
0.57866114 0.77821136 -0.07834091 0.35432926 -0.11222607 -0.035192084 -0.10381823 0.11533471
-0.06796276 0.15304655 -0.22247963 -0.02028499 0.4341364 -0.019681204 -0.055027403 -0.3979578
0.37482095 0.56838447 0.54558384 -0.40886444 -0.10233478 0.16356663 0.16036023 0.11955217
-0.039965812 0.23126915 0.47565916 -0.0387059 -0.09325389 0.02060198 -0.21584152 0.087521434
-0.07182088 0.26558208 0.15906528 0.009785465 0.19982143 0.2648273 0.15103891 0.47795543
-0.018341795 -0.15883632 -0.12704556 0.2073055 0.13259321 0.32768106 0.2958077 0.62125635
0.4169338 -0.047848344 -0.05656107 0.025362706 0.19829866 0.2874979
00000000: 6b45 9f3e b035 f53d a033 3f3d 484a 393f
00000010: dbaf a0be 1901 cb3d 7f2b 22ba ce8a f6bb
00000020: 5057 053f 0384 db3e 78e6 1fbe b806 ffbc
00000030: eba0 2c3e c850 853e ea82 883e baec 7d3e
00000040: 35d1 a23d da0a 23be df72 b13e 7bfb 983c
00000050: 4706 d13e 70ea 3c3e 64e6 8ebe bb8a 293e
00000060: 4cee 6c3e 653f 7bbc 9c31 243e c97b 753e
00000070: f1ed f53e 3c56 fdbe 2087 513e 0d25 8a3d
00000080: 17b4 9fbb 7b6c 4638 5a55 823e d9f0 a53e
00000090: a854 083e 2012 ba3e 8799 a73e e141 4e3e
000000a0: ec84 4f3e b837 b33e 8967 cdbd 0380 573e
000000b0: d625 c73e 55da 733e 7258 14be a753 4abe
000000c0: e5d2 38be 36eb 08bd 2d34 b23d 436f 393e
000000d0: 1850 003f b7d3 203d fc12 583e b3ad 183e
000000e0: 1e1c c9bd e504 8d3e 3107 0fbe 3cc8 b4bd
000000f0: 0e11 893d 4459 a1bc c5bd 163d 2283 80bd
00000100: 889c bdbd ccfc 673e 1af4 cf3d 69d0 88be
00000110: 0377 e13d b33e 803e b51e f53d 461d a1be
00000120: 9703 323e 5a82 f93e 7851 0d3d b421 00be
00000130: 059e ca3e a285 153e 41ea 40be 2ff4 2cbe
00000140: a274 12bc 4f1e ff3d dfe8 10be 8a1a 483e
00000150: 3a75 f23e 92ae 09bf f49a 72bd e233 073f
00000160: a590 1bbe 2d42 293e ddff 0abe d1b8 803e
00000170: 3bd4 9d3e 4378 f9bd 9d94 b4bd e7d2 383e
00000180: 2323 143f dc38 473f 3371 a0bd a56a b53e
00000190: c8d6 e5bd 9325 10bd a79e d4bd 9b34 ec3d
000001a0: 0f30 8bbd 3cb8 1c3e b3d1 63be b52c a6bc
000001b0: 2047 de3e 7a3a a1bc 6a64 61bd 20c1 cbbe
000001c0: 88e8 bf3e a581 113f 62ab 0b3f ae56 d1be
000001d0: e694 d1bd 037e 273e 7935 243e c5d7 f43d
000001e0: 31b3 23bd d2d1 6c3e 9989 f33e 148a 1ebd
000001f0: e5fb bebd 7cc5 a83c 8f05 5dbe 703e b33d
00000200: d316 93bd 60fa 873e 02e2 223e 3753 203c
00000210: fd9d 4c3e 7297 873e f2a9 1a3e 93b6 f43e
00000220: 8841 96bc fda5 22be 3b18 02be e547 543e
00000230: 84c6 073e d0c5 a73e 1b74 973e a80a 1f3f
00000240: 5978 d53e a0fc 43bd 95ac 67bd 73c5 cf3c
00000250: ce0e 4b3e ed32 933e

fc4.weight f4 [36, 150]
0.28119728 0.10552298 -0.06406706 0.5951424 -0.02104127 0.040894218 0.015521211 0.41027698
-0.28555033 0.017133642 0.34140506 0.14277214 -0.09927306 0.16555876 -0.20187384 -0.032940492
0.2953072 0.1045249 -0.1699855 -0.19010824 0.33012578 -0.10850232 0.013728601 -0.5482084
-0.08782717 0.17930746 -0.25478742 0.04158792 0.082831055 -0.09154256 -0.3792779 0.31932706
0.51639736 0.14634807 0.488728 0.05658536 0.44826913 0.031857595 0.0807182 0.03401673
0.32171208 0.38892305 0.25315022 -0.103841595 -0.38479528 0.26811174 0.02189924 0.014148641
-0.023331746 0.2806393 -0.028248465 -0.11145201 -0.62824917 0.10450273 0.01656508 -0.12600902
-0.17949802 0.5996264 -0.20066008 0.13205117 -0.13216476 0.02361335 0.045130085 0.006411302
0.17106916 -0.051175956 -0.25081602 0.17698821 0.071441606 -0.31396517 -0.18080074 0.4786265
-0.083915524 0.44260418 0.22290297 -0.05782915 0.26720962 0.14248404 0.034784462 -0.0706856
-0.1272382 0.14149919 0.14477533 -0.1106582 -0.21163286 0.28211904 -0.28756022 -0.08080716
0.14086923 -0.19365253 0.34649846 -0.071817465 -0.1730876 -0.29522777 0.1834565 -0.07155376
0.39252904 0.10137003 0.006632025 -0.024492748 0.29031217 0.4193788 -0.09384624 0.0064250412
-0.15871333 0.04178957 0.117815025 0.047975566 -0.059093047 0.21747704 0.12971301 0.2281373
0.34830564 0.62358004 0.18503535 0.7332895 0.18309784 0.046443142 -0.292339 -0.04057839
-0.10449875 0.118014865 -0.115367025 -0.42702773 0.035648417 -0.14809312 0.11459622 -0.21504323
-0.06782335 0.11277926 -0.1166436 -0.08007478 0.09423963 0.1529217 -0.14228202 0.32527262
-0.13047308 0.15454772 0.017060734 0.321245 -0.20940104 0.2131678 0.036633197 -0.2239758
-0.44483984 -0.07988266 -0.08523234 0.41914266 0.20533976 -0.25419867 0.15965125 0.04851988
-0.011501158 -0.15738177 0.11773901 -0.057878144 0.20283173 0.40666455 -0.2066907 0.15240327
0.3399888 0.15610087 0.03465832 0.11836965 0.04130184 0.10160699 0.01176584 -0.16207401
-0.049366057 -0.23970333 -0.4074365 0.055712998 0.42659095 -0.06370619 -0.01078324 0.16395009
0.19128874 -0.027463563 -0.06286071 0.07729178 0.11524606 -0.11442408 -0.036619052 0.10976585
0.039900713 0.16210434 -0.23448922 0.20245527 0.34861776 -0.11953209 -0.010960538 -0.13383096
0.28229743 0.23027019 -0.18241473 0.03361664 -0.022917213 0.102922104 0.2842514 0.17260894
-0.296924 0.06287314 -0.02672104 -0.1363458 0.0882824 0.07357932 0.050556615 0.91833794
-0.20805283 0.10755188 0.17473629 -0.14590845 0.010762158 0.10343103 -0.042655002 -0.040748406
-0.17527132 -0.009604175 0.04996654 -0.13008307 -0.25584593 0.08897716 -0.23790736 0.22500792
0.04376459 -0.36868775 0.16869165 0.013894615 -0.20594864 0.096019715 -0.15220258 -0.11046624
-0.021815851 -0.029412128 0.082308814 0.15864865 -0.06534123 0.20183308 -0.05866752 -0.15504158
-0.10258097 -0.21124919 0.28202486 0.25289303 0.12724425 -0.008045644 0.1510901 -0.38369745
-0.028075285 0.10432947 0.33417538 -0.2192032 0.050761476 0.06867776 -0.0590645 0.04819424
00000000: 17f9 8f3e 6f1c d83d 9735 83bd 415b 183f
00000010: be5e acbc b280 273d ad4c 7e3c d30f d23e
00000020: a733 92be da5b 8c3c a5cc ae3e dc32 123e
00000030: ad4f cbbd 3c88 293e 04b8 4ebe 9cec 06bd
00000040: 8132 973e 2711 d63d ae10 2ebe bcab 42be
00000050: 3f06 a93e 7736 debd eded 603c 6357 0cbf
00000060: bbde b3bd 609c 373e 7f73 82be 1858 2a3d
00000070: 54a3 a93d aa7a bbbd b730 c2be d67e a33e
00000080: 9e32 043f 45dc 153e 8e3a fa3e 0dc6 673d
00000090: 8883 e53e 1c7d 023d 954f a53d 2055 0b3d
000000a0: 72b7 a43e ec20 c73e e89c 813e e7aa d4bd
000000b0: e303 c5be f145 893e 0966 b33c b4cf 673c
000000c0: 3822 bfbc f4af 8f3e 5369 e7bc f440 e4bd
000000d0: f0d4 20bf 8705 d63d 7eb3 873c 8208 01be
000000e0: 54ce 37be 1e81 193f d679 4dbe 6c38 073e
000000f0: 3356 07be c970 c13c 53da 383d e615 d23b
00000100: c12c 2f3e e19d 51bd f56a 80be 663c 353e
00000110: fa4f 923d 0bc0 a0be d423 39be 880e f53e
00000120: e7db abbd 049d e23e ad40 643e 42de 6cbd
00000130: b3cf 883e 56e7 113e 277a 0e3d 9dc3 90bd
00000140: bb4a 02be 2ae5 103e fc3f 143e c4a0 e2bd
00000150: 49b6 58be e871 903e 183b 93be 397e a5bd
00000160: 0640 103e d94c 46be 3f68 b13e 0915 93bd
00000170: e03d 31be 1828 97be 05dc 3b3e c78a 92bd
00000180: 91f9 c83e 179b cf3d 7551 d93b 04a5 c8bc
00000190: cca3 943e d1b8 d63e 7532 c0bd 2789 d23b
000001a0: bf85 22be 8a2b 2b3d 0149 f13d 0782 443d
000001b0: 8d0b 72bd 4db2 5e3e 7dd3 043e d39c 693e
000001c0: 1e55 b23e f1a2 1f3f e879 3d3e dcb8 3b3f
000001d0: 007e 3b3e 2a3b 3e3d 75ad 95be 8735 26bd
000001e0: 7103 d6bd c7b1 f13d 8c45 ecbd 61a3 dabe
000001f0: 1304 123d b9a5 17be 6cb1 ea3d 4b34 5cbe
00000200: f8e6 8abd d0f8 e63d d7e2 eebd 3ffe a3bd
00000210: b500 c13d 8297 1c3e 61b2 11be 228a a63e
00000220: bc9a 05be c241 1e3e f4c2 8b3c 3a7a a43e
00000230: 3a6d 56be a948 5a3e b10c 163d ea59 65be
00000240: 0cc2 e3be 8599 a3bd 4b8e aebd de99 d63e
00000250: 9644 523e 5426 82be 9e7b 233e c8bc 463d
00000260: 5a6f 3cbc b028 21be 2621 f13d a211 6dbd
00000270: 1fb3 4f3e 5636 d03e baa6 53be 9a0f 1c3e
00000280: 0313 ae3e e8d8 1f3e e2f5 0d3d c96b f23d
00000290: 1e2c 293d 5317 d03d 83c5 403c bbf6 25be
000002a0: 1034 4abd ca74 75be 849b d0be 5033 643d
000002b0: 216a da3e 6478 82bd 30ac 30bc 88e2 273e
000002c0: 32e1 433e 44fb e0bc 1ebd 80bd 274b 9e3d
000002d0: 2006 ec3d 2c57 eabd dcfd 15bd ebcc e03d
000002e0: ee6e 233d aefe 253e f11d 70be 6f50 4f3e
000002f0: 077e b23e 3ecd f4bd d493 33bc fc0a 09be
00000300: 4a89 903e f3cb 6b3e edca 3abe 9ab1 093d
00000310: e1bc bbbc d3c8 d23d 6689 913e 66c0 303e
00000320: 6c06 98be a2c3 803d 15e6 dabc 3c9e 0bbe
00000330: 67cd b43d c1b0 963d 7414 4f3d 3218 6b3f
00000340: cd0b 55be 2944 dc3d 12ee 323e 0669 15be
00000350: c353 303c a6d3 d33d 03b7 2ebd cde7 26bd
00000360: 537a 33be d45a 1dbc b7a9 4c3d 7f34 05be
00000370: 3dfe 82be a839 b63d fd9d 73be 7a68 663e
00000380: 8042 333d a4c4 bcbe 81bd 2c3e 3da6 633c
00000390: 33e4 52be fca5 c43d feda 1bbe 203c e2bd
000003a0: 28b7 b2bc b4f1 f0bc 8691 a83d cb74 223e
000003b0: 9fd1 85bd 55ad 4e3e 5a4d 70bd 38c3 1ebe
000003c0: f915 d2bd b551 58be 9065 903e 327b 813e
000003d0: 514c 023e e0d1 03bc 5db7 1a3e fe73 c4be
000003e0: 24fe e5bc b0aa d53d 0919 ab3e ce76 60be
000003f0: 44eb 4f3d eda6 8c3d 9eed 71bd 5367 453d

fc4.bias f4 [36]
0.20547917 -0.10796449 -0.21819788 -0.044205934 -0.020182591 0.43225604 0.41607666 -0.10805094
0.25813633 0.95442617 0.78693694 0.47946367 0.8851548 1.4010016 1.5869542 0.75833744
0.8890494 1.9494451 1.7490675 0.9157471 0.6848346 1.448173 1.3006281 0.72394454
0.27202532 0.9081388 1.0738589 0.38841483 -0.3388323 0.40818587 0.6209776 0.030143626
-0.10517481 -0.18675584 -0.06373974 -0.15242487
00000000: 2269 523e 7d1c ddbd 446f 5fbe 4811 35bd
00000010: f655 a5bc aa50 dd3e 0008 d53e d049 ddbd
00000020: 722a 843e 4655 743f b374 493f 437c f53e
00000030: 8199 623f 0554 b33f 5121 cb3f 6722 423f
00000040: be98 633f 6b87 f93f 72e1 df3f 676e 6a3f
00000050: 5251 2f3f bc5d b93f fb7a a63f 6e54 393f
00000060: e746 8b3e c97b 683f 3574 893f 4fde c63e
00000070: 6d7b adbe bdfd d03e 63f8 1e3f c4ef f63c
00000080: e465 d7bd ec3c 3fbe fb89 82bd 4415 1cbe
